{"format": "graph-model", "generatedBy": "2.4.1", "convertedBy": "TensorFlow.js Converter v3.5.0", "signature": {"inputs": {"embedding_1_input:0": {"name": "embedding_1_input:0", "dtype": "DT_FLOAT", "tensorShape": {"dim": [{"size": "-1"}, {"size": "-1"}]}}}, "outputs": {"Identity:0": {"name": "Identity:0", "dtype": "DT_FLOAT", "tensorShape": {"dim": [{"size": "-1"}, {"size": "1"}]}}}}, "modelTopology": {"node": [{"name": "StatefulPartitionedCall/sequential_1/bidirectional_3/forward_lstm_3/PartitionedCall/TensorArrayV2_1/element_shape", "op": "Const", "attr": {"value": {"tensor": {"dtype": "DT_INT32", "tensorShape": {"dim": [{"size": "2"}]}}}, "dtype": {"type": "DT_INT32"}}}, {"name": "StatefulPartitionedCall/sequential_1/bidirectional_3/forward_lstm_3/PartitionedCall/TensorArrayUnstack/TensorListFromTensor/element_shape", "op": "Const", "attr": {"value": {"tensor": {"dtype": "DT_INT32", "tensorShape": {"dim": [{"size": "2"}]}}}, "dtype": {"type": "DT_INT32"}}}, {"name": "StatefulPartitionedCall/sequential_1/bidirectional_3/forward_lstm_3/PartitionedCall/ExpandDims/dim", "op": "Const", "attr": {"dtype": {"type": "DT_INT32"}, "value": {"tensor": {"dtype": "DT_INT32", "tensorShape": {}}}}}, {"name": "StatefulPartitionedCall/sequential_1/bidirectional_3/forward_lstm_3/PartitionedCall/transpose_1/perm", "op": "Const", "attr": {"value": {"tensor": {"dtype": "DT_INT32", "tensorShape": {"dim": [{"size": "3"}]}}}, "dtype": {"type": "DT_INT32"}}}, {"name": "StatefulPartitionedCall/sequential_1/bidirectional_3/forward_lstm_3/PartitionedCall/TensorArrayUnstack_1/TensorListFromTensor/element_shape", "op": "Const", "attr": {"dtype": {"type": "DT_INT32"}, "value": {"tensor": {"dtype": "DT_INT32", "tensorShape": {"dim": [{"size": "2"}]}}}}}, {"name": "StatefulPartitionedCall/sequential_1/bidirectional_3/forward_lstm_3/zeros_1/packed/1", "op": "Const", "attr": {"dtype": {"type": "DT_INT32"}, "value": {"tensor": {"dtype": "DT_INT32", "tensorShape": {}}}}}, {"name": "StatefulPartitionedCall/sequential_1/bidirectional_3/forward_lstm_3/zeros_1/Const", "op": "Const", "attr": {"value": {"tensor": {"dtype": "DT_FLOAT", "tensorShape": {}}}, "dtype": {"type": "DT_FLOAT"}}}, {"name": "StatefulPartitionedCall/sequential_1/bidirectional_3/forward_lstm_3/PartitionedCall/split/split_dim", "op": "Const", "attr": {"value": {"tensor": {"dtype": "DT_INT32", "tensorShape": {}}}, "dtype": {"type": "DT_INT32"}}}, {"name": "StatefulPartitionedCall/sequential_1/bidirectional_3/forward_lstm_3/PartitionedCall/strided_slice_1/stack", "op": "Const", "attr": {"value": {"tensor": {"dtype": "DT_INT32", "tensorShape": {"dim": [{"size": "1"}]}}}, "dtype": {"type": "DT_INT32"}}}, {"name": "StatefulPartitionedCall/sequential_1/bidirectional_3/forward_lstm_3/PartitionedCall/strided_slice_1/stack_1", "op": "Const", "attr": {"dtype": {"type": "DT_INT32"}, "value": {"tensor": {"dtype": "DT_INT32", "tensorShape": {"dim": [{"size": "1"}]}}}}}, {"name": "StatefulPartitionedCall/sequential_1/bidirectional_3/forward_lstm_3/PartitionedCall/strided_slice_1/stack_2", "op": "Const", "attr": {"value": {"tensor": {"dtype": "DT_INT32", "tensorShape": {"dim": [{"size": "1"}]}}}, "dtype": {"type": "DT_INT32"}}}, {"name": "StatefulPartitionedCall/sequential_1/bidirectional_3/forward_lstm_3/Read/ReadVariableOp", "op": "Const", "attr": {"dtype": {"type": "DT_FLOAT"}, "value": {"tensor": {"dtype": "DT_FLOAT", "tensorShape": {"dim": [{"size": "128"}, {"size": "128"}]}}}}}, {"name": "StatefulPartitionedCall/sequential_1/bidirectional_3/forward_lstm_3/strided_slice/stack", "op": "Const", "attr": {"value": {"tensor": {"dtype": "DT_INT32", "tensorShape": {"dim": [{"size": "1"}]}}}, "dtype": {"type": "DT_INT32"}}}, {"name": "StatefulPartitionedCall/sequential_1/bidirectional_3/forward_lstm_3/strided_slice/stack_1", "op": "Const", "attr": {"value": {"tensor": {"dtype": "DT_INT32", "tensorShape": {"dim": [{"size": "1"}]}}}, "dtype": {"type": "DT_INT32"}}}, {"name": "StatefulPartitionedCall/sequential_1/bidirectional_3/forward_lstm_3/strided_slice/stack_2", "op": "Const", "attr": {"dtype": {"type": "DT_INT32"}, "value": {"tensor": {"dtype": "DT_INT32", "tensorShape": {"dim": [{"size": "1"}]}}}}}, {"name": "StatefulPartitionedCall/sequential_1/bidirectional_3/forward_lstm_3/zeros/packed/1", "op": "Const", "attr": {"dtype": {"type": "DT_INT32"}, "value": {"tensor": {"dtype": "DT_INT32", "tensorShape": {}}}}}, {"name": "StatefulPartitionedCall/sequential_1/bidirectional_3/forward_lstm_3/zeros/Const", "op": "Const", "attr": {"dtype": {"type": "DT_FLOAT"}, "value": {"tensor": {"dtype": "DT_FLOAT", "tensorShape": {}}}}}, {"name": "StatefulPartitionedCall/sequential_1/bidirectional_3/forward_lstm_3/Read_1/ReadVariableOp", "op": "Const", "attr": {"value": {"tensor": {"dtype": "DT_FLOAT", "tensorShape": {"dim": [{"size": "32"}, {"size": "128"}]}}}, "dtype": {"type": "DT_FLOAT"}}}, {"name": "StatefulPartitionedCall/sequential_1/bidirectional_3/forward_lstm_3/Read_2/ReadVariableOp", "op": "Const", "attr": {"value": {"tensor": {"dtype": "DT_FLOAT", "tensorShape": {"dim": [{"size": "128"}]}}}, "dtype": {"type": "DT_FLOAT"}}}, {"name": "StatefulPartitionedCall/sequential_1/bidirectional_3/forward_lstm_3/PartitionedCall/time", "op": "Const", "attr": {"dtype": {"type": "DT_INT32"}, "value": {"tensor": {"dtype": "DT_INT32", "tensorShape": {}}}}}, {"name": "StatefulPartitionedCall/sequential_1/bidirectional_3/forward_lstm_3/PartitionedCall/transpose/perm", "op": "Const", "attr": {"dtype": {"type": "DT_INT32"}, "value": {"tensor": {"dtype": "DT_INT32", "tensorShape": {"dim": [{"size": "3"}]}}}}}, {"name": "StatefulPartitionedCall/sequential_1/bidirectional_3/forward_lstm_3/PartitionedCall/strided_slice/stack", "op": "Const", "attr": {"dtype": {"type": "DT_INT32"}, "value": {"tensor": {"dtype": "DT_INT32", "tensorShape": {"dim": [{"size": "1"}]}}}}}, {"name": "StatefulPartitionedCall/sequential_1/bidirectional_3/forward_lstm_3/PartitionedCall/strided_slice/stack_1", "op": "Const", "attr": {"value": {"tensor": {"dtype": "DT_INT32", "tensorShape": {"dim": [{"size": "1"}]}}}, "dtype": {"type": "DT_INT32"}}}, {"name": "StatefulPartitionedCall/sequential_1/bidirectional_3/forward_lstm_3/PartitionedCall/strided_slice/stack_2", "op": "Const", "attr": {"dtype": {"type": "DT_INT32"}, "value": {"tensor": {"dtype": "DT_INT32", "tensorShape": {"dim": [{"size": "1"}]}}}}}, {"name": "StatefulPartitionedCall/sequential_1/bidirectional_3/forward_lstm_3/PartitionedCall/while/loop_counter", "op": "Const", "attr": {"value": {"tensor": {"dtype": "DT_INT32", "tensorShape": {}}}, "dtype": {"type": "DT_INT32"}}}, {"name": "StatefulPartitionedCall/sequential_1/bidirectional_3/forward_lstm_3/PartitionedCall/TensorArrayV2Stack/TensorListStack/element_shape", "op": "Const", "attr": {"dtype": {"type": "DT_INT32"}, "value": {"tensor": {"dtype": "DT_INT32", "tensorShape": {"dim": [{"size": "2"}]}}}}}, {"name": "StatefulPartitionedCall/sequential_1/bidirectional_3/forward_lstm_3/PartitionedCall/strided_slice_2/stack", "op": "Const", "attr": {"dtype": {"type": "DT_INT32"}, "value": {"tensor": {"dtype": "DT_INT32", "tensorShape": {"dim": [{"size": "1"}]}}}}}, {"name": "StatefulPartitionedCall/sequential_1/bidirectional_3/forward_lstm_3/PartitionedCall/strided_slice_2/stack_1", "op": "Const", "attr": {"dtype": {"type": "DT_INT32"}, "value": {"tensor": {"dtype": "DT_INT32", "tensorShape": {"dim": [{"size": "1"}]}}}}}, {"name": "StatefulPartitionedCall/sequential_1/bidirectional_3/forward_lstm_3/PartitionedCall/strided_slice_2/stack_2", "op": "Const", "attr": {"dtype": {"type": "DT_INT32"}, "value": {"tensor": {"dtype": "DT_INT32", "tensorShape": {"dim": [{"size": "1"}]}}}}}, {"name": "StatefulPartitionedCall/sequential_1/bidirectional_3/backward_lstm_3/PartitionedCall/TensorArrayV2_1/element_shape", "op": "Const", "attr": {"dtype": {"type": "DT_INT32"}, "value": {"tensor": {"dtype": "DT_INT32", "tensorShape": {"dim": [{"size": "2"}]}}}}}, {"name": "StatefulPartitionedCall/sequential_1/bidirectional_3/backward_lstm_3/PartitionedCall/ReverseV2/axis", "op": "Const", "attr": {"value": {"tensor": {"dtype": "DT_INT32", "tensorShape": {"dim": [{"size": "1"}]}}}, "dtype": {"type": "DT_INT32"}}}, {"name": "StatefulPartitionedCall/sequential_1/bidirectional_3/backward_lstm_3/PartitionedCall/TensorArrayUnstack/TensorListFromTensor/element_shape", "op": "Const", "attr": {"dtype": {"type": "DT_INT32"}, "value": {"tensor": {"dtype": "DT_INT32", "tensorShape": {"dim": [{"size": "2"}]}}}}}, {"name": "StatefulPartitionedCall/sequential_1/bidirectional_3/backward_lstm_3/PartitionedCall/ExpandDims/dim", "op": "Const", "attr": {"value": {"tensor": {"dtype": "DT_INT32", "tensorShape": {}}}, "dtype": {"type": "DT_INT32"}}}, {"name": "StatefulPartitionedCall/sequential_1/bidirectional_3/backward_lstm_3/PartitionedCall/transpose_1/perm", "op": "Const", "attr": {"value": {"tensor": {"dtype": "DT_INT32", "tensorShape": {"dim": [{"size": "3"}]}}}, "dtype": {"type": "DT_INT32"}}}, {"name": "StatefulPartitionedCall/sequential_1/bidirectional_3/backward_lstm_3/PartitionedCall/ReverseV2_1/axis", "op": "Const", "attr": {"dtype": {"type": "DT_INT32"}, "value": {"tensor": {"dtype": "DT_INT32", "tensorShape": {"dim": [{"size": "1"}]}}}}}, {"name": "StatefulPartitionedCall/sequential_1/bidirectional_3/backward_lstm_3/PartitionedCall/TensorArrayUnstack_1/TensorListFromTensor/element_shape", "op": "Const", "attr": {"dtype": {"type": "DT_INT32"}, "value": {"tensor": {"dtype": "DT_INT32", "tensorShape": {"dim": [{"size": "2"}]}}}}}, {"name": "StatefulPartitionedCall/sequential_1/bidirectional_3/backward_lstm_3/zeros_1/packed/1", "op": "Const", "attr": {"value": {"tensor": {"dtype": "DT_INT32", "tensorShape": {}}}, "dtype": {"type": "DT_INT32"}}}, {"name": "StatefulPartitionedCall/sequential_1/bidirectional_3/backward_lstm_3/zeros_1/Const", "op": "Const", "attr": {"dtype": {"type": "DT_FLOAT"}, "value": {"tensor": {"dtype": "DT_FLOAT", "tensorShape": {}}}}}, {"name": "StatefulPartitionedCall/sequential_1/bidirectional_3/backward_lstm_3/PartitionedCall/split/split_dim", "op": "Const", "attr": {"value": {"tensor": {"dtype": "DT_INT32", "tensorShape": {}}}, "dtype": {"type": "DT_INT32"}}}, {"name": "StatefulPartitionedCall/sequential_1/bidirectional_3/backward_lstm_3/PartitionedCall/strided_slice_1/stack", "op": "Const", "attr": {"dtype": {"type": "DT_INT32"}, "value": {"tensor": {"dtype": "DT_INT32", "tensorShape": {"dim": [{"size": "1"}]}}}}}, {"name": "StatefulPartitionedCall/sequential_1/bidirectional_3/backward_lstm_3/PartitionedCall/strided_slice_1/stack_1", "op": "Const", "attr": {"dtype": {"type": "DT_INT32"}, "value": {"tensor": {"dtype": "DT_INT32", "tensorShape": {"dim": [{"size": "1"}]}}}}}, {"name": "StatefulPartitionedCall/sequential_1/bidirectional_3/backward_lstm_3/PartitionedCall/strided_slice_1/stack_2", "op": "Const", "attr": {"dtype": {"type": "DT_INT32"}, "value": {"tensor": {"dtype": "DT_INT32", "tensorShape": {"dim": [{"size": "1"}]}}}}}, {"name": "StatefulPartitionedCall/sequential_1/bidirectional_3/backward_lstm_3/Read/ReadVariableOp", "op": "Const", "attr": {"dtype": {"type": "DT_FLOAT"}, "value": {"tensor": {"dtype": "DT_FLOAT", "tensorShape": {"dim": [{"size": "128"}, {"size": "128"}]}}}}}, {"name": "StatefulPartitionedCall/sequential_1/bidirectional_3/backward_lstm_3/strided_slice/stack", "op": "Const", "attr": {"dtype": {"type": "DT_INT32"}, "value": {"tensor": {"dtype": "DT_INT32", "tensorShape": {"dim": [{"size": "1"}]}}}}}, {"name": "StatefulPartitionedCall/sequential_1/bidirectional_3/backward_lstm_3/strided_slice/stack_1", "op": "Const", "attr": {"dtype": {"type": "DT_INT32"}, "value": {"tensor": {"dtype": "DT_INT32", "tensorShape": {"dim": [{"size": "1"}]}}}}}, {"name": "StatefulPartitionedCall/sequential_1/bidirectional_3/backward_lstm_3/strided_slice/stack_2", "op": "Const", "attr": {"value": {"tensor": {"dtype": "DT_INT32", "tensorShape": {"dim": [{"size": "1"}]}}}, "dtype": {"type": "DT_INT32"}}}, {"name": "StatefulPartitionedCall/sequential_1/bidirectional_3/backward_lstm_3/zeros/packed/1", "op": "Const", "attr": {"value": {"tensor": {"dtype": "DT_INT32", "tensorShape": {}}}, "dtype": {"type": "DT_INT32"}}}, {"name": "StatefulPartitionedCall/sequential_1/bidirectional_3/backward_lstm_3/zeros/Const", "op": "Const", "attr": {"value": {"tensor": {"dtype": "DT_FLOAT", "tensorShape": {}}}, "dtype": {"type": "DT_FLOAT"}}}, {"name": "StatefulPartitionedCall/sequential_1/bidirectional_3/backward_lstm_3/Read_1/ReadVariableOp", "op": "Const", "attr": {"value": {"tensor": {"dtype": "DT_FLOAT", "tensorShape": {"dim": [{"size": "32"}, {"size": "128"}]}}}, "dtype": {"type": "DT_FLOAT"}}}, {"name": "StatefulPartitionedCall/sequential_1/bidirectional_3/backward_lstm_3/Read_2/ReadVariableOp", "op": "Const", "attr": {"dtype": {"type": "DT_FLOAT"}, "value": {"tensor": {"dtype": "DT_FLOAT", "tensorShape": {"dim": [{"size": "128"}]}}}}}, {"name": "StatefulPartitionedCall/sequential_1/bidirectional_3/backward_lstm_3/PartitionedCall/time", "op": "Const", "attr": {"dtype": {"type": "DT_INT32"}, "value": {"tensor": {"dtype": "DT_INT32", "tensorShape": {}}}}}, {"name": "StatefulPartitionedCall/sequential_1/bidirectional_2/forward_lstm_2/PartitionedCall/TensorArrayV2_1/element_shape", "op": "Const", "attr": {"value": {"tensor": {"dtype": "DT_INT32", "tensorShape": {"dim": [{"size": "2"}]}}}, "dtype": {"type": "DT_INT32"}}}, {"name": "StatefulPartitionedCall/sequential_1/bidirectional_2/forward_lstm_2/PartitionedCall/TensorArrayUnstack/TensorListFromTensor/element_shape", "op": "Const", "attr": {"value": {"tensor": {"dtype": "DT_INT32", "tensorShape": {"dim": [{"size": "2"}]}}}, "dtype": {"type": "DT_INT32"}}}, {"name": "StatefulPartitionedCall/sequential_1/bidirectional_2/forward_lstm_2/PartitionedCall/ExpandDims/dim", "op": "Const", "attr": {"dtype": {"type": "DT_INT32"}, "value": {"tensor": {"dtype": "DT_INT32", "tensorShape": {}}}}}, {"name": "StatefulPartitionedCall/sequential_1/bidirectional_2/forward_lstm_2/PartitionedCall/transpose_1/perm", "op": "Const", "attr": {"value": {"tensor": {"dtype": "DT_INT32", "tensorShape": {"dim": [{"size": "3"}]}}}, "dtype": {"type": "DT_INT32"}}}, {"name": "StatefulPartitionedCall/sequential_1/bidirectional_2/forward_lstm_2/PartitionedCall/TensorArrayUnstack_1/TensorListFromTensor/element_shape", "op": "Const", "attr": {"dtype": {"type": "DT_INT32"}, "value": {"tensor": {"dtype": "DT_INT32", "tensorShape": {"dim": [{"size": "2"}]}}}}}, {"name": "StatefulPartitionedCall/sequential_1/bidirectional_2/forward_lstm_2/zeros_1/packed/1", "op": "Const", "attr": {"value": {"tensor": {"dtype": "DT_INT32", "tensorShape": {}}}, "dtype": {"type": "DT_INT32"}}}, {"name": "StatefulPartitionedCall/sequential_1/bidirectional_2/forward_lstm_2/zeros_1/Const", "op": "Const", "attr": {"dtype": {"type": "DT_FLOAT"}, "value": {"tensor": {"dtype": "DT_FLOAT", "tensorShape": {}}}}}, {"name": "StatefulPartitionedCall/sequential_1/bidirectional_2/forward_lstm_2/PartitionedCall/split/split_dim", "op": "Const", "attr": {"value": {"tensor": {"dtype": "DT_INT32", "tensorShape": {}}}, "dtype": {"type": "DT_INT32"}}}, {"name": "StatefulPartitionedCall/sequential_1/bidirectional_2/forward_lstm_2/PartitionedCall/strided_slice_1/stack", "op": "Const", "attr": {"value": {"tensor": {"dtype": "DT_INT32", "tensorShape": {"dim": [{"size": "1"}]}}}, "dtype": {"type": "DT_INT32"}}}, {"name": "StatefulPartitionedCall/sequential_1/bidirectional_2/forward_lstm_2/PartitionedCall/strided_slice_1/stack_1", "op": "Const", "attr": {"dtype": {"type": "DT_INT32"}, "value": {"tensor": {"dtype": "DT_INT32", "tensorShape": {"dim": [{"size": "1"}]}}}}}, {"name": "StatefulPartitionedCall/sequential_1/bidirectional_2/forward_lstm_2/PartitionedCall/strided_slice_1/stack_2", "op": "Const", "attr": {"value": {"tensor": {"dtype": "DT_INT32", "tensorShape": {"dim": [{"size": "1"}]}}}, "dtype": {"type": "DT_INT32"}}}, {"name": "StatefulPartitionedCall/sequential_1/bidirectional_2/forward_lstm_2/Read/ReadVariableOp", "op": "Const", "attr": {"value": {"tensor": {"dtype": "DT_FLOAT", "tensorShape": {"dim": [{"size": "64"}, {"size": "256"}]}}}, "dtype": {"type": "DT_FLOAT"}}}, {"name": "StatefulPartitionedCall/sequential_1/bidirectional_2/forward_lstm_2/strided_slice/stack", "op": "Const", "attr": {"dtype": {"type": "DT_INT32"}, "value": {"tensor": {"dtype": "DT_INT32", "tensorShape": {"dim": [{"size": "1"}]}}}}}, {"name": "StatefulPartitionedCall/sequential_1/bidirectional_2/forward_lstm_2/strided_slice/stack_1", "op": "Const", "attr": {"value": {"tensor": {"dtype": "DT_INT32", "tensorShape": {"dim": [{"size": "1"}]}}}, "dtype": {"type": "DT_INT32"}}}, {"name": "StatefulPartitionedCall/sequential_1/bidirectional_2/forward_lstm_2/strided_slice/stack_2", "op": "Const", "attr": {"dtype": {"type": "DT_INT32"}, "value": {"tensor": {"dtype": "DT_INT32", "tensorShape": {"dim": [{"size": "1"}]}}}}}, {"name": "StatefulPartitionedCall/sequential_1/bidirectional_2/forward_lstm_2/zeros/packed/1", "op": "Const", "attr": {"value": {"tensor": {"dtype": "DT_INT32", "tensorShape": {}}}, "dtype": {"type": "DT_INT32"}}}, {"name": "StatefulPartitionedCall/sequential_1/bidirectional_2/forward_lstm_2/zeros/Const", "op": "Const", "attr": {"value": {"tensor": {"dtype": "DT_FLOAT", "tensorShape": {}}}, "dtype": {"type": "DT_FLOAT"}}}, {"name": "StatefulPartitionedCall/sequential_1/bidirectional_2/forward_lstm_2/Read_1/ReadVariableOp", "op": "Const", "attr": {"value": {"tensor": {"dtype": "DT_FLOAT", "tensorShape": {"dim": [{"size": "64"}, {"size": "256"}]}}}, "dtype": {"type": "DT_FLOAT"}}}, {"name": "StatefulPartitionedCall/sequential_1/bidirectional_2/forward_lstm_2/Read_2/ReadVariableOp", "op": "Const", "attr": {"value": {"tensor": {"dtype": "DT_FLOAT", "tensorShape": {"dim": [{"size": "256"}]}}}, "dtype": {"type": "DT_FLOAT"}}}, {"name": "StatefulPartitionedCall/sequential_1/bidirectional_2/forward_lstm_2/PartitionedCall/time", "op": "Const", "attr": {"dtype": {"type": "DT_INT32"}, "value": {"tensor": {"dtype": "DT_INT32", "tensorShape": {}}}}}, {"name": "StatefulPartitionedCall/sequential_1/bidirectional_2/forward_lstm_2/PartitionedCall/transpose/perm", "op": "Const", "attr": {"value": {"tensor": {"dtype": "DT_INT32", "tensorShape": {"dim": [{"size": "3"}]}}}, "dtype": {"type": "DT_INT32"}}}, {"name": "StatefulPartitionedCall/sequential_1/bidirectional_2/forward_lstm_2/PartitionedCall/strided_slice/stack", "op": "Const", "attr": {"value": {"tensor": {"dtype": "DT_INT32", "tensorShape": {"dim": [{"size": "1"}]}}}, "dtype": {"type": "DT_INT32"}}}, {"name": "StatefulPartitionedCall/sequential_1/bidirectional_2/forward_lstm_2/PartitionedCall/strided_slice/stack_1", "op": "Const", "attr": {"value": {"tensor": {"dtype": "DT_INT32", "tensorShape": {"dim": [{"size": "1"}]}}}, "dtype": {"type": "DT_INT32"}}}, {"name": "StatefulPartitionedCall/sequential_1/bidirectional_2/forward_lstm_2/PartitionedCall/strided_slice/stack_2", "op": "Const", "attr": {"dtype": {"type": "DT_INT32"}, "value": {"tensor": {"dtype": "DT_INT32", "tensorShape": {"dim": [{"size": "1"}]}}}}}, {"name": "StatefulPartitionedCall/sequential_1/bidirectional_2/forward_lstm_2/PartitionedCall/while/loop_counter", "op": "Const", "attr": {"dtype": {"type": "DT_INT32"}, "value": {"tensor": {"dtype": "DT_INT32", "tensorShape": {}}}}}, {"name": "StatefulPartitionedCall/sequential_1/bidirectional_2/forward_lstm_2/PartitionedCall/TensorArrayV2Stack/TensorListStack/element_shape", "op": "Const", "attr": {"dtype": {"type": "DT_INT32"}, "value": {"tensor": {"dtype": "DT_INT32", "tensorShape": {"dim": [{"size": "2"}]}}}}}, {"name": "StatefulPartitionedCall/sequential_1/bidirectional_2/forward_lstm_2/PartitionedCall/transpose_2/perm", "op": "Const", "attr": {"value": {"tensor": {"dtype": "DT_INT32", "tensorShape": {"dim": [{"size": "3"}]}}}, "dtype": {"type": "DT_INT32"}}}, {"name": "StatefulPartitionedCall/sequential_1/bidirectional_2/backward_lstm_2/PartitionedCall/TensorArrayV2_1/element_shape", "op": "Const", "attr": {"value": {"tensor": {"dtype": "DT_INT32", "tensorShape": {"dim": [{"size": "2"}]}}}, "dtype": {"type": "DT_INT32"}}}, {"name": "StatefulPartitionedCall/sequential_1/bidirectional_2/backward_lstm_2/PartitionedCall/ReverseV2/axis", "op": "Const", "attr": {"value": {"tensor": {"dtype": "DT_INT32", "tensorShape": {"dim": [{"size": "1"}]}}}, "dtype": {"type": "DT_INT32"}}}, {"name": "StatefulPartitionedCall/sequential_1/bidirectional_2/backward_lstm_2/PartitionedCall/TensorArrayUnstack/TensorListFromTensor/element_shape", "op": "Const", "attr": {"dtype": {"type": "DT_INT32"}, "value": {"tensor": {"dtype": "DT_INT32", "tensorShape": {"dim": [{"size": "2"}]}}}}}, {"name": "StatefulPartitionedCall/sequential_1/embedding_1/NotEqual/y", "op": "Const", "attr": {"dtype": {"type": "DT_FLOAT"}, "value": {"tensor": {"dtype": "DT_FLOAT", "tensorShape": {}}}}}, {"name": "StatefulPartitionedCall/sequential_1/bidirectional_2/backward_lstm_2/PartitionedCall/ExpandDims/dim", "op": "Const", "attr": {"value": {"tensor": {"dtype": "DT_INT32", "tensorShape": {}}}, "dtype": {"type": "DT_INT32"}}}, {"name": "StatefulPartitionedCall/sequential_1/bidirectional_2/backward_lstm_2/PartitionedCall/transpose_1/perm", "op": "Const", "attr": {"dtype": {"type": "DT_INT32"}, "value": {"tensor": {"dtype": "DT_INT32", "tensorShape": {"dim": [{"size": "3"}]}}}}}, {"name": "StatefulPartitionedCall/sequential_1/bidirectional_2/backward_lstm_2/PartitionedCall/ReverseV2_1/axis", "op": "Const", "attr": {"dtype": {"type": "DT_INT32"}, "value": {"tensor": {"dtype": "DT_INT32", "tensorShape": {"dim": [{"size": "1"}]}}}}}, {"name": "StatefulPartitionedCall/sequential_1/bidirectional_2/backward_lstm_2/PartitionedCall/TensorArrayUnstack_1/TensorListFromTensor/element_shape", "op": "Const", "attr": {"dtype": {"type": "DT_INT32"}, "value": {"tensor": {"dtype": "DT_INT32", "tensorShape": {"dim": [{"size": "2"}]}}}}}, {"name": "StatefulPartitionedCall/sequential_1/bidirectional_2/backward_lstm_2/zeros_1/packed/1", "op": "Const", "attr": {"value": {"tensor": {"dtype": "DT_INT32", "tensorShape": {}}}, "dtype": {"type": "DT_INT32"}}}, {"name": "StatefulPartitionedCall/sequential_1/bidirectional_2/backward_lstm_2/zeros_1/Const", "op": "Const", "attr": {"dtype": {"type": "DT_FLOAT"}, "value": {"tensor": {"dtype": "DT_FLOAT", "tensorShape": {}}}}}, {"name": "StatefulPartitionedCall/sequential_1/bidirectional_2/backward_lstm_2/PartitionedCall/split/split_dim", "op": "Const", "attr": {"dtype": {"type": "DT_INT32"}, "value": {"tensor": {"dtype": "DT_INT32", "tensorShape": {}}}}}, {"name": "StatefulPartitionedCall/sequential_1/bidirectional_2/backward_lstm_2/PartitionedCall/strided_slice_1/stack", "op": "Const", "attr": {"dtype": {"type": "DT_INT32"}, "value": {"tensor": {"dtype": "DT_INT32", "tensorShape": {"dim": [{"size": "1"}]}}}}}, {"name": "StatefulPartitionedCall/sequential_1/bidirectional_2/backward_lstm_2/PartitionedCall/strided_slice_1/stack_1", "op": "Const", "attr": {"value": {"tensor": {"dtype": "DT_INT32", "tensorShape": {"dim": [{"size": "1"}]}}}, "dtype": {"type": "DT_INT32"}}}, {"name": "StatefulPartitionedCall/sequential_1/bidirectional_2/backward_lstm_2/PartitionedCall/strided_slice_1/stack_2", "op": "Const", "attr": {"value": {"tensor": {"dtype": "DT_INT32", "tensorShape": {"dim": [{"size": "1"}]}}}, "dtype": {"type": "DT_INT32"}}}, {"name": "StatefulPartitionedCall/sequential_1/bidirectional_2/backward_lstm_2/Read/ReadVariableOp", "op": "Const", "attr": {"dtype": {"type": "DT_FLOAT"}, "value": {"tensor": {"dtype": "DT_FLOAT", "tensorShape": {"dim": [{"size": "64"}, {"size": "256"}]}}}}}, {"name": "StatefulPartitionedCall/sequential_1/bidirectional_2/backward_lstm_2/strided_slice/stack", "op": "Const", "attr": {"dtype": {"type": "DT_INT32"}, "value": {"tensor": {"dtype": "DT_INT32", "tensorShape": {"dim": [{"size": "1"}]}}}}}, {"name": "StatefulPartitionedCall/sequential_1/bidirectional_2/backward_lstm_2/strided_slice/stack_1", "op": "Const", "attr": {"value": {"tensor": {"dtype": "DT_INT32", "tensorShape": {"dim": [{"size": "1"}]}}}, "dtype": {"type": "DT_INT32"}}}, {"name": "StatefulPartitionedCall/sequential_1/bidirectional_2/backward_lstm_2/strided_slice/stack_2", "op": "Const", "attr": {"value": {"tensor": {"dtype": "DT_INT32", "tensorShape": {"dim": [{"size": "1"}]}}}, "dtype": {"type": "DT_INT32"}}}, {"name": "StatefulPartitionedCall/sequential_1/bidirectional_2/backward_lstm_2/zeros/packed/1", "op": "Const", "attr": {"dtype": {"type": "DT_INT32"}, "value": {"tensor": {"dtype": "DT_INT32", "tensorShape": {}}}}}, {"name": "StatefulPartitionedCall/sequential_1/bidirectional_2/backward_lstm_2/zeros/Const", "op": "Const", "attr": {"value": {"tensor": {"dtype": "DT_FLOAT", "tensorShape": {}}}, "dtype": {"type": "DT_FLOAT"}}}, {"name": "StatefulPartitionedCall/sequential_1/bidirectional_2/backward_lstm_2/Read_1/ReadVariableOp", "op": "Const", "attr": {"dtype": {"type": "DT_FLOAT"}, "value": {"tensor": {"dtype": "DT_FLOAT", "tensorShape": {"dim": [{"size": "64"}, {"size": "256"}]}}}}}, {"name": "StatefulPartitionedCall/sequential_1/bidirectional_2/backward_lstm_2/Read_2/ReadVariableOp", "op": "Const", "attr": {"dtype": {"type": "DT_FLOAT"}, "value": {"tensor": {"dtype": "DT_FLOAT", "tensorShape": {"dim": [{"size": "256"}]}}}}}, {"name": "StatefulPartitionedCall/sequential_1/bidirectional_2/backward_lstm_2/PartitionedCall/time", "op": "Const", "attr": {"dtype": {"type": "DT_INT32"}, "value": {"tensor": {"dtype": "DT_INT32", "tensorShape": {}}}}}, {"name": "StatefulPartitionedCall/sequential_1/bidirectional_2/backward_lstm_2/PartitionedCall/transpose/perm", "op": "Const", "attr": {"dtype": {"type": "DT_INT32"}, "value": {"tensor": {"dtype": "DT_INT32", "tensorShape": {"dim": [{"size": "3"}]}}}}}, {"name": "StatefulPartitionedCall/sequential_1/bidirectional_2/backward_lstm_2/PartitionedCall/strided_slice/stack", "op": "Const", "attr": {"value": {"tensor": {"dtype": "DT_INT32", "tensorShape": {"dim": [{"size": "1"}]}}}, "dtype": {"type": "DT_INT32"}}}, {"name": "StatefulPartitionedCall/sequential_1/bidirectional_2/backward_lstm_2/PartitionedCall/strided_slice/stack_1", "op": "Const", "attr": {"dtype": {"type": "DT_INT32"}, "value": {"tensor": {"dtype": "DT_INT32", "tensorShape": {"dim": [{"size": "1"}]}}}}}, {"name": "StatefulPartitionedCall/sequential_1/bidirectional_2/backward_lstm_2/PartitionedCall/strided_slice/stack_2", "op": "Const", "attr": {"value": {"tensor": {"dtype": "DT_INT32", "tensorShape": {"dim": [{"size": "1"}]}}}, "dtype": {"type": "DT_INT32"}}}, {"name": "StatefulPartitionedCall/sequential_1/bidirectional_2/backward_lstm_2/PartitionedCall/while/loop_counter", "op": "Const", "attr": {"dtype": {"type": "DT_INT32"}, "value": {"tensor": {"dtype": "DT_INT32", "tensorShape": {}}}}}, {"name": "StatefulPartitionedCall/sequential_1/bidirectional_2/backward_lstm_2/PartitionedCall/TensorArrayV2Stack/TensorListStack/element_shape", "op": "Const", "attr": {"value": {"tensor": {"dtype": "DT_INT32", "tensorShape": {"dim": [{"size": "2"}]}}}, "dtype": {"type": "DT_INT32"}}}, {"name": "StatefulPartitionedCall/sequential_1/bidirectional_2/backward_lstm_2/PartitionedCall/transpose_2/perm", "op": "Const", "attr": {"value": {"tensor": {"dtype": "DT_INT32", "tensorShape": {"dim": [{"size": "3"}]}}}, "dtype": {"type": "DT_INT32"}}}, {"name": "StatefulPartitionedCall/sequential_1/bidirectional_2/ReverseV2/axis", "op": "Const", "attr": {"value": {"tensor": {"dtype": "DT_INT32", "tensorShape": {"dim": [{"size": "1"}]}}}, "dtype": {"type": "DT_INT32"}}}, {"name": "StatefulPartitionedCall/sequential_1/bidirectional_2/concat/axis", "op": "Const", "attr": {"dtype": {"type": "DT_INT32"}, "value": {"tensor": {"dtype": "DT_INT32", "tensorShape": {}}}}}, {"name": "StatefulPartitionedCall/sequential_1/bidirectional_3/backward_lstm_3/PartitionedCall/transpose/perm", "op": "Const", "attr": {"dtype": {"type": "DT_INT32"}, "value": {"tensor": {"dtype": "DT_INT32", "tensorShape": {"dim": [{"size": "3"}]}}}}}, {"name": "StatefulPartitionedCall/sequential_1/bidirectional_3/backward_lstm_3/PartitionedCall/strided_slice/stack", "op": "Const", "attr": {"dtype": {"type": "DT_INT32"}, "value": {"tensor": {"dtype": "DT_INT32", "tensorShape": {"dim": [{"size": "1"}]}}}}}, {"name": "StatefulPartitionedCall/sequential_1/bidirectional_3/backward_lstm_3/PartitionedCall/strided_slice/stack_1", "op": "Const", "attr": {"dtype": {"type": "DT_INT32"}, "value": {"tensor": {"dtype": "DT_INT32", "tensorShape": {"dim": [{"size": "1"}]}}}}}, {"name": "StatefulPartitionedCall/sequential_1/bidirectional_3/backward_lstm_3/PartitionedCall/strided_slice/stack_2", "op": "Const", "attr": {"value": {"tensor": {"dtype": "DT_INT32", "tensorShape": {"dim": [{"size": "1"}]}}}, "dtype": {"type": "DT_INT32"}}}, {"name": "StatefulPartitionedCall/sequential_1/bidirectional_3/backward_lstm_3/PartitionedCall/while/loop_counter", "op": "Const", "attr": {"value": {"tensor": {"dtype": "DT_INT32", "tensorShape": {}}}, "dtype": {"type": "DT_INT32"}}}, {"name": "StatefulPartitionedCall/sequential_1/bidirectional_3/backward_lstm_3/PartitionedCall/TensorArrayV2Stack/TensorListStack/element_shape", "op": "Const", "attr": {"dtype": {"type": "DT_INT32"}, "value": {"tensor": {"dtype": "DT_INT32", "tensorShape": {"dim": [{"size": "2"}]}}}}}, {"name": "StatefulPartitionedCall/sequential_1/bidirectional_3/backward_lstm_3/PartitionedCall/strided_slice_2/stack", "op": "Const", "attr": {"dtype": {"type": "DT_INT32"}, "value": {"tensor": {"dtype": "DT_INT32", "tensorShape": {"dim": [{"size": "1"}]}}}}}, {"name": "StatefulPartitionedCall/sequential_1/bidirectional_3/backward_lstm_3/PartitionedCall/strided_slice_2/stack_1", "op": "Const", "attr": {"dtype": {"type": "DT_INT32"}, "value": {"tensor": {"dtype": "DT_INT32", "tensorShape": {"dim": [{"size": "1"}]}}}}}, {"name": "StatefulPartitionedCall/sequential_1/bidirectional_3/backward_lstm_3/PartitionedCall/strided_slice_2/stack_2", "op": "Const", "attr": {"value": {"tensor": {"dtype": "DT_INT32", "tensorShape": {"dim": [{"size": "1"}]}}}, "dtype": {"type": "DT_INT32"}}}, {"name": "StatefulPartitionedCall/sequential_1/bidirectional_3/concat/axis", "op": "Const", "attr": {"dtype": {"type": "DT_INT32"}, "value": {"tensor": {"dtype": "DT_INT32", "tensorShape": {}}}}}, {"name": "StatefulPartitionedCall/sequential_1/dense_2/MatMul/ReadVariableOp", "op": "Const", "attr": {"value": {"tensor": {"dtype": "DT_FLOAT", "tensorShape": {"dim": [{"size": "64"}, {"size": "64"}]}}}, "dtype": {"type": "DT_FLOAT"}}}, {"name": "StatefulPartitionedCall/sequential_1/dense_2/BiasAdd/ReadVariableOp", "op": "Const", "attr": {"dtype": {"type": "DT_FLOAT"}, "value": {"tensor": {"dtype": "DT_FLOAT", "tensorShape": {"dim": [{"size": "64"}]}}}}}, {"name": "StatefulPartitionedCall/sequential_1/dense_3/MatMul/ReadVariableOp", "op": "Const", "attr": {"dtype": {"type": "DT_FLOAT"}, "value": {"tensor": {"dtype": "DT_FLOAT", "tensorShape": {"dim": [{"size": "64"}, {"size": "1"}]}}}}}, {"name": "StatefulPartitionedCall/sequential_1/dense_3/BiasAdd/ReadVariableOp", "op": "Const", "attr": {"value": {"tensor": {"dtype": "DT_FLOAT", "tensorShape": {"dim": [{"size": "1"}]}}}, "dtype": {"type": "DT_FLOAT"}}}, {"name": "unknown", "op": "Const", "attr": {"value": {"tensor": {"dtype": "DT_FLOAT", "tensorShape": {"dim": [{"size": "50000"}, {"size": "64"}]}}}, "dtype": {"type": "DT_FLOAT"}}}, {"name": "StatefulPartitionedCall/sequential_1/embedding_1/embedding_lookup/axis", "op": "Const", "attr": {"dtype": {"type": "DT_INT32"}, "value": {"tensor": {"dtype": "DT_INT32", "tensorShape": {}}}}}, {"name": "embedding_1_input", "op": "Placeholder", "attr": {"dtype": {"type": "DT_FLOAT"}, "shape": {"shape": {"dim": [{"size": "-1"}, {"size": "-1"}]}}}}, {"name": "StatefulPartitionedCall/sequential_1/bidirectional_3/forward_lstm_3/PartitionedCall/while/enter/_230", "op": "Enter", "input": ["StatefulPartitionedCall/sequential_1/bidirectional_3/forward_lstm_3/Read/ReadVariableOp"], "attr": {"frame_name": {"s": "U3RhdGVmdWxQYXJ0aXRpb25lZENhbGwvc2VxdWVudGlhbF8xL2JpZGlyZWN0aW9uYWxfMy9mb3J3YXJkX2xzdG1fMy9QYXJ0aXRpb25lZENhbGwvd2hpbGU="}, "is_constant": {"b": false}, "T": {"type": "DT_FLOAT"}, "parallel_iterations": {"i": "32"}}}, {"name": "StatefulPartitionedCall/sequential_1/bidirectional_3/forward_lstm_3/PartitionedCall/while/enter/_231", "op": "Enter", "input": ["StatefulPartitionedCall/sequential_1/bidirectional_3/forward_lstm_3/Read_1/ReadVariableOp"], "attr": {"T": {"type": "DT_FLOAT"}, "frame_name": {"s": "U3RhdGVmdWxQYXJ0aXRpb25lZENhbGwvc2VxdWVudGlhbF8xL2JpZGlyZWN0aW9uYWxfMy9mb3J3YXJkX2xzdG1fMy9QYXJ0aXRpb25lZENhbGwvd2hpbGU="}, "is_constant": {"b": false}, "parallel_iterations": {"i": "32"}}}, {"name": "StatefulPartitionedCall/sequential_1/bidirectional_3/forward_lstm_3/PartitionedCall/while/enter/_232", "op": "Enter", "input": ["StatefulPartitionedCall/sequential_1/bidirectional_3/forward_lstm_3/Read_2/ReadVariableOp"], "attr": {"parallel_iterations": {"i": "32"}, "frame_name": {"s": "U3RhdGVmdWxQYXJ0aXRpb25lZENhbGwvc2VxdWVudGlhbF8xL2JpZGlyZWN0aW9uYWxfMy9mb3J3YXJkX2xzdG1fMy9QYXJ0aXRpb25lZENhbGwvd2hpbGU="}, "is_constant": {"b": false}, "T": {"type": "DT_FLOAT"}}}, {"name": "StatefulPartitionedCall/sequential_1/bidirectional_3/forward_lstm_3/PartitionedCall/while/enter/_222", "op": "Enter", "input": ["StatefulPartitionedCall/sequential_1/bidirectional_3/forward_lstm_3/PartitionedCall/time"], "attr": {"T": {"type": "DT_INT32"}, "parallel_iterations": {"i": "32"}, "is_constant": {"b": false}, "frame_name": {"s": "U3RhdGVmdWxQYXJ0aXRpb25lZENhbGwvc2VxdWVudGlhbF8xL2JpZGlyZWN0aW9uYWxfMy9mb3J3YXJkX2xzdG1fMy9QYXJ0aXRpb25lZENhbGwvd2hpbGU="}}}, {"name": "StatefulPartitionedCall/sequential_1/bidirectional_3/forward_lstm_3/PartitionedCall/while/enter/_220", "op": "Enter", "input": ["StatefulPartitionedCall/sequential_1/bidirectional_3/forward_lstm_3/PartitionedCall/while/loop_counter"], "attr": {"T": {"type": "DT_INT32"}, "frame_name": {"s": "U3RhdGVmdWxQYXJ0aXRpb25lZENhbGwvc2VxdWVudGlhbF8xL2JpZGlyZWN0aW9uYWxfMy9mb3J3YXJkX2xzdG1fMy9QYXJ0aXRpb25lZENhbGwvd2hpbGU="}, "is_constant": {"b": false}, "parallel_iterations": {"i": "32"}}}, {"name": "StatefulPartitionedCall/sequential_1/bidirectional_3/backward_lstm_3/PartitionedCall/while/enter/_300", "op": "Enter", "input": ["StatefulPartitionedCall/sequential_1/bidirectional_3/backward_lstm_3/Read/ReadVariableOp"], "attr": {"is_constant": {"b": false}, "frame_name": {"s": "U3RhdGVmdWxQYXJ0aXRpb25lZENhbGwvc2VxdWVudGlhbF8xL2JpZGlyZWN0aW9uYWxfMy9iYWNrd2FyZF9sc3RtXzMvUGFydGl0aW9uZWRDYWxsL3doaWxl"}, "T": {"type": "DT_FLOAT"}, "parallel_iterations": {"i": "32"}}}, {"name": "StatefulPartitionedCall/sequential_1/bidirectional_3/backward_lstm_3/PartitionedCall/while/enter/_301", "op": "Enter", "input": ["StatefulPartitionedCall/sequential_1/bidirectional_3/backward_lstm_3/Read_1/ReadVariableOp"], "attr": {"frame_name": {"s": "U3RhdGVmdWxQYXJ0aXRpb25lZENhbGwvc2VxdWVudGlhbF8xL2JpZGlyZWN0aW9uYWxfMy9iYWNrd2FyZF9sc3RtXzMvUGFydGl0aW9uZWRDYWxsL3doaWxl"}, "T": {"type": "DT_FLOAT"}, "is_constant": {"b": false}, "parallel_iterations": {"i": "32"}}}, {"name": "StatefulPartitionedCall/sequential_1/bidirectional_3/backward_lstm_3/PartitionedCall/while/enter/_302", "op": "Enter", "input": ["StatefulPartitionedCall/sequential_1/bidirectional_3/backward_lstm_3/Read_2/ReadVariableOp"], "attr": {"parallel_iterations": {"i": "32"}, "T": {"type": "DT_FLOAT"}, "is_constant": {"b": false}, "frame_name": {"s": "U3RhdGVmdWxQYXJ0aXRpb25lZENhbGwvc2VxdWVudGlhbF8xL2JpZGlyZWN0aW9uYWxfMy9iYWNrd2FyZF9sc3RtXzMvUGFydGl0aW9uZWRDYWxsL3doaWxl"}}}, {"name": "StatefulPartitionedCall/sequential_1/bidirectional_3/backward_lstm_3/PartitionedCall/while/enter/_292", "op": "Enter", "input": ["StatefulPartitionedCall/sequential_1/bidirectional_3/backward_lstm_3/PartitionedCall/time"], "attr": {"T": {"type": "DT_INT32"}, "parallel_iterations": {"i": "32"}, "is_constant": {"b": false}, "frame_name": {"s": "U3RhdGVmdWxQYXJ0aXRpb25lZENhbGwvc2VxdWVudGlhbF8xL2JpZGlyZWN0aW9uYWxfMy9iYWNrd2FyZF9sc3RtXzMvUGFydGl0aW9uZWRDYWxsL3doaWxl"}}}, {"name": "StatefulPartitionedCall/sequential_1/bidirectional_2/forward_lstm_2/PartitionedCall/while/enter/_80", "op": "Enter", "input": ["StatefulPartitionedCall/sequential_1/bidirectional_2/forward_lstm_2/Read/ReadVariableOp"], "attr": {"T": {"type": "DT_FLOAT"}, "parallel_iterations": {"i": "32"}, "frame_name": {"s": "U3RhdGVmdWxQYXJ0aXRpb25lZENhbGwvc2VxdWVudGlhbF8xL2JpZGlyZWN0aW9uYWxfMi9mb3J3YXJkX2xzdG1fMi9QYXJ0aXRpb25lZENhbGwvd2hpbGU="}, "is_constant": {"b": false}}}, {"name": "StatefulPartitionedCall/sequential_1/bidirectional_2/forward_lstm_2/PartitionedCall/while/enter/_81", "op": "Enter", "input": ["StatefulPartitionedCall/sequential_1/bidirectional_2/forward_lstm_2/Read_1/ReadVariableOp"], "attr": {"is_constant": {"b": false}, "T": {"type": "DT_FLOAT"}, "frame_name": {"s": "U3RhdGVmdWxQYXJ0aXRpb25lZENhbGwvc2VxdWVudGlhbF8xL2JpZGlyZWN0aW9uYWxfMi9mb3J3YXJkX2xzdG1fMi9QYXJ0aXRpb25lZENhbGwvd2hpbGU="}, "parallel_iterations": {"i": "32"}}}, {"name": "StatefulPartitionedCall/sequential_1/bidirectional_2/forward_lstm_2/PartitionedCall/while/enter/_82", "op": "Enter", "input": ["StatefulPartitionedCall/sequential_1/bidirectional_2/forward_lstm_2/Read_2/ReadVariableOp"], "attr": {"parallel_iterations": {"i": "32"}, "is_constant": {"b": false}, "T": {"type": "DT_FLOAT"}, "frame_name": {"s": "U3RhdGVmdWxQYXJ0aXRpb25lZENhbGwvc2VxdWVudGlhbF8xL2JpZGlyZWN0aW9uYWxfMi9mb3J3YXJkX2xzdG1fMi9QYXJ0aXRpb25lZENhbGwvd2hpbGU="}}}, {"name": "StatefulPartitionedCall/sequential_1/bidirectional_2/forward_lstm_2/PartitionedCall/while/enter/_72", "op": "Enter", "input": ["StatefulPartitionedCall/sequential_1/bidirectional_2/forward_lstm_2/PartitionedCall/time"], "attr": {"parallel_iterations": {"i": "32"}, "T": {"type": "DT_INT32"}, "frame_name": {"s": "U3RhdGVmdWxQYXJ0aXRpb25lZENhbGwvc2VxdWVudGlhbF8xL2JpZGlyZWN0aW9uYWxfMi9mb3J3YXJkX2xzdG1fMi9QYXJ0aXRpb25lZENhbGwvd2hpbGU="}, "is_constant": {"b": false}}}, {"name": "StatefulPartitionedCall/sequential_1/bidirectional_2/forward_lstm_2/PartitionedCall/while/enter/_70", "op": "Enter", "input": ["StatefulPartitionedCall/sequential_1/bidirectional_2/forward_lstm_2/PartitionedCall/while/loop_counter"], "attr": {"frame_name": {"s": "U3RhdGVmdWxQYXJ0aXRpb25lZENhbGwvc2VxdWVudGlhbF8xL2JpZGlyZWN0aW9uYWxfMi9mb3J3YXJkX2xzdG1fMi9QYXJ0aXRpb25lZENhbGwvd2hpbGU="}, "parallel_iterations": {"i": "32"}, "T": {"type": "DT_INT32"}, "is_constant": {"b": false}}}, {"name": "StatefulPartitionedCall/sequential_1/bidirectional_2/backward_lstm_2/PartitionedCall/while/enter/_155", "op": "Enter", "input": ["StatefulPartitionedCall/sequential_1/bidirectional_2/backward_lstm_2/Read/ReadVariableOp"], "attr": {"parallel_iterations": {"i": "32"}, "is_constant": {"b": false}, "T": {"type": "DT_FLOAT"}, "frame_name": {"s": "U3RhdGVmdWxQYXJ0aXRpb25lZENhbGwvc2VxdWVudGlhbF8xL2JpZGlyZWN0aW9uYWxfMi9iYWNrd2FyZF9sc3RtXzIvUGFydGl0aW9uZWRDYWxsL3doaWxl"}}}, {"name": "StatefulPartitionedCall/sequential_1/bidirectional_2/backward_lstm_2/PartitionedCall/while/enter/_156", "op": "Enter", "input": ["StatefulPartitionedCall/sequential_1/bidirectional_2/backward_lstm_2/Read_1/ReadVariableOp"], "attr": {"T": {"type": "DT_FLOAT"}, "is_constant": {"b": false}, "frame_name": {"s": "U3RhdGVmdWxQYXJ0aXRpb25lZENhbGwvc2VxdWVudGlhbF8xL2JpZGlyZWN0aW9uYWxfMi9iYWNrd2FyZF9sc3RtXzIvUGFydGl0aW9uZWRDYWxsL3doaWxl"}, "parallel_iterations": {"i": "32"}}}, {"name": "StatefulPartitionedCall/sequential_1/bidirectional_2/backward_lstm_2/PartitionedCall/while/enter/_157", "op": "Enter", "input": ["StatefulPartitionedCall/sequential_1/bidirectional_2/backward_lstm_2/Read_2/ReadVariableOp"], "attr": {"parallel_iterations": {"i": "32"}, "frame_name": {"s": "U3RhdGVmdWxQYXJ0aXRpb25lZENhbGwvc2VxdWVudGlhbF8xL2JpZGlyZWN0aW9uYWxfMi9iYWNrd2FyZF9sc3RtXzIvUGFydGl0aW9uZWRDYWxsL3doaWxl"}, "is_constant": {"b": false}, "T": {"type": "DT_FLOAT"}}}, {"name": "StatefulPartitionedCall/sequential_1/bidirectional_2/backward_lstm_2/PartitionedCall/while/enter/_147", "op": "Enter", "input": ["StatefulPartitionedCall/sequential_1/bidirectional_2/backward_lstm_2/PartitionedCall/time"], "attr": {"parallel_iterations": {"i": "32"}, "is_constant": {"b": false}, "T": {"type": "DT_INT32"}, "frame_name": {"s": "U3RhdGVmdWxQYXJ0aXRpb25lZENhbGwvc2VxdWVudGlhbF8xL2JpZGlyZWN0aW9uYWxfMi9iYWNrd2FyZF9sc3RtXzIvUGFydGl0aW9uZWRDYWxsL3doaWxl"}}}, {"name": "StatefulPartitionedCall/sequential_1/bidirectional_2/backward_lstm_2/PartitionedCall/while/enter/_145", "op": "Enter", "input": ["StatefulPartitionedCall/sequential_1/bidirectional_2/backward_lstm_2/PartitionedCall/while/loop_counter"], "attr": {"is_constant": {"b": false}, "frame_name": {"s": "U3RhdGVmdWxQYXJ0aXRpb25lZENhbGwvc2VxdWVudGlhbF8xL2JpZGlyZWN0aW9uYWxfMi9iYWNrd2FyZF9sc3RtXzIvUGFydGl0aW9uZWRDYWxsL3doaWxl"}, "T": {"type": "DT_INT32"}, "parallel_iterations": {"i": "32"}}}, {"name": "StatefulPartitionedCall/sequential_1/bidirectional_3/backward_lstm_3/PartitionedCall/while/enter/_290", "op": "Enter", "input": ["StatefulPartitionedCall/sequential_1/bidirectional_3/backward_lstm_3/PartitionedCall/while/loop_counter"], "attr": {"T": {"type": "DT_INT32"}, "is_constant": {"b": false}, "frame_name": {"s": "U3RhdGVmdWxQYXJ0aXRpb25lZENhbGwvc2VxdWVudGlhbF8xL2JpZGlyZWN0aW9uYWxfMy9iYWNrd2FyZF9sc3RtXzMvUGFydGl0aW9uZWRDYWxsL3doaWxl"}, "parallel_iterations": {"i": "32"}}}, {"name": "StatefulPartitionedCall/sequential_1/embedding_1/NotEqual", "op": "NotEqual", "input": ["embedding_1_input", "StatefulPartitionedCall/sequential_1/embedding_1/NotEqual/y"], "attr": {"incompatible_shape_error": {"b": true}, "T": {"type": "DT_FLOAT"}}}, {"name": "StatefulPartitionedCall/sequential_1/embedding_1/Cast", "op": "Cast", "input": ["embedding_1_input"], "attr": {"Truncate": {"b": false}, "DstT": {"type": "DT_INT32"}, "SrcT": {"type": "DT_FLOAT"}}}, {"name": "StatefulPartitionedCall/sequential_1/bidirectional_3/forward_lstm_3/PartitionedCall/while/merge/_243", "op": "Merge", "input": ["StatefulPartitionedCall/sequential_1/bidirectional_3/forward_lstm_3/PartitionedCall/while/enter/_230", "StatefulPartitionedCall/sequential_1/bidirectional_3/forward_lstm_3/PartitionedCall/while/next_iteration/_285"], "attr": {"T": {"type": "DT_FLOAT"}, "N": {"i": "2"}}}, {"name": "StatefulPartitionedCall/sequential_1/bidirectional_3/forward_lstm_3/PartitionedCall/while/merge/_244", "op": "Merge", "input": ["StatefulPartitionedCall/sequential_1/bidirectional_3/forward_lstm_3/PartitionedCall/while/enter/_231", "StatefulPartitionedCall/sequential_1/bidirectional_3/forward_lstm_3/PartitionedCall/while/next_iteration/_286"], "attr": {"N": {"i": "2"}, "T": {"type": "DT_FLOAT"}}}, {"name": "StatefulPartitionedCall/sequential_1/bidirectional_3/forward_lstm_3/PartitionedCall/while/merge/_245", "op": "Merge", "input": ["StatefulPartitionedCall/sequential_1/bidirectional_3/forward_lstm_3/PartitionedCall/while/enter/_232", "StatefulPartitionedCall/sequential_1/bidirectional_3/forward_lstm_3/PartitionedCall/while/next_iteration/_287"], "attr": {"N": {"i": "2"}, "T": {"type": "DT_FLOAT"}}}, {"name": "StatefulPartitionedCall/sequential_1/bidirectional_3/forward_lstm_3/PartitionedCall/while/merge/_235", "op": "Merge", "input": ["StatefulPartitionedCall/sequential_1/bidirectional_3/forward_lstm_3/PartitionedCall/while/enter/_222", "StatefulPartitionedCall/sequential_1/bidirectional_3/forward_lstm_3/PartitionedCall/while/next_iteration/_277"], "attr": {"T": {"type": "DT_INT32"}, "N": {"i": "2"}}}, {"name": "StatefulPartitionedCall/sequential_1/bidirectional_3/forward_lstm_3/PartitionedCall/while/merge/_233", "op": "Merge", "input": ["StatefulPartitionedCall/sequential_1/bidirectional_3/forward_lstm_3/PartitionedCall/while/enter/_220", "StatefulPartitionedCall/sequential_1/bidirectional_3/forward_lstm_3/PartitionedCall/while/next_iteration/_275"], "attr": {"N": {"i": "2"}, "T": {"type": "DT_INT32"}}}, {"name": "StatefulPartitionedCall/sequential_1/bidirectional_3/backward_lstm_3/PartitionedCall/while/merge/_313", "op": "Merge", "input": ["StatefulPartitionedCall/sequential_1/bidirectional_3/backward_lstm_3/PartitionedCall/while/enter/_300", "StatefulPartitionedCall/sequential_1/bidirectional_3/backward_lstm_3/PartitionedCall/while/next_iteration/_355"], "attr": {"T": {"type": "DT_FLOAT"}, "N": {"i": "2"}}}, {"name": "StatefulPartitionedCall/sequential_1/bidirectional_3/backward_lstm_3/PartitionedCall/while/merge/_314", "op": "Merge", "input": ["StatefulPartitionedCall/sequential_1/bidirectional_3/backward_lstm_3/PartitionedCall/while/enter/_301", "StatefulPartitionedCall/sequential_1/bidirectional_3/backward_lstm_3/PartitionedCall/while/next_iteration/_356"], "attr": {"N": {"i": "2"}, "T": {"type": "DT_FLOAT"}}}, {"name": "StatefulPartitionedCall/sequential_1/bidirectional_3/backward_lstm_3/PartitionedCall/while/merge/_315", "op": "Merge", "input": ["StatefulPartitionedCall/sequential_1/bidirectional_3/backward_lstm_3/PartitionedCall/while/enter/_302", "StatefulPartitionedCall/sequential_1/bidirectional_3/backward_lstm_3/PartitionedCall/while/next_iteration/_357"], "attr": {"T": {"type": "DT_FLOAT"}, "N": {"i": "2"}}}, {"name": "StatefulPartitionedCall/sequential_1/bidirectional_3/backward_lstm_3/PartitionedCall/while/merge/_305", "op": "Merge", "input": ["StatefulPartitionedCall/sequential_1/bidirectional_3/backward_lstm_3/PartitionedCall/while/enter/_292", "StatefulPartitionedCall/sequential_1/bidirectional_3/backward_lstm_3/PartitionedCall/while/next_iteration/_347"], "attr": {"N": {"i": "2"}, "T": {"type": "DT_INT32"}}}, {"name": "StatefulPartitionedCall/sequential_1/bidirectional_2/forward_lstm_2/PartitionedCall/while/merge/_94", "op": "Merge", "input": ["StatefulPartitionedCall/sequential_1/bidirectional_2/forward_lstm_2/PartitionedCall/while/enter/_80", "StatefulPartitionedCall/sequential_1/bidirectional_2/forward_lstm_2/PartitionedCall/while/next_iteration/_139"], "attr": {"N": {"i": "2"}, "T": {"type": "DT_FLOAT"}}}, {"name": "StatefulPartitionedCall/sequential_1/bidirectional_2/forward_lstm_2/PartitionedCall/while/merge/_95", "op": "Merge", "input": ["StatefulPartitionedCall/sequential_1/bidirectional_2/forward_lstm_2/PartitionedCall/while/enter/_81", "StatefulPartitionedCall/sequential_1/bidirectional_2/forward_lstm_2/PartitionedCall/while/next_iteration/_140"], "attr": {"T": {"type": "DT_FLOAT"}, "N": {"i": "2"}}}, {"name": "StatefulPartitionedCall/sequential_1/bidirectional_2/forward_lstm_2/PartitionedCall/while/merge/_96", "op": "Merge", "input": ["StatefulPartitionedCall/sequential_1/bidirectional_2/forward_lstm_2/PartitionedCall/while/enter/_82", "StatefulPartitionedCall/sequential_1/bidirectional_2/forward_lstm_2/PartitionedCall/while/next_iteration/_141"], "attr": {"N": {"i": "2"}, "T": {"type": "DT_FLOAT"}}}, {"name": "StatefulPartitionedCall/sequential_1/bidirectional_2/forward_lstm_2/PartitionedCall/while/merge/_86", "op": "Merge", "input": ["StatefulPartitionedCall/sequential_1/bidirectional_2/forward_lstm_2/PartitionedCall/while/enter/_72", "StatefulPartitionedCall/sequential_1/bidirectional_2/forward_lstm_2/PartitionedCall/while/next_iteration/_131"], "attr": {"N": {"i": "2"}, "T": {"type": "DT_INT32"}}}, {"name": "StatefulPartitionedCall/sequential_1/bidirectional_2/forward_lstm_2/PartitionedCall/while/merge/_84", "op": "Merge", "input": ["StatefulPartitionedCall/sequential_1/bidirectional_2/forward_lstm_2/PartitionedCall/while/enter/_70", "StatefulPartitionedCall/sequential_1/bidirectional_2/forward_lstm_2/PartitionedCall/while/next_iteration/_129"], "attr": {"N": {"i": "2"}, "T": {"type": "DT_INT32"}}}, {"name": "StatefulPartitionedCall/sequential_1/bidirectional_2/backward_lstm_2/PartitionedCall/while/merge/_169", "op": "Merge", "input": ["StatefulPartitionedCall/sequential_1/bidirectional_2/backward_lstm_2/PartitionedCall/while/enter/_155", "StatefulPartitionedCall/sequential_1/bidirectional_2/backward_lstm_2/PartitionedCall/while/next_iteration/_214"], "attr": {"N": {"i": "2"}, "T": {"type": "DT_FLOAT"}}}, {"name": "StatefulPartitionedCall/sequential_1/bidirectional_2/backward_lstm_2/PartitionedCall/while/merge/_170", "op": "Merge", "input": ["StatefulPartitionedCall/sequential_1/bidirectional_2/backward_lstm_2/PartitionedCall/while/enter/_156", "StatefulPartitionedCall/sequential_1/bidirectional_2/backward_lstm_2/PartitionedCall/while/next_iteration/_215"], "attr": {"N": {"i": "2"}, "T": {"type": "DT_FLOAT"}}}, {"name": "StatefulPartitionedCall/sequential_1/bidirectional_2/backward_lstm_2/PartitionedCall/while/merge/_171", "op": "Merge", "input": ["StatefulPartitionedCall/sequential_1/bidirectional_2/backward_lstm_2/PartitionedCall/while/enter/_157", "StatefulPartitionedCall/sequential_1/bidirectional_2/backward_lstm_2/PartitionedCall/while/next_iteration/_216"], "attr": {"T": {"type": "DT_FLOAT"}, "N": {"i": "2"}}}, {"name": "StatefulPartitionedCall/sequential_1/bidirectional_2/backward_lstm_2/PartitionedCall/while/merge/_161", "op": "Merge", "input": ["StatefulPartitionedCall/sequential_1/bidirectional_2/backward_lstm_2/PartitionedCall/while/enter/_147", "StatefulPartitionedCall/sequential_1/bidirectional_2/backward_lstm_2/PartitionedCall/while/next_iteration/_206"], "attr": {"N": {"i": "2"}, "T": {"type": "DT_INT32"}}}, {"name": "StatefulPartitionedCall/sequential_1/bidirectional_2/backward_lstm_2/PartitionedCall/while/merge/_159", "op": "Merge", "input": ["StatefulPartitionedCall/sequential_1/bidirectional_2/backward_lstm_2/PartitionedCall/while/enter/_145", "StatefulPartitionedCall/sequential_1/bidirectional_2/backward_lstm_2/PartitionedCall/while/next_iteration/_204"], "attr": {"N": {"i": "2"}, "T": {"type": "DT_INT32"}}}, {"name": "StatefulPartitionedCall/sequential_1/bidirectional_3/backward_lstm_3/PartitionedCall/while/merge/_303", "op": "Merge", "input": ["StatefulPartitionedCall/sequential_1/bidirectional_3/backward_lstm_3/PartitionedCall/while/enter/_290", "StatefulPartitionedCall/sequential_1/bidirectional_3/backward_lstm_3/PartitionedCall/while/next_iteration/_345"], "attr": {"T": {"type": "DT_INT32"}, "N": {"i": "2"}}}, {"name": "StatefulPartitionedCall/sequential_1/bidirectional_3/forward_lstm_3/PartitionedCall/ExpandDims", "op": "ExpandDims", "input": ["StatefulPartitionedCall/sequential_1/embedding_1/NotEqual", "StatefulPartitionedCall/sequential_1/bidirectional_3/forward_lstm_3/PartitionedCall/ExpandDims/dim"], "attr": {"Tdim": {"type": "DT_INT32"}, "T": {"type": "DT_BOOL"}}}, {"name": "StatefulPartitionedCall/sequential_1/bidirectional_3/backward_lstm_3/PartitionedCall/ExpandDims", "op": "ExpandDims", "input": ["StatefulPartitionedCall/sequential_1/embedding_1/NotEqual", "StatefulPartitionedCall/sequential_1/bidirectional_3/backward_lstm_3/PartitionedCall/ExpandDims/dim"], "attr": {"T": {"type": "DT_BOOL"}, "Tdim": {"type": "DT_INT32"}}}, {"name": "StatefulPartitionedCall/sequential_1/bidirectional_2/forward_lstm_2/PartitionedCall/ExpandDims", "op": "ExpandDims", "input": ["StatefulPartitionedCall/sequential_1/embedding_1/NotEqual", "StatefulPartitionedCall/sequential_1/bidirectional_2/forward_lstm_2/PartitionedCall/ExpandDims/dim"], "attr": {"Tdim": {"type": "DT_INT32"}, "T": {"type": "DT_BOOL"}}}, {"name": "StatefulPartitionedCall/sequential_1/bidirectional_2/backward_lstm_2/PartitionedCall/ExpandDims", "op": "ExpandDims", "input": ["StatefulPartitionedCall/sequential_1/embedding_1/NotEqual", "StatefulPartitionedCall/sequential_1/bidirectional_2/backward_lstm_2/PartitionedCall/ExpandDims/dim"], "attr": {"Tdim": {"type": "DT_INT32"}, "T": {"type": "DT_BOOL"}}}, {"name": "StatefulPartitionedCall/sequential_1/embedding_1/embedding_lookup", "op": "GatherV2", "input": ["unknown", "StatefulPartitionedCall/sequential_1/embedding_1/Cast", "StatefulPartitionedCall/sequential_1/embedding_1/embedding_lookup/axis"], "attr": {"Taxis": {"type": "DT_INT32"}, "Tindices": {"type": "DT_INT32"}, "Tparams": {"type": "DT_FLOAT"}, "batch_dims": {"i": "0"}}}, {"name": "StatefulPartitionedCall/sequential_1/bidirectional_3/forward_lstm_3/PartitionedCall/transpose_1", "op": "Transpose", "input": ["StatefulPartitionedCall/sequential_1/bidirectional_3/forward_lstm_3/PartitionedCall/ExpandDims", "StatefulPartitionedCall/sequential_1/bidirectional_3/forward_lstm_3/PartitionedCall/transpose_1/perm"], "attr": {"T": {"type": "DT_BOOL"}, "Tperm": {"type": "DT_INT32"}}}, {"name": "StatefulPartitionedCall/sequential_1/bidirectional_3/backward_lstm_3/PartitionedCall/transpose_1", "op": "Transpose", "input": ["StatefulPartitionedCall/sequential_1/bidirectional_3/backward_lstm_3/PartitionedCall/ExpandDims", "StatefulPartitionedCall/sequential_1/bidirectional_3/backward_lstm_3/PartitionedCall/transpose_1/perm"], "attr": {"Tperm": {"type": "DT_INT32"}, "T": {"type": "DT_BOOL"}}}, {"name": "StatefulPartitionedCall/sequential_1/bidirectional_2/forward_lstm_2/PartitionedCall/transpose_1", "op": "Transpose", "input": ["StatefulPartitionedCall/sequential_1/bidirectional_2/forward_lstm_2/PartitionedCall/ExpandDims", "StatefulPartitionedCall/sequential_1/bidirectional_2/forward_lstm_2/PartitionedCall/transpose_1/perm"], "attr": {"Tperm": {"type": "DT_INT32"}, "T": {"type": "DT_BOOL"}}}, {"name": "StatefulPartitionedCall/sequential_1/bidirectional_2/backward_lstm_2/PartitionedCall/transpose_1", "op": "Transpose", "input": ["StatefulPartitionedCall/sequential_1/bidirectional_2/backward_lstm_2/PartitionedCall/ExpandDims", "StatefulPartitionedCall/sequential_1/bidirectional_2/backward_lstm_2/PartitionedCall/transpose_1/perm"], "attr": {"Tperm": {"type": "DT_INT32"}, "T": {"type": "DT_BOOL"}}}, {"name": "StatefulPartitionedCall/sequential_1/bidirectional_2/forward_lstm_2/Shape", "op": "Shape", "input": ["StatefulPartitionedCall/sequential_1/embedding_1/embedding_lookup"], "attr": {"T": {"type": "DT_FLOAT"}, "out_type": {"type": "DT_INT32"}}}, {"name": "StatefulPartitionedCall/sequential_1/bidirectional_2/forward_lstm_2/PartitionedCall/transpose", "op": "Transpose", "input": ["StatefulPartitionedCall/sequential_1/embedding_1/embedding_lookup", "StatefulPartitionedCall/sequential_1/bidirectional_2/forward_lstm_2/PartitionedCall/transpose/perm"], "attr": {"T": {"type": "DT_FLOAT"}, "Tperm": {"type": "DT_INT32"}}}, {"name": "StatefulPartitionedCall/sequential_1/bidirectional_2/backward_lstm_2/Shape", "op": "Shape", "input": ["StatefulPartitionedCall/sequential_1/embedding_1/embedding_lookup"], "attr": {"out_type": {"type": "DT_INT32"}, "T": {"type": "DT_FLOAT"}}}, {"name": "StatefulPartitionedCall/sequential_1/bidirectional_2/backward_lstm_2/PartitionedCall/transpose", "op": "Transpose", "input": ["StatefulPartitionedCall/sequential_1/embedding_1/embedding_lookup", "StatefulPartitionedCall/sequential_1/bidirectional_2/backward_lstm_2/PartitionedCall/transpose/perm"], "attr": {"Tperm": {"type": "DT_INT32"}, "T": {"type": "DT_FLOAT"}}}, {"name": "StatefulPartitionedCall/sequential_1/bidirectional_3/forward_lstm_3/PartitionedCall/TensorArrayUnstack_1/TensorListFromTensor", "op": "TensorListFromTensor", "input": ["StatefulPartitionedCall/sequential_1/bidirectional_3/forward_lstm_3/PartitionedCall/transpose_1", "StatefulPartitionedCall/sequential_1/bidirectional_3/forward_lstm_3/PartitionedCall/TensorArrayUnstack_1/TensorListFromTensor/element_shape"], "attr": {"element_dtype": {"type": "DT_BOOL"}, "shape_type": {"type": "DT_INT32"}}}, {"name": "StatefulPartitionedCall/sequential_1/bidirectional_3/backward_lstm_3/PartitionedCall/ReverseV2_1", "op": "ReverseV2", "input": ["StatefulPartitionedCall/sequential_1/bidirectional_3/backward_lstm_3/PartitionedCall/transpose_1", "StatefulPartitionedCall/sequential_1/bidirectional_3/backward_lstm_3/PartitionedCall/ReverseV2_1/axis"], "attr": {"Tidx": {"type": "DT_INT32"}, "T": {"type": "DT_BOOL"}}}, {"name": "StatefulPartitionedCall/sequential_1/bidirectional_2/forward_lstm_2/PartitionedCall/TensorArrayUnstack_1/TensorListFromTensor", "op": "TensorListFromTensor", "input": ["StatefulPartitionedCall/sequential_1/bidirectional_2/forward_lstm_2/PartitionedCall/transpose_1", "StatefulPartitionedCall/sequential_1/bidirectional_2/forward_lstm_2/PartitionedCall/TensorArrayUnstack_1/TensorListFromTensor/element_shape"], "attr": {"element_dtype": {"type": "DT_BOOL"}, "shape_type": {"type": "DT_INT32"}}}, {"name": "StatefulPartitionedCall/sequential_1/bidirectional_2/backward_lstm_2/PartitionedCall/ReverseV2_1", "op": "ReverseV2", "input": ["StatefulPartitionedCall/sequential_1/bidirectional_2/backward_lstm_2/PartitionedCall/transpose_1", "StatefulPartitionedCall/sequential_1/bidirectional_2/backward_lstm_2/PartitionedCall/ReverseV2_1/axis"], "attr": {"Tidx": {"type": "DT_INT32"}, "T": {"type": "DT_BOOL"}}}, {"name": "StatefulPartitionedCall/sequential_1/bidirectional_2/forward_lstm_2/strided_slice", "op": "StridedSlice", "input": ["StatefulPartitionedCall/sequential_1/bidirectional_2/forward_lstm_2/Shape", "StatefulPartitionedCall/sequential_1/bidirectional_2/forward_lstm_2/strided_slice/stack", "StatefulPartitionedCall/sequential_1/bidirectional_2/forward_lstm_2/strided_slice/stack_1", "StatefulPartitionedCall/sequential_1/bidirectional_2/forward_lstm_2/strided_slice/stack_2"], "attr": {"new_axis_mask": {"i": "0"}, "end_mask": {"i": "0"}, "Index": {"type": "DT_INT32"}, "ellipsis_mask": {"i": "0"}, "shrink_axis_mask": {"i": "1"}, "begin_mask": {"i": "0"}, "T": {"type": "DT_INT32"}}}, {"name": "StatefulPartitionedCall/sequential_1/bidirectional_2/forward_lstm_2/PartitionedCall/TensorArrayUnstack/TensorListFromTensor", "op": "TensorListFromTensor", "input": ["StatefulPartitionedCall/sequential_1/bidirectional_2/forward_lstm_2/PartitionedCall/transpose", "StatefulPartitionedCall/sequential_1/bidirectional_2/forward_lstm_2/PartitionedCall/TensorArrayUnstack/TensorListFromTensor/element_shape"], "attr": {"shape_type": {"type": "DT_INT32"}, "element_dtype": {"type": "DT_FLOAT"}}}, {"name": "StatefulPartitionedCall/sequential_1/bidirectional_2/forward_lstm_2/PartitionedCall/strided_slice_1", "op": "StridedSlice", "input": ["StatefulPartitionedCall/sequential_1/bidirectional_2/forward_lstm_2/PartitionedCall/transpose", "StatefulPartitionedCall/sequential_1/bidirectional_2/forward_lstm_2/PartitionedCall/strided_slice_1/stack", "StatefulPartitionedCall/sequential_1/bidirectional_2/forward_lstm_2/PartitionedCall/strided_slice_1/stack_1", "StatefulPartitionedCall/sequential_1/bidirectional_2/forward_lstm_2/PartitionedCall/strided_slice_1/stack_2"], "attr": {"T": {"type": "DT_FLOAT"}, "begin_mask": {"i": "0"}, "ellipsis_mask": {"i": "0"}, "shrink_axis_mask": {"i": "1"}, "Index": {"type": "DT_INT32"}, "new_axis_mask": {"i": "0"}, "end_mask": {"i": "0"}}}, {"name": "StatefulPartitionedCall/sequential_1/bidirectional_2/forward_lstm_2/PartitionedCall/Shape", "op": "Shape", "input": ["StatefulPartitionedCall/sequential_1/bidirectional_2/forward_lstm_2/PartitionedCall/transpose"], "attr": {"T": {"type": "DT_FLOAT"}, "out_type": {"type": "DT_INT32"}}}, {"name": "StatefulPartitionedCall/sequential_1/bidirectional_2/backward_lstm_2/strided_slice", "op": "StridedSlice", "input": ["StatefulPartitionedCall/sequential_1/bidirectional_2/backward_lstm_2/Shape", "StatefulPartitionedCall/sequential_1/bidirectional_2/backward_lstm_2/strided_slice/stack", "StatefulPartitionedCall/sequential_1/bidirectional_2/backward_lstm_2/strided_slice/stack_1", "StatefulPartitionedCall/sequential_1/bidirectional_2/backward_lstm_2/strided_slice/stack_2"], "attr": {"begin_mask": {"i": "0"}, "Index": {"type": "DT_INT32"}, "new_axis_mask": {"i": "0"}, "shrink_axis_mask": {"i": "1"}, "end_mask": {"i": "0"}, "T": {"type": "DT_INT32"}, "ellipsis_mask": {"i": "0"}}}, {"name": "StatefulPartitionedCall/sequential_1/bidirectional_2/backward_lstm_2/PartitionedCall/ReverseV2", "op": "ReverseV2", "input": ["StatefulPartitionedCall/sequential_1/bidirectional_2/backward_lstm_2/PartitionedCall/transpose", "StatefulPartitionedCall/sequential_1/bidirectional_2/backward_lstm_2/PartitionedCall/ReverseV2/axis"], "attr": {"T": {"type": "DT_FLOAT"}, "Tidx": {"type": "DT_INT32"}}}, {"name": "StatefulPartitionedCall/sequential_1/bidirectional_2/backward_lstm_2/PartitionedCall/strided_slice_1", "op": "StridedSlice", "input": ["StatefulPartitionedCall/sequential_1/bidirectional_2/backward_lstm_2/PartitionedCall/transpose", "StatefulPartitionedCall/sequential_1/bidirectional_2/backward_lstm_2/PartitionedCall/strided_slice_1/stack", "StatefulPartitionedCall/sequential_1/bidirectional_2/backward_lstm_2/PartitionedCall/strided_slice_1/stack_1", "StatefulPartitionedCall/sequential_1/bidirectional_2/backward_lstm_2/PartitionedCall/strided_slice_1/stack_2"], "attr": {"shrink_axis_mask": {"i": "1"}, "new_axis_mask": {"i": "0"}, "ellipsis_mask": {"i": "0"}, "Index": {"type": "DT_INT32"}, "begin_mask": {"i": "0"}, "end_mask": {"i": "0"}, "T": {"type": "DT_FLOAT"}}}, {"name": "StatefulPartitionedCall/sequential_1/bidirectional_2/backward_lstm_2/PartitionedCall/Shape", "op": "Shape", "input": ["StatefulPartitionedCall/sequential_1/bidirectional_2/backward_lstm_2/PartitionedCall/transpose"], "attr": {"T": {"type": "DT_FLOAT"}, "out_type": {"type": "DT_INT32"}}}, {"name": "StatefulPartitionedCall/sequential_1/bidirectional_3/forward_lstm_3/PartitionedCall/while/enter/_229", "op": "Enter", "input": ["StatefulPartitionedCall/sequential_1/bidirectional_3/forward_lstm_3/PartitionedCall/TensorArrayUnstack_1/TensorListFromTensor"], "attr": {"parallel_iterations": {"i": "32"}, "T": {"type": "DT_VARIANT"}, "is_constant": {"b": false}, "frame_name": {"s": "U3RhdGVmdWxQYXJ0aXRpb25lZENhbGwvc2VxdWVudGlhbF8xL2JpZGlyZWN0aW9uYWxfMy9mb3J3YXJkX2xzdG1fMy9QYXJ0aXRpb25lZENhbGwvd2hpbGU="}}}, {"name": "StatefulPartitionedCall/sequential_1/bidirectional_3/backward_lstm_3/PartitionedCall/TensorArrayUnstack_1/TensorListFromTensor", "op": "TensorListFromTensor", "input": ["StatefulPartitionedCall/sequential_1/bidirectional_3/backward_lstm_3/PartitionedCall/ReverseV2_1", "StatefulPartitionedCall/sequential_1/bidirectional_3/backward_lstm_3/PartitionedCall/TensorArrayUnstack_1/TensorListFromTensor/element_shape"], "attr": {"element_dtype": {"type": "DT_BOOL"}, "shape_type": {"type": "DT_INT32"}}}, {"name": "StatefulPartitionedCall/sequential_1/bidirectional_2/forward_lstm_2/PartitionedCall/while/enter/_79", "op": "Enter", "input": ["StatefulPartitionedCall/sequential_1/bidirectional_2/forward_lstm_2/PartitionedCall/TensorArrayUnstack_1/TensorListFromTensor"], "attr": {"T": {"type": "DT_VARIANT"}, "frame_name": {"s": "U3RhdGVmdWxQYXJ0aXRpb25lZENhbGwvc2VxdWVudGlhbF8xL2JpZGlyZWN0aW9uYWxfMi9mb3J3YXJkX2xzdG1fMi9QYXJ0aXRpb25lZENhbGwvd2hpbGU="}, "is_constant": {"b": false}, "parallel_iterations": {"i": "32"}}}, {"name": "StatefulPartitionedCall/sequential_1/bidirectional_2/backward_lstm_2/PartitionedCall/TensorArrayUnstack_1/TensorListFromTensor", "op": "TensorListFromTensor", "input": ["StatefulPartitionedCall/sequential_1/bidirectional_2/backward_lstm_2/PartitionedCall/ReverseV2_1", "StatefulPartitionedCall/sequential_1/bidirectional_2/backward_lstm_2/PartitionedCall/TensorArrayUnstack_1/TensorListFromTensor/element_shape"], "attr": {"shape_type": {"type": "DT_INT32"}, "element_dtype": {"type": "DT_BOOL"}}}, {"name": "StatefulPartitionedCall/sequential_1/bidirectional_2/forward_lstm_2/zeros_1/packed", "op": "Pack", "input": ["StatefulPartitionedCall/sequential_1/bidirectional_2/forward_lstm_2/strided_slice", "StatefulPartitionedCall/sequential_1/bidirectional_2/forward_lstm_2/zeros_1/packed/1"], "attr": {"N": {"i": "2"}, "T": {"type": "DT_INT32"}, "axis": {"i": "0"}}}, {"name": "StatefulPartitionedCall/sequential_1/bidirectional_2/forward_lstm_2/zeros/packed", "op": "Pack", "input": ["StatefulPartitionedCall/sequential_1/bidirectional_2/forward_lstm_2/strided_slice", "StatefulPartitionedCall/sequential_1/bidirectional_2/forward_lstm_2/zeros/packed/1"], "attr": {"N": {"i": "2"}, "axis": {"i": "0"}, "T": {"type": "DT_INT32"}}}, {"name": "StatefulPartitionedCall/sequential_1/bidirectional_2/forward_lstm_2/PartitionedCall/while/enter/_78", "op": "Enter", "input": ["StatefulPartitionedCall/sequential_1/bidirectional_2/forward_lstm_2/PartitionedCall/TensorArrayUnstack/TensorListFromTensor"], "attr": {"parallel_iterations": {"i": "32"}, "frame_name": {"s": "U3RhdGVmdWxQYXJ0aXRpb25lZENhbGwvc2VxdWVudGlhbF8xL2JpZGlyZWN0aW9uYWxfMi9mb3J3YXJkX2xzdG1fMi9QYXJ0aXRpb25lZENhbGwvd2hpbGU="}, "T": {"type": "DT_VARIANT"}, "is_constant": {"b": false}}}, {"name": "StatefulPartitionedCall/sequential_1/bidirectional_2/forward_lstm_2/PartitionedCall/MatMul", "op": "MatMul", "input": ["StatefulPartitionedCall/sequential_1/bidirectional_2/forward_lstm_2/PartitionedCall/strided_slice_1", "StatefulPartitionedCall/sequential_1/bidirectional_2/forward_lstm_2/Read/ReadVariableOp"], "device": "/device:CPU:0", "attr": {"transpose_a": {"b": false}, "transpose_b": {"b": false}, "T": {"type": "DT_FLOAT"}}}, {"name": "StatefulPartitionedCall/sequential_1/bidirectional_2/forward_lstm_2/PartitionedCall/strided_slice", "op": "StridedSlice", "input": ["StatefulPartitionedCall/sequential_1/bidirectional_2/forward_lstm_2/PartitionedCall/Shape", "StatefulPartitionedCall/sequential_1/bidirectional_2/forward_lstm_2/PartitionedCall/strided_slice/stack", "StatefulPartitionedCall/sequential_1/bidirectional_2/forward_lstm_2/PartitionedCall/strided_slice/stack_1", "StatefulPartitionedCall/sequential_1/bidirectional_2/forward_lstm_2/PartitionedCall/strided_slice/stack_2"], "attr": {"shrink_axis_mask": {"i": "1"}, "begin_mask": {"i": "0"}, "ellipsis_mask": {"i": "0"}, "Index": {"type": "DT_INT32"}, "T": {"type": "DT_INT32"}, "end_mask": {"i": "0"}, "new_axis_mask": {"i": "0"}}}, {"name": "StatefulPartitionedCall/sequential_1/bidirectional_2/backward_lstm_2/zeros_1/packed", "op": "Pack", "input": ["StatefulPartitionedCall/sequential_1/bidirectional_2/backward_lstm_2/strided_slice", "StatefulPartitionedCall/sequential_1/bidirectional_2/backward_lstm_2/zeros_1/packed/1"], "attr": {"axis": {"i": "0"}, "N": {"i": "2"}, "T": {"type": "DT_INT32"}}}, {"name": "StatefulPartitionedCall/sequential_1/bidirectional_2/backward_lstm_2/zeros/packed", "op": "Pack", "input": ["StatefulPartitionedCall/sequential_1/bidirectional_2/backward_lstm_2/strided_slice", "StatefulPartitionedCall/sequential_1/bidirectional_2/backward_lstm_2/zeros/packed/1"], "attr": {"axis": {"i": "0"}, "T": {"type": "DT_INT32"}, "N": {"i": "2"}}}, {"name": "StatefulPartitionedCall/sequential_1/bidirectional_2/backward_lstm_2/PartitionedCall/TensorArrayUnstack/TensorListFromTensor", "op": "TensorListFromTensor", "input": ["StatefulPartitionedCall/sequential_1/bidirectional_2/backward_lstm_2/PartitionedCall/ReverseV2", "StatefulPartitionedCall/sequential_1/bidirectional_2/backward_lstm_2/PartitionedCall/TensorArrayUnstack/TensorListFromTensor/element_shape"], "attr": {"shape_type": {"type": "DT_INT32"}, "element_dtype": {"type": "DT_FLOAT"}}}, {"name": "StatefulPartitionedCall/sequential_1/bidirectional_2/backward_lstm_2/PartitionedCall/MatMul", "op": "MatMul", "input": ["StatefulPartitionedCall/sequential_1/bidirectional_2/backward_lstm_2/PartitionedCall/strided_slice_1", "StatefulPartitionedCall/sequential_1/bidirectional_2/backward_lstm_2/Read/ReadVariableOp"], "device": "/device:CPU:0", "attr": {"T": {"type": "DT_FLOAT"}, "transpose_b": {"b": false}, "transpose_a": {"b": false}}}, {"name": "StatefulPartitionedCall/sequential_1/bidirectional_2/backward_lstm_2/PartitionedCall/strided_slice", "op": "StridedSlice", "input": ["StatefulPartitionedCall/sequential_1/bidirectional_2/backward_lstm_2/PartitionedCall/Shape", "StatefulPartitionedCall/sequential_1/bidirectional_2/backward_lstm_2/PartitionedCall/strided_slice/stack", "StatefulPartitionedCall/sequential_1/bidirectional_2/backward_lstm_2/PartitionedCall/strided_slice/stack_1", "StatefulPartitionedCall/sequential_1/bidirectional_2/backward_lstm_2/PartitionedCall/strided_slice/stack_2"], "attr": {"new_axis_mask": {"i": "0"}, "T": {"type": "DT_INT32"}, "begin_mask": {"i": "0"}, "shrink_axis_mask": {"i": "1"}, "ellipsis_mask": {"i": "0"}, "Index": {"type": "DT_INT32"}, "end_mask": {"i": "0"}}}, {"name": "StatefulPartitionedCall/sequential_1/bidirectional_3/forward_lstm_3/PartitionedCall/while/merge/_242", "op": "Merge", "input": ["StatefulPartitionedCall/sequential_1/bidirectional_3/forward_lstm_3/PartitionedCall/while/enter/_229", "StatefulPartitionedCall/sequential_1/bidirectional_3/forward_lstm_3/PartitionedCall/while/next_iteration/_284"], "attr": {"N": {"i": "2"}, "T": {"type": "DT_VARIANT"}}}, {"name": "StatefulPartitionedCall/sequential_1/bidirectional_3/backward_lstm_3/PartitionedCall/while/enter/_299", "op": "Enter", "input": ["StatefulPartitionedCall/sequential_1/bidirectional_3/backward_lstm_3/PartitionedCall/TensorArrayUnstack_1/TensorListFromTensor"], "attr": {"is_constant": {"b": false}, "T": {"type": "DT_VARIANT"}, "frame_name": {"s": "U3RhdGVmdWxQYXJ0aXRpb25lZENhbGwvc2VxdWVudGlhbF8xL2JpZGlyZWN0aW9uYWxfMy9iYWNrd2FyZF9sc3RtXzMvUGFydGl0aW9uZWRDYWxsL3doaWxl"}, "parallel_iterations": {"i": "32"}}}, {"name": "StatefulPartitionedCall/sequential_1/bidirectional_2/forward_lstm_2/PartitionedCall/while/merge/_93", "op": "Merge", "input": ["StatefulPartitionedCall/sequential_1/bidirectional_2/forward_lstm_2/PartitionedCall/while/enter/_79", "StatefulPartitionedCall/sequential_1/bidirectional_2/forward_lstm_2/PartitionedCall/while/next_iteration/_138"], "attr": {"N": {"i": "2"}, "T": {"type": "DT_VARIANT"}}}, {"name": "StatefulPartitionedCall/sequential_1/bidirectional_2/backward_lstm_2/PartitionedCall/while/enter/_154", "op": "Enter", "input": ["StatefulPartitionedCall/sequential_1/bidirectional_2/backward_lstm_2/PartitionedCall/TensorArrayUnstack_1/TensorListFromTensor"], "attr": {"frame_name": {"s": "U3RhdGVmdWxQYXJ0aXRpb25lZENhbGwvc2VxdWVudGlhbF8xL2JpZGlyZWN0aW9uYWxfMi9iYWNrd2FyZF9sc3RtXzIvUGFydGl0aW9uZWRDYWxsL3doaWxl"}, "is_constant": {"b": false}, "parallel_iterations": {"i": "32"}, "T": {"type": "DT_VARIANT"}}}, {"name": "StatefulPartitionedCall/sequential_1/bidirectional_2/forward_lstm_2/zeros_1", "op": "Fill", "input": ["StatefulPartitionedCall/sequential_1/bidirectional_2/forward_lstm_2/zeros_1/packed", "StatefulPartitionedCall/sequential_1/bidirectional_2/forward_lstm_2/zeros_1/Const"], "attr": {"T": {"type": "DT_FLOAT"}, "index_type": {"type": "DT_INT32"}}}, {"name": "StatefulPartitionedCall/sequential_1/bidirectional_2/forward_lstm_2/zeros", "op": "Fill", "input": ["StatefulPartitionedCall/sequential_1/bidirectional_2/forward_lstm_2/zeros/packed", "StatefulPartitionedCall/sequential_1/bidirectional_2/forward_lstm_2/zeros/Const"], "attr": {"T": {"type": "DT_FLOAT"}, "index_type": {"type": "DT_INT32"}}}, {"name": "StatefulPartitionedCall/sequential_1/bidirectional_2/forward_lstm_2/PartitionedCall/while/merge/_92", "op": "Merge", "input": ["StatefulPartitionedCall/sequential_1/bidirectional_2/forward_lstm_2/PartitionedCall/while/enter/_78", "StatefulPartitionedCall/sequential_1/bidirectional_2/forward_lstm_2/PartitionedCall/while/next_iteration/_137"], "attr": {"T": {"type": "DT_VARIANT"}, "N": {"i": "2"}}}, {"name": "StatefulPartitionedCall/sequential_1/bidirectional_2/forward_lstm_2/PartitionedCall/TensorArrayV2_1", "op": "TensorListReserve", "input": ["StatefulPartitionedCall/sequential_1/bidirectional_2/forward_lstm_2/PartitionedCall/TensorArrayV2_1/element_shape", "StatefulPartitionedCall/sequential_1/bidirectional_2/forward_lstm_2/PartitionedCall/strided_slice"], "attr": {"shape_type": {"type": "DT_INT32"}, "element_dtype": {"type": "DT_FLOAT"}}}, {"name": "StatefulPartitionedCall/sequential_1/bidirectional_2/forward_lstm_2/PartitionedCall/while/enter/_77", "op": "Enter", "input": ["StatefulPartitionedCall/sequential_1/bidirectional_2/forward_lstm_2/PartitionedCall/strided_slice"], "attr": {"frame_name": {"s": "U3RhdGVmdWxQYXJ0aXRpb25lZENhbGwvc2VxdWVudGlhbF8xL2JpZGlyZWN0aW9uYWxfMi9mb3J3YXJkX2xzdG1fMi9QYXJ0aXRpb25lZENhbGwvd2hpbGU="}, "T": {"type": "DT_INT32"}, "parallel_iterations": {"i": "32"}, "is_constant": {"b": false}}}, {"name": "StatefulPartitionedCall/sequential_1/bidirectional_2/backward_lstm_2/zeros_1", "op": "Fill", "input": ["StatefulPartitionedCall/sequential_1/bidirectional_2/backward_lstm_2/zeros_1/packed", "StatefulPartitionedCall/sequential_1/bidirectional_2/backward_lstm_2/zeros_1/Const"], "attr": {"index_type": {"type": "DT_INT32"}, "T": {"type": "DT_FLOAT"}}}, {"name": "StatefulPartitionedCall/sequential_1/bidirectional_2/backward_lstm_2/zeros", "op": "Fill", "input": ["StatefulPartitionedCall/sequential_1/bidirectional_2/backward_lstm_2/zeros/packed", "StatefulPartitionedCall/sequential_1/bidirectional_2/backward_lstm_2/zeros/Const"], "attr": {"T": {"type": "DT_FLOAT"}, "index_type": {"type": "DT_INT32"}}}, {"name": "StatefulPartitionedCall/sequential_1/bidirectional_2/backward_lstm_2/PartitionedCall/while/enter/_153", "op": "Enter", "input": ["StatefulPartitionedCall/sequential_1/bidirectional_2/backward_lstm_2/PartitionedCall/TensorArrayUnstack/TensorListFromTensor"], "attr": {"T": {"type": "DT_VARIANT"}, "parallel_iterations": {"i": "32"}, "is_constant": {"b": false}, "frame_name": {"s": "U3RhdGVmdWxQYXJ0aXRpb25lZENhbGwvc2VxdWVudGlhbF8xL2JpZGlyZWN0aW9uYWxfMi9iYWNrd2FyZF9sc3RtXzIvUGFydGl0aW9uZWRDYWxsL3doaWxl"}}}, {"name": "StatefulPartitionedCall/sequential_1/bidirectional_2/backward_lstm_2/PartitionedCall/TensorArrayV2_1", "op": "TensorListReserve", "input": ["StatefulPartitionedCall/sequential_1/bidirectional_2/backward_lstm_2/PartitionedCall/TensorArrayV2_1/element_shape", "StatefulPartitionedCall/sequential_1/bidirectional_2/backward_lstm_2/PartitionedCall/strided_slice"], "attr": {"shape_type": {"type": "DT_INT32"}, "element_dtype": {"type": "DT_FLOAT"}}}, {"name": "StatefulPartitionedCall/sequential_1/bidirectional_2/backward_lstm_2/PartitionedCall/while/enter/_152", "op": "Enter", "input": ["StatefulPartitionedCall/sequential_1/bidirectional_2/backward_lstm_2/PartitionedCall/strided_slice"], "attr": {"T": {"type": "DT_INT32"}, "is_constant": {"b": false}, "parallel_iterations": {"i": "32"}, "frame_name": {"s": "U3RhdGVmdWxQYXJ0aXRpb25lZENhbGwvc2VxdWVudGlhbF8xL2JpZGlyZWN0aW9uYWxfMi9iYWNrd2FyZF9sc3RtXzIvUGFydGl0aW9uZWRDYWxsL3doaWxl"}}}, {"name": "StatefulPartitionedCall/sequential_1/bidirectional_3/backward_lstm_3/PartitionedCall/while/merge/_312", "op": "Merge", "input": ["StatefulPartitionedCall/sequential_1/bidirectional_3/backward_lstm_3/PartitionedCall/while/enter/_299", "StatefulPartitionedCall/sequential_1/bidirectional_3/backward_lstm_3/PartitionedCall/while/next_iteration/_354"], "attr": {"T": {"type": "DT_VARIANT"}, "N": {"i": "2"}}}, {"name": "StatefulPartitionedCall/sequential_1/bidirectional_2/backward_lstm_2/PartitionedCall/while/merge/_168", "op": "Merge", "input": ["StatefulPartitionedCall/sequential_1/bidirectional_2/backward_lstm_2/PartitionedCall/while/enter/_154", "StatefulPartitionedCall/sequential_1/bidirectional_2/backward_lstm_2/PartitionedCall/while/next_iteration/_213"], "attr": {"N": {"i": "2"}, "T": {"type": "DT_VARIANT"}}}, {"name": "StatefulPartitionedCall/sequential_1/bidirectional_2/forward_lstm_2/PartitionedCall/while/enter/_76", "op": "Enter", "input": ["StatefulPartitionedCall/sequential_1/bidirectional_2/forward_lstm_2/zeros_1"], "attr": {"is_constant": {"b": false}, "T": {"type": "DT_FLOAT"}, "frame_name": {"s": "U3RhdGVmdWxQYXJ0aXRpb25lZENhbGwvc2VxdWVudGlhbF8xL2JpZGlyZWN0aW9uYWxfMi9mb3J3YXJkX2xzdG1fMi9QYXJ0aXRpb25lZENhbGwvd2hpbGU="}, "parallel_iterations": {"i": "32"}}}, {"name": "StatefulPartitionedCall/sequential_1/bidirectional_2/forward_lstm_2/PartitionedCall/while/enter/_75", "op": "Enter", "input": ["StatefulPartitionedCall/sequential_1/bidirectional_2/forward_lstm_2/zeros"], "attr": {"T": {"type": "DT_FLOAT"}, "parallel_iterations": {"i": "32"}, "frame_name": {"s": "U3RhdGVmdWxQYXJ0aXRpb25lZENhbGwvc2VxdWVudGlhbF8xL2JpZGlyZWN0aW9uYWxfMi9mb3J3YXJkX2xzdG1fMi9QYXJ0aXRpb25lZENhbGwvd2hpbGU="}, "is_constant": {"b": false}}}, {"name": "StatefulPartitionedCall/sequential_1/bidirectional_2/forward_lstm_2/PartitionedCall/MatMul_1", "op": "MatMul", "input": ["StatefulPartitionedCall/sequential_1/bidirectional_2/forward_lstm_2/zeros", "StatefulPartitionedCall/sequential_1/bidirectional_2/forward_lstm_2/Read_1/ReadVariableOp"], "device": "/device:CPU:0", "attr": {"transpose_b": {"b": false}, "T": {"type": "DT_FLOAT"}, "transpose_a": {"b": false}}}, {"name": "StatefulPartitionedCall/sequential_1/bidirectional_2/forward_lstm_2/PartitionedCall/while/enter/_73", "op": "Enter", "input": ["StatefulPartitionedCall/sequential_1/bidirectional_2/forward_lstm_2/PartitionedCall/TensorArrayV2_1"], "attr": {"is_constant": {"b": false}, "T": {"type": "DT_VARIANT"}, "frame_name": {"s": "U3RhdGVmdWxQYXJ0aXRpb25lZENhbGwvc2VxdWVudGlhbF8xL2JpZGlyZWN0aW9uYWxfMi9mb3J3YXJkX2xzdG1fMi9QYXJ0aXRpb25lZENhbGwvd2hpbGU="}, "parallel_iterations": {"i": "32"}}}, {"name": "StatefulPartitionedCall/sequential_1/bidirectional_2/forward_lstm_2/PartitionedCall/while/merge/_91", "op": "Merge", "input": ["StatefulPartitionedCall/sequential_1/bidirectional_2/forward_lstm_2/PartitionedCall/while/enter/_77", "StatefulPartitionedCall/sequential_1/bidirectional_2/forward_lstm_2/PartitionedCall/while/next_iteration/_136"], "attr": {"N": {"i": "2"}, "T": {"type": "DT_INT32"}}}, {"name": "StatefulPartitionedCall/sequential_1/bidirectional_2/backward_lstm_2/PartitionedCall/while/enter/_151", "op": "Enter", "input": ["StatefulPartitionedCall/sequential_1/bidirectional_2/backward_lstm_2/zeros_1"], "attr": {"frame_name": {"s": "U3RhdGVmdWxQYXJ0aXRpb25lZENhbGwvc2VxdWVudGlhbF8xL2JpZGlyZWN0aW9uYWxfMi9iYWNrd2FyZF9sc3RtXzIvUGFydGl0aW9uZWRDYWxsL3doaWxl"}, "T": {"type": "DT_FLOAT"}, "is_constant": {"b": false}, "parallel_iterations": {"i": "32"}}}, {"name": "StatefulPartitionedCall/sequential_1/bidirectional_2/backward_lstm_2/PartitionedCall/while/enter/_150", "op": "Enter", "input": ["StatefulPartitionedCall/sequential_1/bidirectional_2/backward_lstm_2/zeros"], "attr": {"parallel_iterations": {"i": "32"}, "T": {"type": "DT_FLOAT"}, "is_constant": {"b": false}, "frame_name": {"s": "U3RhdGVmdWxQYXJ0aXRpb25lZENhbGwvc2VxdWVudGlhbF8xL2JpZGlyZWN0aW9uYWxfMi9iYWNrd2FyZF9sc3RtXzIvUGFydGl0aW9uZWRDYWxsL3doaWxl"}}}, {"name": "StatefulPartitionedCall/sequential_1/bidirectional_2/backward_lstm_2/PartitionedCall/MatMul_1", "op": "MatMul", "input": ["StatefulPartitionedCall/sequential_1/bidirectional_2/backward_lstm_2/zeros", "StatefulPartitionedCall/sequential_1/bidirectional_2/backward_lstm_2/Read_1/ReadVariableOp"], "device": "/device:CPU:0", "attr": {"T": {"type": "DT_FLOAT"}, "transpose_b": {"b": false}, "transpose_a": {"b": false}}}, {"name": "StatefulPartitionedCall/sequential_1/bidirectional_2/backward_lstm_2/PartitionedCall/while/merge/_167", "op": "Merge", "input": ["StatefulPartitionedCall/sequential_1/bidirectional_2/backward_lstm_2/PartitionedCall/while/enter/_153", "StatefulPartitionedCall/sequential_1/bidirectional_2/backward_lstm_2/PartitionedCall/while/next_iteration/_212"], "attr": {"N": {"i": "2"}, "T": {"type": "DT_VARIANT"}}}, {"name": "StatefulPartitionedCall/sequential_1/bidirectional_2/backward_lstm_2/PartitionedCall/while/enter/_148", "op": "Enter", "input": ["StatefulPartitionedCall/sequential_1/bidirectional_2/backward_lstm_2/PartitionedCall/TensorArrayV2_1"], "attr": {"parallel_iterations": {"i": "32"}, "frame_name": {"s": "U3RhdGVmdWxQYXJ0aXRpb25lZENhbGwvc2VxdWVudGlhbF8xL2JpZGlyZWN0aW9uYWxfMi9iYWNrd2FyZF9sc3RtXzIvUGFydGl0aW9uZWRDYWxsL3doaWxl"}, "T": {"type": "DT_VARIANT"}, "is_constant": {"b": false}}}, {"name": "StatefulPartitionedCall/sequential_1/bidirectional_2/backward_lstm_2/PartitionedCall/while/merge/_166", "op": "Merge", "input": ["StatefulPartitionedCall/sequential_1/bidirectional_2/backward_lstm_2/PartitionedCall/while/enter/_152", "StatefulPartitionedCall/sequential_1/bidirectional_2/backward_lstm_2/PartitionedCall/while/next_iteration/_211"], "attr": {"T": {"type": "DT_INT32"}, "N": {"i": "2"}}}, {"name": "StatefulPartitionedCall/sequential_1/bidirectional_2/forward_lstm_2/PartitionedCall/while/merge/_90", "op": "Merge", "input": ["StatefulPartitionedCall/sequential_1/bidirectional_2/forward_lstm_2/PartitionedCall/while/enter/_76", "StatefulPartitionedCall/sequential_1/bidirectional_2/forward_lstm_2/PartitionedCall/while/next_iteration/_135"], "attr": {"T": {"type": "DT_FLOAT"}, "N": {"i": "2"}}}, {"name": "StatefulPartitionedCall/sequential_1/bidirectional_2/forward_lstm_2/PartitionedCall/while/merge/_89", "op": "Merge", "input": ["StatefulPartitionedCall/sequential_1/bidirectional_2/forward_lstm_2/PartitionedCall/while/enter/_75", "StatefulPartitionedCall/sequential_1/bidirectional_2/forward_lstm_2/PartitionedCall/while/next_iteration/_134"], "attr": {"N": {"i": "2"}, "T": {"type": "DT_FLOAT"}}}, {"name": "StatefulPartitionedCall/sequential_1/bidirectional_2/forward_lstm_2/PartitionedCall/add", "op": "AddV2", "input": ["StatefulPartitionedCall/sequential_1/bidirectional_2/forward_lstm_2/PartitionedCall/MatMul", "StatefulPartitionedCall/sequential_1/bidirectional_2/forward_lstm_2/PartitionedCall/MatMul_1"], "attr": {"T": {"type": "DT_FLOAT"}}}, {"name": "StatefulPartitionedCall/sequential_1/bidirectional_2/forward_lstm_2/PartitionedCall/while/merge/_87", "op": "Merge", "input": ["StatefulPartitionedCall/sequential_1/bidirectional_2/forward_lstm_2/PartitionedCall/while/enter/_73", "StatefulPartitionedCall/sequential_1/bidirectional_2/forward_lstm_2/PartitionedCall/while/next_iteration/_132"], "attr": {"T": {"type": "DT_VARIANT"}, "N": {"i": "2"}}}, {"name": "StatefulPartitionedCall/sequential_1/bidirectional_2/forward_lstm_2/PartitionedCall/while/cond/_68/while/Less", "op": "Less", "input": ["StatefulPartitionedCall/sequential_1/bidirectional_2/forward_lstm_2/PartitionedCall/while/merge/_86", "StatefulPartitionedCall/sequential_1/bidirectional_2/forward_lstm_2/PartitionedCall/while/merge/_91", "^StatefulPartitionedCall/sequential_1/bidirectional_2/forward_lstm_2/PartitionedCall/while/merge/_84"], "attr": {"T": {"type": "DT_INT32"}}}, {"name": "StatefulPartitionedCall/sequential_1/bidirectional_2/backward_lstm_2/PartitionedCall/while/merge/_165", "op": "Merge", "input": ["StatefulPartitionedCall/sequential_1/bidirectional_2/backward_lstm_2/PartitionedCall/while/enter/_151", "StatefulPartitionedCall/sequential_1/bidirectional_2/backward_lstm_2/PartitionedCall/while/next_iteration/_210"], "attr": {"N": {"i": "2"}, "T": {"type": "DT_FLOAT"}}}, {"name": "StatefulPartitionedCall/sequential_1/bidirectional_2/backward_lstm_2/PartitionedCall/while/merge/_164", "op": "Merge", "input": ["StatefulPartitionedCall/sequential_1/bidirectional_2/backward_lstm_2/PartitionedCall/while/enter/_150", "StatefulPartitionedCall/sequential_1/bidirectional_2/backward_lstm_2/PartitionedCall/while/next_iteration/_209"], "attr": {"T": {"type": "DT_FLOAT"}, "N": {"i": "2"}}}, {"name": "StatefulPartitionedCall/sequential_1/bidirectional_2/backward_lstm_2/PartitionedCall/add", "op": "AddV2", "input": ["StatefulPartitionedCall/sequential_1/bidirectional_2/backward_lstm_2/PartitionedCall/MatMul", "StatefulPartitionedCall/sequential_1/bidirectional_2/backward_lstm_2/PartitionedCall/MatMul_1"], "attr": {"T": {"type": "DT_FLOAT"}}}, {"name": "StatefulPartitionedCall/sequential_1/bidirectional_2/backward_lstm_2/PartitionedCall/while/merge/_162", "op": "Merge", "input": ["StatefulPartitionedCall/sequential_1/bidirectional_2/backward_lstm_2/PartitionedCall/while/enter/_148", "StatefulPartitionedCall/sequential_1/bidirectional_2/backward_lstm_2/PartitionedCall/while/next_iteration/_207"], "attr": {"T": {"type": "DT_VARIANT"}, "N": {"i": "2"}}}, {"name": "StatefulPartitionedCall/sequential_1/bidirectional_2/backward_lstm_2/PartitionedCall/while/cond/_143/while/Less", "op": "Less", "input": ["StatefulPartitionedCall/sequential_1/bidirectional_2/backward_lstm_2/PartitionedCall/while/merge/_161", "StatefulPartitionedCall/sequential_1/bidirectional_2/backward_lstm_2/PartitionedCall/while/merge/_166", "^StatefulPartitionedCall/sequential_1/bidirectional_2/backward_lstm_2/PartitionedCall/while/merge/_159"], "attr": {"T": {"type": "DT_INT32"}}}, {"name": "StatefulPartitionedCall/sequential_1/bidirectional_2/forward_lstm_2/PartitionedCall/BiasAdd", "op": "BiasAdd", "input": ["StatefulPartitionedCall/sequential_1/bidirectional_2/forward_lstm_2/PartitionedCall/add", "StatefulPartitionedCall/sequential_1/bidirectional_2/forward_lstm_2/Read_2/ReadVariableOp"], "attr": {"data_format": {"s": "TkhXQw=="}, "T": {"type": "DT_FLOAT"}}}, {"name": "StatefulPartitionedCall/sequential_1/bidirectional_2/forward_lstm_2/PartitionedCall/while/LoopCond/_98", "op": "LoopCond", "input": ["StatefulPartitionedCall/sequential_1/bidirectional_2/forward_lstm_2/PartitionedCall/while/cond/_68/while/Less"]}, {"name": "StatefulPartitionedCall/sequential_1/bidirectional_2/backward_lstm_2/PartitionedCall/BiasAdd", "op": "BiasAdd", "input": ["StatefulPartitionedCall/sequential_1/bidirectional_2/backward_lstm_2/PartitionedCall/add", "StatefulPartitionedCall/sequential_1/bidirectional_2/backward_lstm_2/Read_2/ReadVariableOp"], "attr": {"data_format": {"s": "TkhXQw=="}, "T": {"type": "DT_FLOAT"}}}, {"name": "StatefulPartitionedCall/sequential_1/bidirectional_2/backward_lstm_2/PartitionedCall/while/LoopCond/_173", "op": "LoopCond", "input": ["StatefulPartitionedCall/sequential_1/bidirectional_2/backward_lstm_2/PartitionedCall/while/cond/_143/while/Less"]}, {"name": "StatefulPartitionedCall/sequential_1/bidirectional_2/forward_lstm_2/PartitionedCall/split", "op": "Split", "input": ["StatefulPartitionedCall/sequential_1/bidirectional_2/forward_lstm_2/PartitionedCall/split/split_dim", "StatefulPartitionedCall/sequential_1/bidirectional_2/forward_lstm_2/PartitionedCall/BiasAdd"], "attr": {"T": {"type": "DT_FLOAT"}, "num_split": {"i": "4"}}}, {"name": "StatefulPartitionedCall/sequential_1/bidirectional_2/forward_lstm_2/PartitionedCall/while/Func/StatefulPartitionedCall/sequential_1/bidirectional_2/forward_lstm_2/PartitionedCall/input/_22_switch/_105", "op": "Switch", "input": ["StatefulPartitionedCall/sequential_1/bidirectional_2/forward_lstm_2/PartitionedCall/while/merge/_90", "StatefulPartitionedCall/sequential_1/bidirectional_2/forward_lstm_2/PartitionedCall/while/LoopCond/_98"], "attr": {"T": {"type": "DT_FLOAT"}}}, {"name": "StatefulPartitionedCall/sequential_1/bidirectional_2/forward_lstm_2/PartitionedCall/while/StatefulPartitionedCall/sequential_1/bidirectional_2/forward_lstm_2/PartitionedCall/TensorArrayUnstack/TensorListFromTensor_switch/_107", "op": "Switch", "input": ["StatefulPartitionedCall/sequential_1/bidirectional_2/forward_lstm_2/PartitionedCall/while/merge/_92", "StatefulPartitionedCall/sequential_1/bidirectional_2/forward_lstm_2/PartitionedCall/while/LoopCond/_98"], "attr": {"T": {"type": "DT_VARIANT"}}}, {"name": "StatefulPartitionedCall/sequential_1/bidirectional_2/forward_lstm_2/PartitionedCall/while/Func/StatefulPartitionedCall/sequential_1/bidirectional_2/forward_lstm_2/PartitionedCall/input/_23_switch/_109", "op": "Switch", "input": ["StatefulPartitionedCall/sequential_1/bidirectional_2/forward_lstm_2/PartitionedCall/while/merge/_94", "StatefulPartitionedCall/sequential_1/bidirectional_2/forward_lstm_2/PartitionedCall/while/LoopCond/_98"], "attr": {"T": {"type": "DT_FLOAT"}}}, {"name": "StatefulPartitionedCall/sequential_1/bidirectional_2/forward_lstm_2/PartitionedCall/while/StatefulPartitionedCall/sequential_1/bidirectional_2/forward_lstm_2/PartitionedCall/TensorArrayUnstack_1/TensorListFromTensor_switch/_108", "op": "Switch", "input": ["StatefulPartitionedCall/sequential_1/bidirectional_2/forward_lstm_2/PartitionedCall/while/merge/_93", "StatefulPartitionedCall/sequential_1/bidirectional_2/forward_lstm_2/PartitionedCall/while/LoopCond/_98"], "attr": {"T": {"type": "DT_VARIANT"}}}, {"name": "StatefulPartitionedCall/sequential_1/bidirectional_2/forward_lstm_2/PartitionedCall/while/Func/StatefulPartitionedCall/sequential_1/bidirectional_2/forward_lstm_2/PartitionedCall/input/_21_switch/_104", "op": "Switch", "input": ["StatefulPartitionedCall/sequential_1/bidirectional_2/forward_lstm_2/PartitionedCall/while/merge/_89", "StatefulPartitionedCall/sequential_1/bidirectional_2/forward_lstm_2/PartitionedCall/while/LoopCond/_98"], "attr": {"T": {"type": "DT_FLOAT"}}}, {"name": "StatefulPartitionedCall/sequential_1/bidirectional_2/forward_lstm_2/PartitionedCall/while/Func/StatefulPartitionedCall/sequential_1/bidirectional_2/forward_lstm_2/PartitionedCall/input/_24_switch/_110", "op": "Switch", "input": ["StatefulPartitionedCall/sequential_1/bidirectional_2/forward_lstm_2/PartitionedCall/while/merge/_95", "StatefulPartitionedCall/sequential_1/bidirectional_2/forward_lstm_2/PartitionedCall/while/LoopCond/_98"], "attr": {"T": {"type": "DT_FLOAT"}}}, {"name": "StatefulPartitionedCall/sequential_1/bidirectional_2/forward_lstm_2/PartitionedCall/while/Func/StatefulPartitionedCall/sequential_1/bidirectional_2/forward_lstm_2/PartitionedCall/input/_25_switch/_111", "op": "Switch", "input": ["StatefulPartitionedCall/sequential_1/bidirectional_2/forward_lstm_2/PartitionedCall/while/merge/_96", "StatefulPartitionedCall/sequential_1/bidirectional_2/forward_lstm_2/PartitionedCall/while/LoopCond/_98"], "attr": {"T": {"type": "DT_FLOAT"}}}, {"name": "StatefulPartitionedCall/sequential_1/bidirectional_2/forward_lstm_2/PartitionedCall/while/StatefulPartitionedCall/sequential_1/bidirectional_2/forward_lstm_2/PartitionedCall/time_switch/_101", "op": "Switch", "input": ["StatefulPartitionedCall/sequential_1/bidirectional_2/forward_lstm_2/PartitionedCall/while/merge/_86", "StatefulPartitionedCall/sequential_1/bidirectional_2/forward_lstm_2/PartitionedCall/while/LoopCond/_98"], "attr": {"T": {"type": "DT_INT32"}}}, {"name": "StatefulPartitionedCall/sequential_1/bidirectional_2/forward_lstm_2/PartitionedCall/while/StatefulPartitionedCall/sequential_1/bidirectional_2/forward_lstm_2/PartitionedCall/while/loop_counter_switch/_99", "op": "Switch", "input": ["StatefulPartitionedCall/sequential_1/bidirectional_2/forward_lstm_2/PartitionedCall/while/merge/_84", "StatefulPartitionedCall/sequential_1/bidirectional_2/forward_lstm_2/PartitionedCall/while/LoopCond/_98"], "attr": {"T": {"type": "DT_INT32"}}}, {"name": "StatefulPartitionedCall/sequential_1/bidirectional_2/forward_lstm_2/PartitionedCall/while/StatefulPartitionedCall/sequential_1/bidirectional_2/forward_lstm_2/PartitionedCall/TensorArrayV2_1_switch/_102", "op": "Switch", "input": ["StatefulPartitionedCall/sequential_1/bidirectional_2/forward_lstm_2/PartitionedCall/while/merge/_87", "StatefulPartitionedCall/sequential_1/bidirectional_2/forward_lstm_2/PartitionedCall/while/LoopCond/_98"], "attr": {"T": {"type": "DT_VARIANT"}}}, {"name": "StatefulPartitionedCall/sequential_1/bidirectional_2/forward_lstm_2/PartitionedCall/while/StatefulPartitionedCall/sequential_1/bidirectional_2/forward_lstm_2/PartitionedCall/strided_slice_switch/_106", "op": "Switch", "input": ["StatefulPartitionedCall/sequential_1/bidirectional_2/forward_lstm_2/PartitionedCall/while/merge/_91", "StatefulPartitionedCall/sequential_1/bidirectional_2/forward_lstm_2/PartitionedCall/while/LoopCond/_98"], "attr": {"T": {"type": "DT_INT32"}}}, {"name": "StatefulPartitionedCall/sequential_1/bidirectional_2/backward_lstm_2/PartitionedCall/split", "op": "Split", "input": ["StatefulPartitionedCall/sequential_1/bidirectional_2/backward_lstm_2/PartitionedCall/split/split_dim", "StatefulPartitionedCall/sequential_1/bidirectional_2/backward_lstm_2/PartitionedCall/BiasAdd"], "attr": {"T": {"type": "DT_FLOAT"}, "num_split": {"i": "4"}}}, {"name": "StatefulPartitionedCall/sequential_1/bidirectional_2/backward_lstm_2/PartitionedCall/while/Func/StatefulPartitionedCall/sequential_1/bidirectional_2/backward_lstm_2/PartitionedCall/input/_34_switch/_180", "op": "Switch", "input": ["StatefulPartitionedCall/sequential_1/bidirectional_2/backward_lstm_2/PartitionedCall/while/merge/_165", "StatefulPartitionedCall/sequential_1/bidirectional_2/backward_lstm_2/PartitionedCall/while/LoopCond/_173"], "attr": {"T": {"type": "DT_FLOAT"}}}, {"name": "StatefulPartitionedCall/sequential_1/bidirectional_2/backward_lstm_2/PartitionedCall/while/StatefulPartitionedCall/sequential_1/bidirectional_2/backward_lstm_2/PartitionedCall/TensorArrayUnstack/TensorListFromTensor_switch/_182", "op": "Switch", "input": ["StatefulPartitionedCall/sequential_1/bidirectional_2/backward_lstm_2/PartitionedCall/while/merge/_167", "StatefulPartitionedCall/sequential_1/bidirectional_2/backward_lstm_2/PartitionedCall/while/LoopCond/_173"], "attr": {"T": {"type": "DT_VARIANT"}}}, {"name": "StatefulPartitionedCall/sequential_1/bidirectional_2/backward_lstm_2/PartitionedCall/while/Func/StatefulPartitionedCall/sequential_1/bidirectional_2/backward_lstm_2/PartitionedCall/input/_35_switch/_184", "op": "Switch", "input": ["StatefulPartitionedCall/sequential_1/bidirectional_2/backward_lstm_2/PartitionedCall/while/merge/_169", "StatefulPartitionedCall/sequential_1/bidirectional_2/backward_lstm_2/PartitionedCall/while/LoopCond/_173"], "attr": {"T": {"type": "DT_FLOAT"}}}, {"name": "StatefulPartitionedCall/sequential_1/bidirectional_2/backward_lstm_2/PartitionedCall/while/StatefulPartitionedCall/sequential_1/bidirectional_2/backward_lstm_2/PartitionedCall/TensorArrayUnstack_1/TensorListFromTensor_switch/_183", "op": "Switch", "input": ["StatefulPartitionedCall/sequential_1/bidirectional_2/backward_lstm_2/PartitionedCall/while/merge/_168", "StatefulPartitionedCall/sequential_1/bidirectional_2/backward_lstm_2/PartitionedCall/while/LoopCond/_173"], "attr": {"T": {"type": "DT_VARIANT"}}}, {"name": "StatefulPartitionedCall/sequential_1/bidirectional_2/backward_lstm_2/PartitionedCall/while/Func/StatefulPartitionedCall/sequential_1/bidirectional_2/backward_lstm_2/PartitionedCall/input/_33_switch/_179", "op": "Switch", "input": ["StatefulPartitionedCall/sequential_1/bidirectional_2/backward_lstm_2/PartitionedCall/while/merge/_164", "StatefulPartitionedCall/sequential_1/bidirectional_2/backward_lstm_2/PartitionedCall/while/LoopCond/_173"], "attr": {"T": {"type": "DT_FLOAT"}}}, {"name": "StatefulPartitionedCall/sequential_1/bidirectional_2/backward_lstm_2/PartitionedCall/while/Func/StatefulPartitionedCall/sequential_1/bidirectional_2/backward_lstm_2/PartitionedCall/input/_36_switch/_185", "op": "Switch", "input": ["StatefulPartitionedCall/sequential_1/bidirectional_2/backward_lstm_2/PartitionedCall/while/merge/_170", "StatefulPartitionedCall/sequential_1/bidirectional_2/backward_lstm_2/PartitionedCall/while/LoopCond/_173"], "attr": {"T": {"type": "DT_FLOAT"}}}, {"name": "StatefulPartitionedCall/sequential_1/bidirectional_2/backward_lstm_2/PartitionedCall/while/Func/StatefulPartitionedCall/sequential_1/bidirectional_2/backward_lstm_2/PartitionedCall/input/_37_switch/_186", "op": "Switch", "input": ["StatefulPartitionedCall/sequential_1/bidirectional_2/backward_lstm_2/PartitionedCall/while/merge/_171", "StatefulPartitionedCall/sequential_1/bidirectional_2/backward_lstm_2/PartitionedCall/while/LoopCond/_173"], "attr": {"T": {"type": "DT_FLOAT"}}}, {"name": "StatefulPartitionedCall/sequential_1/bidirectional_2/backward_lstm_2/PartitionedCall/while/StatefulPartitionedCall/sequential_1/bidirectional_2/backward_lstm_2/PartitionedCall/time_switch/_176", "op": "Switch", "input": ["StatefulPartitionedCall/sequential_1/bidirectional_2/backward_lstm_2/PartitionedCall/while/merge/_161", "StatefulPartitionedCall/sequential_1/bidirectional_2/backward_lstm_2/PartitionedCall/while/LoopCond/_173"], "attr": {"T": {"type": "DT_INT32"}}}, {"name": "StatefulPartitionedCall/sequential_1/bidirectional_2/backward_lstm_2/PartitionedCall/while/StatefulPartitionedCall/sequential_1/bidirectional_2/backward_lstm_2/PartitionedCall/while/loop_counter_switch/_174", "op": "Switch", "input": ["StatefulPartitionedCall/sequential_1/bidirectional_2/backward_lstm_2/PartitionedCall/while/merge/_159", "StatefulPartitionedCall/sequential_1/bidirectional_2/backward_lstm_2/PartitionedCall/while/LoopCond/_173"], "attr": {"T": {"type": "DT_INT32"}}}, {"name": "StatefulPartitionedCall/sequential_1/bidirectional_2/backward_lstm_2/PartitionedCall/while/StatefulPartitionedCall/sequential_1/bidirectional_2/backward_lstm_2/PartitionedCall/TensorArrayV2_1_switch/_177", "op": "Switch", "input": ["StatefulPartitionedCall/sequential_1/bidirectional_2/backward_lstm_2/PartitionedCall/while/merge/_162", "StatefulPartitionedCall/sequential_1/bidirectional_2/backward_lstm_2/PartitionedCall/while/LoopCond/_173"], "attr": {"T": {"type": "DT_VARIANT"}}}, {"name": "StatefulPartitionedCall/sequential_1/bidirectional_2/backward_lstm_2/PartitionedCall/while/StatefulPartitionedCall/sequential_1/bidirectional_2/backward_lstm_2/PartitionedCall/strided_slice_switch/_181", "op": "Switch", "input": ["StatefulPartitionedCall/sequential_1/bidirectional_2/backward_lstm_2/PartitionedCall/while/merge/_166", "StatefulPartitionedCall/sequential_1/bidirectional_2/backward_lstm_2/PartitionedCall/while/LoopCond/_173"], "attr": {"T": {"type": "DT_INT32"}}}, {"name": "StatefulPartitionedCall/sequential_1/bidirectional_2/forward_lstm_2/PartitionedCall/Sigmoid", "op": "Sigmoid", "input": ["StatefulPartitionedCall/sequential_1/bidirectional_2/forward_lstm_2/PartitionedCall/split"], "attr": {"T": {"type": "DT_FLOAT"}}}, {"name": "StatefulPartitionedCall/sequential_1/bidirectional_2/forward_lstm_2/PartitionedCall/Sigmoid_1", "op": "Sigmoid", "input": ["StatefulPartitionedCall/sequential_1/bidirectional_2/forward_lstm_2/PartitionedCall/split:1"], "attr": {"T": {"type": "DT_FLOAT"}}}, {"name": "StatefulPartitionedCall/sequential_1/bidirectional_2/forward_lstm_2/PartitionedCall/Tanh", "op": "Tanh", "input": ["StatefulPartitionedCall/sequential_1/bidirectional_2/forward_lstm_2/PartitionedCall/split:2"], "attr": {"T": {"type": "DT_FLOAT"}}}, {"name": "StatefulPartitionedCall/sequential_1/bidirectional_2/forward_lstm_2/PartitionedCall/Sigmoid_2", "op": "Sigmoid", "input": ["StatefulPartitionedCall/sequential_1/bidirectional_2/forward_lstm_2/PartitionedCall/split:3"], "attr": {"T": {"type": "DT_FLOAT"}}}, {"name": "StatefulPartitionedCall/sequential_1/bidirectional_2/forward_lstm_2/PartitionedCall/while/loop_body_control/_113", "op": "Identity", "input": ["StatefulPartitionedCall/sequential_1/bidirectional_2/forward_lstm_2/PartitionedCall/while/StatefulPartitionedCall/sequential_1/bidirectional_2/forward_lstm_2/PartitionedCall/while/loop_counter_switch/_99:1"], "attr": {"T": {"type": "DT_INT32"}}}, {"name": "StatefulPartitionedCall/sequential_1/bidirectional_2/forward_lstm_2/PartitionedCall/while/exit/_117", "op": "Exit", "input": ["StatefulPartitionedCall/sequential_1/bidirectional_2/forward_lstm_2/PartitionedCall/while/StatefulPartitionedCall/sequential_1/bidirectional_2/forward_lstm_2/PartitionedCall/TensorArrayV2_1_switch/_102"], "attr": {"T": {"type": "DT_VARIANT"}}}, {"name": "StatefulPartitionedCall/sequential_1/bidirectional_2/backward_lstm_2/PartitionedCall/Sigmoid", "op": "Sigmoid", "input": ["StatefulPartitionedCall/sequential_1/bidirectional_2/backward_lstm_2/PartitionedCall/split"], "attr": {"T": {"type": "DT_FLOAT"}}}, {"name": "StatefulPartitionedCall/sequential_1/bidirectional_2/backward_lstm_2/PartitionedCall/Sigmoid_1", "op": "Sigmoid", "input": ["StatefulPartitionedCall/sequential_1/bidirectional_2/backward_lstm_2/PartitionedCall/split:1"], "attr": {"T": {"type": "DT_FLOAT"}}}, {"name": "StatefulPartitionedCall/sequential_1/bidirectional_2/backward_lstm_2/PartitionedCall/Tanh", "op": "Tanh", "input": ["StatefulPartitionedCall/sequential_1/bidirectional_2/backward_lstm_2/PartitionedCall/split:2"], "attr": {"T": {"type": "DT_FLOAT"}}}, {"name": "StatefulPartitionedCall/sequential_1/bidirectional_2/backward_lstm_2/PartitionedCall/Sigmoid_2", "op": "Sigmoid", "input": ["StatefulPartitionedCall/sequential_1/bidirectional_2/backward_lstm_2/PartitionedCall/split:3"], "attr": {"T": {"type": "DT_FLOAT"}}}, {"name": "StatefulPartitionedCall/sequential_1/bidirectional_2/backward_lstm_2/PartitionedCall/while/loop_body_control/_188", "op": "Identity", "input": ["StatefulPartitionedCall/sequential_1/bidirectional_2/backward_lstm_2/PartitionedCall/while/StatefulPartitionedCall/sequential_1/bidirectional_2/backward_lstm_2/PartitionedCall/while/loop_counter_switch/_174:1"], "attr": {"T": {"type": "DT_INT32"}}}, {"name": "StatefulPartitionedCall/sequential_1/bidirectional_2/backward_lstm_2/PartitionedCall/while/exit/_192", "op": "Exit", "input": ["StatefulPartitionedCall/sequential_1/bidirectional_2/backward_lstm_2/PartitionedCall/while/StatefulPartitionedCall/sequential_1/bidirectional_2/backward_lstm_2/PartitionedCall/TensorArrayV2_1_switch/_177"], "attr": {"T": {"type": "DT_VARIANT"}}}, {"name": "StatefulPartitionedCall/sequential_1/bidirectional_2/forward_lstm_2/PartitionedCall/mul", "op": "Mul", "input": ["StatefulPartitionedCall/sequential_1/bidirectional_2/forward_lstm_2/PartitionedCall/Sigmoid_1", "StatefulPartitionedCall/sequential_1/bidirectional_2/forward_lstm_2/zeros_1"], "attr": {"T": {"type": "DT_FLOAT"}}}, {"name": "StatefulPartitionedCall/sequential_1/bidirectional_2/forward_lstm_2/PartitionedCall/mul_1", "op": "Mul", "input": ["StatefulPartitionedCall/sequential_1/bidirectional_2/forward_lstm_2/PartitionedCall/Sigmoid", "StatefulPartitionedCall/sequential_1/bidirectional_2/forward_lstm_2/PartitionedCall/Tanh"], "attr": {"T": {"type": "DT_FLOAT"}}}, {"name": "StatefulPartitionedCall/sequential_1/bidirectional_2/forward_lstm_2/PartitionedCall/while/body/_69/while/split/split_dim", "op": "Const", "input": ["^StatefulPartitionedCall/sequential_1/bidirectional_2/forward_lstm_2/PartitionedCall/while/loop_body_control/_113"], "attr": {"dtype": {"type": "DT_INT32"}, "value": {"tensor": {"dtype": "DT_INT32", "tensorShape": {}}}}}, {"name": "StatefulPartitionedCall/sequential_1/bidirectional_2/forward_lstm_2/PartitionedCall/while/next_iteration/_137", "op": "NextIteration", "input": ["StatefulPartitionedCall/sequential_1/bidirectional_2/forward_lstm_2/PartitionedCall/while/StatefulPartitionedCall/sequential_1/bidirectional_2/forward_lstm_2/PartitionedCall/TensorArrayUnstack/TensorListFromTensor_switch/_107:1", "^StatefulPartitionedCall/sequential_1/bidirectional_2/forward_lstm_2/PartitionedCall/while/loop_body_control/_113"], "attr": {"T": {"type": "DT_VARIANT"}}}, {"name": "StatefulPartitionedCall/sequential_1/bidirectional_2/forward_lstm_2/PartitionedCall/while/body/_69/while/TensorArrayV2Read/TensorListGetItem/element_shape", "op": "Const", "input": ["^StatefulPartitionedCall/sequential_1/bidirectional_2/forward_lstm_2/PartitionedCall/while/loop_body_control/_113"], "attr": {"value": {"tensor": {"dtype": "DT_INT32", "tensorShape": {"dim": [{"size": "2"}]}}}, "dtype": {"type": "DT_INT32"}}}, {"name": "StatefulPartitionedCall/sequential_1/bidirectional_2/forward_lstm_2/PartitionedCall/while/next_iteration/_139", "op": "NextIteration", "input": ["StatefulPartitionedCall/sequential_1/bidirectional_2/forward_lstm_2/PartitionedCall/while/Func/StatefulPartitionedCall/sequential_1/bidirectional_2/forward_lstm_2/PartitionedCall/input/_23_switch/_109:1", "^StatefulPartitionedCall/sequential_1/bidirectional_2/forward_lstm_2/PartitionedCall/while/loop_body_control/_113"], "attr": {"T": {"type": "DT_FLOAT"}}}, {"name": "StatefulPartitionedCall/sequential_1/bidirectional_2/forward_lstm_2/PartitionedCall/while/next_iteration/_138", "op": "NextIteration", "input": ["StatefulPartitionedCall/sequential_1/bidirectional_2/forward_lstm_2/PartitionedCall/while/StatefulPartitionedCall/sequential_1/bidirectional_2/forward_lstm_2/PartitionedCall/TensorArrayUnstack_1/TensorListFromTensor_switch/_108:1", "^StatefulPartitionedCall/sequential_1/bidirectional_2/forward_lstm_2/PartitionedCall/while/loop_body_control/_113"], "attr": {"T": {"type": "DT_VARIANT"}}}, {"name": "StatefulPartitionedCall/sequential_1/bidirectional_2/forward_lstm_2/PartitionedCall/while/body/_69/while/TensorArrayV2Read_1/TensorListGetItem/element_shape", "op": "Const", "input": ["^StatefulPartitionedCall/sequential_1/bidirectional_2/forward_lstm_2/PartitionedCall/while/loop_body_control/_113"], "attr": {"value": {"tensor": {"dtype": "DT_INT32", "tensorShape": {"dim": [{"size": "2"}]}}}, "dtype": {"type": "DT_INT32"}}}, {"name": "StatefulPartitionedCall/sequential_1/bidirectional_2/forward_lstm_2/PartitionedCall/while/next_iteration/_140", "op": "NextIteration", "input": ["StatefulPartitionedCall/sequential_1/bidirectional_2/forward_lstm_2/PartitionedCall/while/Func/StatefulPartitionedCall/sequential_1/bidirectional_2/forward_lstm_2/PartitionedCall/input/_24_switch/_110:1", "^StatefulPartitionedCall/sequential_1/bidirectional_2/forward_lstm_2/PartitionedCall/while/loop_body_control/_113"], "attr": {"T": {"type": "DT_FLOAT"}}}, {"name": "StatefulPartitionedCall/sequential_1/bidirectional_2/forward_lstm_2/PartitionedCall/while/body/_69/while/MatMul_1", "op": "MatMul", "input": ["StatefulPartitionedCall/sequential_1/bidirectional_2/forward_lstm_2/PartitionedCall/while/Func/StatefulPartitionedCall/sequential_1/bidirectional_2/forward_lstm_2/PartitionedCall/input/_21_switch/_104:1", "StatefulPartitionedCall/sequential_1/bidirectional_2/forward_lstm_2/PartitionedCall/while/Func/StatefulPartitionedCall/sequential_1/bidirectional_2/forward_lstm_2/PartitionedCall/input/_24_switch/_110:1", "^StatefulPartitionedCall/sequential_1/bidirectional_2/forward_lstm_2/PartitionedCall/while/loop_body_control/_113"], "device": "/device:CPU:0", "attr": {"transpose_a": {"b": false}, "transpose_b": {"b": false}, "T": {"type": "DT_FLOAT"}}}, {"name": "StatefulPartitionedCall/sequential_1/bidirectional_2/forward_lstm_2/PartitionedCall/while/next_iteration/_141", "op": "NextIteration", "input": ["StatefulPartitionedCall/sequential_1/bidirectional_2/forward_lstm_2/PartitionedCall/while/Func/StatefulPartitionedCall/sequential_1/bidirectional_2/forward_lstm_2/PartitionedCall/input/_25_switch/_111:1", "^StatefulPartitionedCall/sequential_1/bidirectional_2/forward_lstm_2/PartitionedCall/while/loop_body_control/_113"], "attr": {"T": {"type": "DT_FLOAT"}}}, {"name": "Func/StatefulPartitionedCall/sequential_1/bidirectional_2/forward_lstm_2/PartitionedCall/while/body/_69/input/_377", "op": "Identity", "input": ["StatefulPartitionedCall/sequential_1/bidirectional_2/forward_lstm_2/PartitionedCall/while/StatefulPartitionedCall/sequential_1/bidirectional_2/forward_lstm_2/PartitionedCall/time_switch/_101:1", "^StatefulPartitionedCall/sequential_1/bidirectional_2/forward_lstm_2/PartitionedCall/while/loop_body_control/_113"], "attr": {"T": {"type": "DT_INT32"}}}, {"name": "StatefulPartitionedCall/sequential_1/bidirectional_2/forward_lstm_2/PartitionedCall/while/body/_69/while/add_2/y", "op": "Const", "input": ["^StatefulPartitionedCall/sequential_1/bidirectional_2/forward_lstm_2/PartitionedCall/while/loop_body_control/_113"], "attr": {"dtype": {"type": "DT_INT32"}, "value": {"tensor": {"dtype": "DT_INT32", "tensorShape": {}}}}}, {"name": "StatefulPartitionedCall/sequential_1/bidirectional_2/forward_lstm_2/PartitionedCall/while/body/_69/while/add_3/y", "op": "Const", "input": ["^StatefulPartitionedCall/sequential_1/bidirectional_2/forward_lstm_2/PartitionedCall/while/loop_body_control/_113"], "attr": {"value": {"tensor": {"dtype": "DT_INT32", "tensorShape": {}}}, "dtype": {"type": "DT_INT32"}}}, {"name": "StatefulPartitionedCall/sequential_1/bidirectional_2/forward_lstm_2/PartitionedCall/while/next_iteration/_136", "op": "NextIteration", "input": ["StatefulPartitionedCall/sequential_1/bidirectional_2/forward_lstm_2/PartitionedCall/while/StatefulPartitionedCall/sequential_1/bidirectional_2/forward_lstm_2/PartitionedCall/strided_slice_switch/_106:1", "^StatefulPartitionedCall/sequential_1/bidirectional_2/forward_lstm_2/PartitionedCall/while/loop_body_control/_113"], "attr": {"T": {"type": "DT_INT32"}}}, {"name": "StatefulPartitionedCall/sequential_1/bidirectional_2/forward_lstm_2/PartitionedCall/TensorArrayV2Stack/TensorListStack", "op": "TensorListStack", "input": ["StatefulPartitionedCall/sequential_1/bidirectional_2/forward_lstm_2/PartitionedCall/while/exit/_117", "StatefulPartitionedCall/sequential_1/bidirectional_2/forward_lstm_2/PartitionedCall/TensorArrayV2Stack/TensorListStack/element_shape"], "attr": {"num_elements": {"i": "-1"}, "element_dtype": {"type": "DT_FLOAT"}}}, {"name": "StatefulPartitionedCall/sequential_1/bidirectional_2/backward_lstm_2/PartitionedCall/mul", "op": "Mul", "input": ["StatefulPartitionedCall/sequential_1/bidirectional_2/backward_lstm_2/PartitionedCall/Sigmoid_1", "StatefulPartitionedCall/sequential_1/bidirectional_2/backward_lstm_2/zeros_1"], "attr": {"T": {"type": "DT_FLOAT"}}}, {"name": "StatefulPartitionedCall/sequential_1/bidirectional_2/backward_lstm_2/PartitionedCall/mul_1", "op": "Mul", "input": ["StatefulPartitionedCall/sequential_1/bidirectional_2/backward_lstm_2/PartitionedCall/Sigmoid", "StatefulPartitionedCall/sequential_1/bidirectional_2/backward_lstm_2/PartitionedCall/Tanh"], "attr": {"T": {"type": "DT_FLOAT"}}}, {"name": "StatefulPartitionedCall/sequential_1/bidirectional_2/backward_lstm_2/PartitionedCall/while/body/_144/while/split/split_dim", "op": "Const", "input": ["^StatefulPartitionedCall/sequential_1/bidirectional_2/backward_lstm_2/PartitionedCall/while/loop_body_control/_188"], "attr": {"value": {"tensor": {"dtype": "DT_INT32", "tensorShape": {}}}, "dtype": {"type": "DT_INT32"}}}, {"name": "StatefulPartitionedCall/sequential_1/bidirectional_2/backward_lstm_2/PartitionedCall/while/next_iteration/_212", "op": "NextIteration", "input": ["StatefulPartitionedCall/sequential_1/bidirectional_2/backward_lstm_2/PartitionedCall/while/StatefulPartitionedCall/sequential_1/bidirectional_2/backward_lstm_2/PartitionedCall/TensorArrayUnstack/TensorListFromTensor_switch/_182:1", "^StatefulPartitionedCall/sequential_1/bidirectional_2/backward_lstm_2/PartitionedCall/while/loop_body_control/_188"], "attr": {"T": {"type": "DT_VARIANT"}}}, {"name": "StatefulPartitionedCall/sequential_1/bidirectional_2/backward_lstm_2/PartitionedCall/while/body/_144/while/TensorArrayV2Read/TensorListGetItem/element_shape", "op": "Const", "input": ["^StatefulPartitionedCall/sequential_1/bidirectional_2/backward_lstm_2/PartitionedCall/while/loop_body_control/_188"], "attr": {"value": {"tensor": {"dtype": "DT_INT32", "tensorShape": {"dim": [{"size": "2"}]}}}, "dtype": {"type": "DT_INT32"}}}, {"name": "StatefulPartitionedCall/sequential_1/bidirectional_2/backward_lstm_2/PartitionedCall/while/next_iteration/_214", "op": "NextIteration", "input": ["StatefulPartitionedCall/sequential_1/bidirectional_2/backward_lstm_2/PartitionedCall/while/Func/StatefulPartitionedCall/sequential_1/bidirectional_2/backward_lstm_2/PartitionedCall/input/_35_switch/_184:1", "^StatefulPartitionedCall/sequential_1/bidirectional_2/backward_lstm_2/PartitionedCall/while/loop_body_control/_188"], "attr": {"T": {"type": "DT_FLOAT"}}}, {"name": "StatefulPartitionedCall/sequential_1/bidirectional_2/backward_lstm_2/PartitionedCall/while/next_iteration/_213", "op": "NextIteration", "input": ["StatefulPartitionedCall/sequential_1/bidirectional_2/backward_lstm_2/PartitionedCall/while/StatefulPartitionedCall/sequential_1/bidirectional_2/backward_lstm_2/PartitionedCall/TensorArrayUnstack_1/TensorListFromTensor_switch/_183:1", "^StatefulPartitionedCall/sequential_1/bidirectional_2/backward_lstm_2/PartitionedCall/while/loop_body_control/_188"], "attr": {"T": {"type": "DT_VARIANT"}}}, {"name": "StatefulPartitionedCall/sequential_1/bidirectional_2/backward_lstm_2/PartitionedCall/while/body/_144/while/TensorArrayV2Read_1/TensorListGetItem/element_shape", "op": "Const", "input": ["^StatefulPartitionedCall/sequential_1/bidirectional_2/backward_lstm_2/PartitionedCall/while/loop_body_control/_188"], "attr": {"dtype": {"type": "DT_INT32"}, "value": {"tensor": {"dtype": "DT_INT32", "tensorShape": {"dim": [{"size": "2"}]}}}}}, {"name": "StatefulPartitionedCall/sequential_1/bidirectional_2/backward_lstm_2/PartitionedCall/while/next_iteration/_215", "op": "NextIteration", "input": ["StatefulPartitionedCall/sequential_1/bidirectional_2/backward_lstm_2/PartitionedCall/while/Func/StatefulPartitionedCall/sequential_1/bidirectional_2/backward_lstm_2/PartitionedCall/input/_36_switch/_185:1", "^StatefulPartitionedCall/sequential_1/bidirectional_2/backward_lstm_2/PartitionedCall/while/loop_body_control/_188"], "attr": {"T": {"type": "DT_FLOAT"}}}, {"name": "StatefulPartitionedCall/sequential_1/bidirectional_2/backward_lstm_2/PartitionedCall/while/body/_144/while/MatMul_1", "op": "MatMul", "input": ["StatefulPartitionedCall/sequential_1/bidirectional_2/backward_lstm_2/PartitionedCall/while/Func/StatefulPartitionedCall/sequential_1/bidirectional_2/backward_lstm_2/PartitionedCall/input/_33_switch/_179:1", "StatefulPartitionedCall/sequential_1/bidirectional_2/backward_lstm_2/PartitionedCall/while/Func/StatefulPartitionedCall/sequential_1/bidirectional_2/backward_lstm_2/PartitionedCall/input/_36_switch/_185:1", "^StatefulPartitionedCall/sequential_1/bidirectional_2/backward_lstm_2/PartitionedCall/while/loop_body_control/_188"], "device": "/device:CPU:0", "attr": {"transpose_a": {"b": false}, "transpose_b": {"b": false}, "T": {"type": "DT_FLOAT"}}}, {"name": "StatefulPartitionedCall/sequential_1/bidirectional_2/backward_lstm_2/PartitionedCall/while/next_iteration/_216", "op": "NextIteration", "input": ["StatefulPartitionedCall/sequential_1/bidirectional_2/backward_lstm_2/PartitionedCall/while/Func/StatefulPartitionedCall/sequential_1/bidirectional_2/backward_lstm_2/PartitionedCall/input/_37_switch/_186:1", "^StatefulPartitionedCall/sequential_1/bidirectional_2/backward_lstm_2/PartitionedCall/while/loop_body_control/_188"], "attr": {"T": {"type": "DT_FLOAT"}}}, {"name": "Func/StatefulPartitionedCall/sequential_1/bidirectional_2/backward_lstm_2/PartitionedCall/while/body/_144/input/_423", "op": "Identity", "input": ["StatefulPartitionedCall/sequential_1/bidirectional_2/backward_lstm_2/PartitionedCall/while/StatefulPartitionedCall/sequential_1/bidirectional_2/backward_lstm_2/PartitionedCall/time_switch/_176:1", "^StatefulPartitionedCall/sequential_1/bidirectional_2/backward_lstm_2/PartitionedCall/while/loop_body_control/_188"], "attr": {"T": {"type": "DT_INT32"}}}, {"name": "StatefulPartitionedCall/sequential_1/bidirectional_2/backward_lstm_2/PartitionedCall/while/body/_144/while/add_2/y", "op": "Const", "input": ["^StatefulPartitionedCall/sequential_1/bidirectional_2/backward_lstm_2/PartitionedCall/while/loop_body_control/_188"], "attr": {"dtype": {"type": "DT_INT32"}, "value": {"tensor": {"dtype": "DT_INT32", "tensorShape": {}}}}}, {"name": "StatefulPartitionedCall/sequential_1/bidirectional_2/backward_lstm_2/PartitionedCall/while/body/_144/while/add_3/y", "op": "Const", "input": ["^StatefulPartitionedCall/sequential_1/bidirectional_2/backward_lstm_2/PartitionedCall/while/loop_body_control/_188"], "attr": {"value": {"tensor": {"dtype": "DT_INT32", "tensorShape": {}}}, "dtype": {"type": "DT_INT32"}}}, {"name": "StatefulPartitionedCall/sequential_1/bidirectional_2/backward_lstm_2/PartitionedCall/while/next_iteration/_211", "op": "NextIteration", "input": ["StatefulPartitionedCall/sequential_1/bidirectional_2/backward_lstm_2/PartitionedCall/while/StatefulPartitionedCall/sequential_1/bidirectional_2/backward_lstm_2/PartitionedCall/strided_slice_switch/_181:1", "^StatefulPartitionedCall/sequential_1/bidirectional_2/backward_lstm_2/PartitionedCall/while/loop_body_control/_188"], "attr": {"T": {"type": "DT_INT32"}}}, {"name": "StatefulPartitionedCall/sequential_1/bidirectional_2/backward_lstm_2/PartitionedCall/TensorArrayV2Stack/TensorListStack", "op": "TensorListStack", "input": ["StatefulPartitionedCall/sequential_1/bidirectional_2/backward_lstm_2/PartitionedCall/while/exit/_192", "StatefulPartitionedCall/sequential_1/bidirectional_2/backward_lstm_2/PartitionedCall/TensorArrayV2Stack/TensorListStack/element_shape"], "attr": {"num_elements": {"i": "-1"}, "element_dtype": {"type": "DT_FLOAT"}}}, {"name": "StatefulPartitionedCall/sequential_1/bidirectional_2/forward_lstm_2/PartitionedCall/add_1", "op": "AddV2", "input": ["StatefulPartitionedCall/sequential_1/bidirectional_2/forward_lstm_2/PartitionedCall/mul", "StatefulPartitionedCall/sequential_1/bidirectional_2/forward_lstm_2/PartitionedCall/mul_1"], "attr": {"T": {"type": "DT_FLOAT"}}}, {"name": "StatefulPartitionedCall/sequential_1/bidirectional_2/forward_lstm_2/PartitionedCall/while/body/_69/while/TensorArrayV2Read/TensorListGetItem", "op": "TensorListGetItem", "input": ["StatefulPartitionedCall/sequential_1/bidirectional_2/forward_lstm_2/PartitionedCall/while/StatefulPartitionedCall/sequential_1/bidirectional_2/forward_lstm_2/PartitionedCall/TensorArrayUnstack/TensorListFromTensor_switch/_107:1", "Func/StatefulPartitionedCall/sequential_1/bidirectional_2/forward_lstm_2/PartitionedCall/while/body/_69/input/_377", "StatefulPartitionedCall/sequential_1/bidirectional_2/forward_lstm_2/PartitionedCall/while/body/_69/while/TensorArrayV2Read/TensorListGetItem/element_shape"], "attr": {"element_dtype": {"type": "DT_FLOAT"}}}, {"name": "StatefulPartitionedCall/sequential_1/bidirectional_2/forward_lstm_2/PartitionedCall/while/body/_69/while/TensorArrayV2Read_1/TensorListGetItem", "op": "TensorListGetItem", "input": ["StatefulPartitionedCall/sequential_1/bidirectional_2/forward_lstm_2/PartitionedCall/while/StatefulPartitionedCall/sequential_1/bidirectional_2/forward_lstm_2/PartitionedCall/TensorArrayUnstack_1/TensorListFromTensor_switch/_108:1", "Func/StatefulPartitionedCall/sequential_1/bidirectional_2/forward_lstm_2/PartitionedCall/while/body/_69/input/_377", "StatefulPartitionedCall/sequential_1/bidirectional_2/forward_lstm_2/PartitionedCall/while/body/_69/while/TensorArrayV2Read_1/TensorListGetItem/element_shape"], "attr": {"element_dtype": {"type": "DT_BOOL"}}}, {"name": "StatefulPartitionedCall/sequential_1/bidirectional_2/forward_lstm_2/PartitionedCall/while/body/_69/while/add_2", "op": "AddV2", "input": ["Func/StatefulPartitionedCall/sequential_1/bidirectional_2/forward_lstm_2/PartitionedCall/while/body/_69/input/_377", "StatefulPartitionedCall/sequential_1/bidirectional_2/forward_lstm_2/PartitionedCall/while/body/_69/while/add_2/y"], "attr": {"T": {"type": "DT_INT32"}}}, {"name": "StatefulPartitionedCall/sequential_1/bidirectional_2/forward_lstm_2/PartitionedCall/while/body/_69/while/add_3", "op": "AddV2", "input": ["StatefulPartitionedCall/sequential_1/bidirectional_2/forward_lstm_2/PartitionedCall/while/StatefulPartitionedCall/sequential_1/bidirectional_2/forward_lstm_2/PartitionedCall/while/loop_counter_switch/_99:1", "StatefulPartitionedCall/sequential_1/bidirectional_2/forward_lstm_2/PartitionedCall/while/body/_69/while/add_3/y"], "attr": {"T": {"type": "DT_INT32"}}}, {"name": "StatefulPartitionedCall/sequential_1/bidirectional_2/forward_lstm_2/PartitionedCall/transpose_2", "op": "Transpose", "input": ["StatefulPartitionedCall/sequential_1/bidirectional_2/forward_lstm_2/PartitionedCall/TensorArrayV2Stack/TensorListStack", "StatefulPartitionedCall/sequential_1/bidirectional_2/forward_lstm_2/PartitionedCall/transpose_2/perm"], "attr": {"T": {"type": "DT_FLOAT"}, "Tperm": {"type": "DT_INT32"}}}, {"name": "StatefulPartitionedCall/sequential_1/bidirectional_2/backward_lstm_2/PartitionedCall/add_1", "op": "AddV2", "input": ["StatefulPartitionedCall/sequential_1/bidirectional_2/backward_lstm_2/PartitionedCall/mul", "StatefulPartitionedCall/sequential_1/bidirectional_2/backward_lstm_2/PartitionedCall/mul_1"], "attr": {"T": {"type": "DT_FLOAT"}}}, {"name": "StatefulPartitionedCall/sequential_1/bidirectional_2/backward_lstm_2/PartitionedCall/while/body/_144/while/TensorArrayV2Read/TensorListGetItem", "op": "TensorListGetItem", "input": ["StatefulPartitionedCall/sequential_1/bidirectional_2/backward_lstm_2/PartitionedCall/while/StatefulPartitionedCall/sequential_1/bidirectional_2/backward_lstm_2/PartitionedCall/TensorArrayUnstack/TensorListFromTensor_switch/_182:1", "Func/StatefulPartitionedCall/sequential_1/bidirectional_2/backward_lstm_2/PartitionedCall/while/body/_144/input/_423", "StatefulPartitionedCall/sequential_1/bidirectional_2/backward_lstm_2/PartitionedCall/while/body/_144/while/TensorArrayV2Read/TensorListGetItem/element_shape"], "attr": {"element_dtype": {"type": "DT_FLOAT"}}}, {"name": "StatefulPartitionedCall/sequential_1/bidirectional_2/backward_lstm_2/PartitionedCall/while/body/_144/while/TensorArrayV2Read_1/TensorListGetItem", "op": "TensorListGetItem", "input": ["StatefulPartitionedCall/sequential_1/bidirectional_2/backward_lstm_2/PartitionedCall/while/StatefulPartitionedCall/sequential_1/bidirectional_2/backward_lstm_2/PartitionedCall/TensorArrayUnstack_1/TensorListFromTensor_switch/_183:1", "Func/StatefulPartitionedCall/sequential_1/bidirectional_2/backward_lstm_2/PartitionedCall/while/body/_144/input/_423", "StatefulPartitionedCall/sequential_1/bidirectional_2/backward_lstm_2/PartitionedCall/while/body/_144/while/TensorArrayV2Read_1/TensorListGetItem/element_shape"], "attr": {"element_dtype": {"type": "DT_BOOL"}}}, {"name": "StatefulPartitionedCall/sequential_1/bidirectional_2/backward_lstm_2/PartitionedCall/while/body/_144/while/add_2", "op": "AddV2", "input": ["Func/StatefulPartitionedCall/sequential_1/bidirectional_2/backward_lstm_2/PartitionedCall/while/body/_144/input/_423", "StatefulPartitionedCall/sequential_1/bidirectional_2/backward_lstm_2/PartitionedCall/while/body/_144/while/add_2/y"], "attr": {"T": {"type": "DT_INT32"}}}, {"name": "StatefulPartitionedCall/sequential_1/bidirectional_2/backward_lstm_2/PartitionedCall/while/body/_144/while/add_3", "op": "AddV2", "input": ["StatefulPartitionedCall/sequential_1/bidirectional_2/backward_lstm_2/PartitionedCall/while/StatefulPartitionedCall/sequential_1/bidirectional_2/backward_lstm_2/PartitionedCall/while/loop_counter_switch/_174:1", "StatefulPartitionedCall/sequential_1/bidirectional_2/backward_lstm_2/PartitionedCall/while/body/_144/while/add_3/y"], "attr": {"T": {"type": "DT_INT32"}}}, {"name": "StatefulPartitionedCall/sequential_1/bidirectional_2/backward_lstm_2/PartitionedCall/transpose_2", "op": "Transpose", "input": ["StatefulPartitionedCall/sequential_1/bidirectional_2/backward_lstm_2/PartitionedCall/TensorArrayV2Stack/TensorListStack", "StatefulPartitionedCall/sequential_1/bidirectional_2/backward_lstm_2/PartitionedCall/transpose_2/perm"], "attr": {"Tperm": {"type": "DT_INT32"}, "T": {"type": "DT_FLOAT"}}}, {"name": "StatefulPartitionedCall/sequential_1/bidirectional_2/forward_lstm_2/PartitionedCall/Tanh_1", "op": "Tanh", "input": ["StatefulPartitionedCall/sequential_1/bidirectional_2/forward_lstm_2/PartitionedCall/add_1"], "attr": {"T": {"type": "DT_FLOAT"}}}, {"name": "StatefulPartitionedCall/sequential_1/bidirectional_2/forward_lstm_2/PartitionedCall/while/body/_69/while/MatMul", "op": "MatMul", "input": ["StatefulPartitionedCall/sequential_1/bidirectional_2/forward_lstm_2/PartitionedCall/while/body/_69/while/TensorArrayV2Read/TensorListGetItem", "StatefulPartitionedCall/sequential_1/bidirectional_2/forward_lstm_2/PartitionedCall/while/Func/StatefulPartitionedCall/sequential_1/bidirectional_2/forward_lstm_2/PartitionedCall/input/_23_switch/_109:1"], "device": "/device:CPU:0", "attr": {"T": {"type": "DT_FLOAT"}, "transpose_b": {"b": false}, "transpose_a": {"b": false}}}, {"name": "StatefulPartitionedCall/sequential_1/bidirectional_2/forward_lstm_2/PartitionedCall/while/next_iteration/_131", "op": "NextIteration", "input": ["StatefulPartitionedCall/sequential_1/bidirectional_2/forward_lstm_2/PartitionedCall/while/body/_69/while/add_2", "^StatefulPartitionedCall/sequential_1/bidirectional_2/forward_lstm_2/PartitionedCall/while/loop_body_control/_113"], "attr": {"T": {"type": "DT_INT32"}}}, {"name": "StatefulPartitionedCall/sequential_1/bidirectional_2/forward_lstm_2/PartitionedCall/while/next_iteration/_129", "op": "NextIteration", "input": ["StatefulPartitionedCall/sequential_1/bidirectional_2/forward_lstm_2/PartitionedCall/while/body/_69/while/add_3", "^StatefulPartitionedCall/sequential_1/bidirectional_2/forward_lstm_2/PartitionedCall/while/loop_body_control/_113"], "attr": {"T": {"type": "DT_INT32"}}}, {"name": "StatefulPartitionedCall/sequential_1/bidirectional_2/backward_lstm_2/PartitionedCall/Tanh_1", "op": "Tanh", "input": ["StatefulPartitionedCall/sequential_1/bidirectional_2/backward_lstm_2/PartitionedCall/add_1"], "attr": {"T": {"type": "DT_FLOAT"}}}, {"name": "StatefulPartitionedCall/sequential_1/bidirectional_2/backward_lstm_2/PartitionedCall/while/body/_144/while/MatMul", "op": "MatMul", "input": ["StatefulPartitionedCall/sequential_1/bidirectional_2/backward_lstm_2/PartitionedCall/while/body/_144/while/TensorArrayV2Read/TensorListGetItem", "StatefulPartitionedCall/sequential_1/bidirectional_2/backward_lstm_2/PartitionedCall/while/Func/StatefulPartitionedCall/sequential_1/bidirectional_2/backward_lstm_2/PartitionedCall/input/_35_switch/_184:1"], "device": "/device:CPU:0", "attr": {"transpose_a": {"b": false}, "transpose_b": {"b": false}, "T": {"type": "DT_FLOAT"}}}, {"name": "StatefulPartitionedCall/sequential_1/bidirectional_2/backward_lstm_2/PartitionedCall/while/next_iteration/_206", "op": "NextIteration", "input": ["StatefulPartitionedCall/sequential_1/bidirectional_2/backward_lstm_2/PartitionedCall/while/body/_144/while/add_2", "^StatefulPartitionedCall/sequential_1/bidirectional_2/backward_lstm_2/PartitionedCall/while/loop_body_control/_188"], "attr": {"T": {"type": "DT_INT32"}}}, {"name": "StatefulPartitionedCall/sequential_1/bidirectional_2/backward_lstm_2/PartitionedCall/while/next_iteration/_204", "op": "NextIteration", "input": ["StatefulPartitionedCall/sequential_1/bidirectional_2/backward_lstm_2/PartitionedCall/while/body/_144/while/add_3", "^StatefulPartitionedCall/sequential_1/bidirectional_2/backward_lstm_2/PartitionedCall/while/loop_body_control/_188"], "attr": {"T": {"type": "DT_INT32"}}}, {"name": "StatefulPartitionedCall/sequential_1/bidirectional_2/ReverseV2", "op": "ReverseV2", "input": ["StatefulPartitionedCall/sequential_1/bidirectional_2/backward_lstm_2/PartitionedCall/transpose_2", "StatefulPartitionedCall/sequential_1/bidirectional_2/ReverseV2/axis"], "attr": {"T": {"type": "DT_FLOAT"}, "Tidx": {"type": "DT_INT32"}}}, {"name": "StatefulPartitionedCall/sequential_1/bidirectional_2/forward_lstm_2/PartitionedCall/mul_2", "op": "Mul", "input": ["StatefulPartitionedCall/sequential_1/bidirectional_2/forward_lstm_2/PartitionedCall/Sigmoid_2", "StatefulPartitionedCall/sequential_1/bidirectional_2/forward_lstm_2/PartitionedCall/Tanh_1"], "attr": {"T": {"type": "DT_FLOAT"}}}, {"name": "StatefulPartitionedCall/sequential_1/bidirectional_2/forward_lstm_2/PartitionedCall/while/body/_69/while/add", "op": "AddV2", "input": ["StatefulPartitionedCall/sequential_1/bidirectional_2/forward_lstm_2/PartitionedCall/while/body/_69/while/MatMul", "StatefulPartitionedCall/sequential_1/bidirectional_2/forward_lstm_2/PartitionedCall/while/body/_69/while/MatMul_1"], "attr": {"T": {"type": "DT_FLOAT"}}}, {"name": "StatefulPartitionedCall/sequential_1/bidirectional_2/backward_lstm_2/PartitionedCall/mul_2", "op": "Mul", "input": ["StatefulPartitionedCall/sequential_1/bidirectional_2/backward_lstm_2/PartitionedCall/Sigmoid_2", "StatefulPartitionedCall/sequential_1/bidirectional_2/backward_lstm_2/PartitionedCall/Tanh_1"], "attr": {"T": {"type": "DT_FLOAT"}}}, {"name": "StatefulPartitionedCall/sequential_1/bidirectional_2/backward_lstm_2/PartitionedCall/while/body/_144/while/add", "op": "AddV2", "input": ["StatefulPartitionedCall/sequential_1/bidirectional_2/backward_lstm_2/PartitionedCall/while/body/_144/while/MatMul", "StatefulPartitionedCall/sequential_1/bidirectional_2/backward_lstm_2/PartitionedCall/while/body/_144/while/MatMul_1"], "attr": {"T": {"type": "DT_FLOAT"}}}, {"name": "StatefulPartitionedCall/sequential_1/bidirectional_2/concat", "op": "ConcatV2", "input": ["StatefulPartitionedCall/sequential_1/bidirectional_2/forward_lstm_2/PartitionedCall/transpose_2", "StatefulPartitionedCall/sequential_1/bidirectional_2/ReverseV2", "StatefulPartitionedCall/sequential_1/bidirectional_2/concat/axis"], "attr": {"Tidx": {"type": "DT_INT32"}, "T": {"type": "DT_FLOAT"}, "N": {"i": "2"}}}, {"name": "StatefulPartitionedCall/sequential_1/bidirectional_2/forward_lstm_2/PartitionedCall/zeros_like", "op": "ZerosLike", "input": ["StatefulPartitionedCall/sequential_1/bidirectional_2/forward_lstm_2/PartitionedCall/mul_2"], "attr": {"T": {"type": "DT_FLOAT"}}}, {"name": "StatefulPartitionedCall/sequential_1/bidirectional_2/forward_lstm_2/PartitionedCall/while/body/_69/while/BiasAdd", "op": "BiasAdd", "input": ["StatefulPartitionedCall/sequential_1/bidirectional_2/forward_lstm_2/PartitionedCall/while/body/_69/while/add", "StatefulPartitionedCall/sequential_1/bidirectional_2/forward_lstm_2/PartitionedCall/while/Func/StatefulPartitionedCall/sequential_1/bidirectional_2/forward_lstm_2/PartitionedCall/input/_25_switch/_111:1"], "attr": {"data_format": {"s": "TkhXQw=="}, "T": {"type": "DT_FLOAT"}}}, {"name": "StatefulPartitionedCall/sequential_1/bidirectional_2/backward_lstm_2/PartitionedCall/zeros_like", "op": "ZerosLike", "input": ["StatefulPartitionedCall/sequential_1/bidirectional_2/backward_lstm_2/PartitionedCall/mul_2"], "attr": {"T": {"type": "DT_FLOAT"}}}, {"name": "StatefulPartitionedCall/sequential_1/bidirectional_2/backward_lstm_2/PartitionedCall/while/body/_144/while/BiasAdd", "op": "BiasAdd", "input": ["StatefulPartitionedCall/sequential_1/bidirectional_2/backward_lstm_2/PartitionedCall/while/body/_144/while/add", "StatefulPartitionedCall/sequential_1/bidirectional_2/backward_lstm_2/PartitionedCall/while/Func/StatefulPartitionedCall/sequential_1/bidirectional_2/backward_lstm_2/PartitionedCall/input/_37_switch/_186:1"], "attr": {"T": {"type": "DT_FLOAT"}, "data_format": {"s": "TkhXQw=="}}}, {"name": "StatefulPartitionedCall/sequential_1/bidirectional_3/forward_lstm_3/Shape", "op": "Shape", "input": ["StatefulPartitionedCall/sequential_1/bidirectional_2/concat"], "attr": {"out_type": {"type": "DT_INT32"}, "T": {"type": "DT_FLOAT"}}}, {"name": "StatefulPartitionedCall/sequential_1/bidirectional_3/forward_lstm_3/PartitionedCall/transpose", "op": "Transpose", "input": ["StatefulPartitionedCall/sequential_1/bidirectional_2/concat", "StatefulPartitionedCall/sequential_1/bidirectional_3/forward_lstm_3/PartitionedCall/transpose/perm"], "attr": {"Tperm": {"type": "DT_INT32"}, "T": {"type": "DT_FLOAT"}}}, {"name": "StatefulPartitionedCall/sequential_1/bidirectional_3/backward_lstm_3/Shape", "op": "Shape", "input": ["StatefulPartitionedCall/sequential_1/bidirectional_2/concat"], "attr": {"out_type": {"type": "DT_INT32"}, "T": {"type": "DT_FLOAT"}}}, {"name": "StatefulPartitionedCall/sequential_1/bidirectional_3/backward_lstm_3/PartitionedCall/transpose", "op": "Transpose", "input": ["StatefulPartitionedCall/sequential_1/bidirectional_2/concat", "StatefulPartitionedCall/sequential_1/bidirectional_3/backward_lstm_3/PartitionedCall/transpose/perm"], "attr": {"Tperm": {"type": "DT_INT32"}, "T": {"type": "DT_FLOAT"}}}, {"name": "StatefulPartitionedCall/sequential_1/bidirectional_2/forward_lstm_2/PartitionedCall/while/enter/_83", "op": "Enter", "input": ["StatefulPartitionedCall/sequential_1/bidirectional_2/forward_lstm_2/PartitionedCall/zeros_like"], "attr": {"frame_name": {"s": "U3RhdGVmdWxQYXJ0aXRpb25lZENhbGwvc2VxdWVudGlhbF8xL2JpZGlyZWN0aW9uYWxfMi9mb3J3YXJkX2xzdG1fMi9QYXJ0aXRpb25lZENhbGwvd2hpbGU="}, "parallel_iterations": {"i": "32"}, "is_constant": {"b": false}, "T": {"type": "DT_FLOAT"}}}, {"name": "StatefulPartitionedCall/sequential_1/bidirectional_2/forward_lstm_2/PartitionedCall/while/body/_69/while/split", "op": "Split", "input": ["StatefulPartitionedCall/sequential_1/bidirectional_2/forward_lstm_2/PartitionedCall/while/body/_69/while/split/split_dim", "StatefulPartitionedCall/sequential_1/bidirectional_2/forward_lstm_2/PartitionedCall/while/body/_69/while/BiasAdd"], "attr": {"T": {"type": "DT_FLOAT"}, "num_split": {"i": "4"}}}, {"name": "StatefulPartitionedCall/sequential_1/bidirectional_2/backward_lstm_2/PartitionedCall/while/enter/_158", "op": "Enter", "input": ["StatefulPartitionedCall/sequential_1/bidirectional_2/backward_lstm_2/PartitionedCall/zeros_like"], "attr": {"T": {"type": "DT_FLOAT"}, "parallel_iterations": {"i": "32"}, "frame_name": {"s": "U3RhdGVmdWxQYXJ0aXRpb25lZENhbGwvc2VxdWVudGlhbF8xL2JpZGlyZWN0aW9uYWxfMi9iYWNrd2FyZF9sc3RtXzIvUGFydGl0aW9uZWRDYWxsL3doaWxl"}, "is_constant": {"b": false}}}, {"name": "StatefulPartitionedCall/sequential_1/bidirectional_2/backward_lstm_2/PartitionedCall/while/body/_144/while/split", "op": "Split", "input": ["StatefulPartitionedCall/sequential_1/bidirectional_2/backward_lstm_2/PartitionedCall/while/body/_144/while/split/split_dim", "StatefulPartitionedCall/sequential_1/bidirectional_2/backward_lstm_2/PartitionedCall/while/body/_144/while/BiasAdd"], "attr": {"T": {"type": "DT_FLOAT"}, "num_split": {"i": "4"}}}, {"name": "StatefulPartitionedCall/sequential_1/bidirectional_3/forward_lstm_3/strided_slice", "op": "StridedSlice", "input": ["StatefulPartitionedCall/sequential_1/bidirectional_3/forward_lstm_3/Shape", "StatefulPartitionedCall/sequential_1/bidirectional_3/forward_lstm_3/strided_slice/stack", "StatefulPartitionedCall/sequential_1/bidirectional_3/forward_lstm_3/strided_slice/stack_1", "StatefulPartitionedCall/sequential_1/bidirectional_3/forward_lstm_3/strided_slice/stack_2"], "attr": {"T": {"type": "DT_INT32"}, "Index": {"type": "DT_INT32"}, "new_axis_mask": {"i": "0"}, "shrink_axis_mask": {"i": "1"}, "ellipsis_mask": {"i": "0"}, "begin_mask": {"i": "0"}, "end_mask": {"i": "0"}}}, {"name": "StatefulPartitionedCall/sequential_1/bidirectional_3/forward_lstm_3/PartitionedCall/TensorArrayUnstack/TensorListFromTensor", "op": "TensorListFromTensor", "input": ["StatefulPartitionedCall/sequential_1/bidirectional_3/forward_lstm_3/PartitionedCall/transpose", "StatefulPartitionedCall/sequential_1/bidirectional_3/forward_lstm_3/PartitionedCall/TensorArrayUnstack/TensorListFromTensor/element_shape"], "attr": {"element_dtype": {"type": "DT_FLOAT"}, "shape_type": {"type": "DT_INT32"}}}, {"name": "StatefulPartitionedCall/sequential_1/bidirectional_3/forward_lstm_3/PartitionedCall/strided_slice_1", "op": "StridedSlice", "input": ["StatefulPartitionedCall/sequential_1/bidirectional_3/forward_lstm_3/PartitionedCall/transpose", "StatefulPartitionedCall/sequential_1/bidirectional_3/forward_lstm_3/PartitionedCall/strided_slice_1/stack", "StatefulPartitionedCall/sequential_1/bidirectional_3/forward_lstm_3/PartitionedCall/strided_slice_1/stack_1", "StatefulPartitionedCall/sequential_1/bidirectional_3/forward_lstm_3/PartitionedCall/strided_slice_1/stack_2"], "attr": {"T": {"type": "DT_FLOAT"}, "Index": {"type": "DT_INT32"}, "new_axis_mask": {"i": "0"}, "ellipsis_mask": {"i": "0"}, "begin_mask": {"i": "0"}, "shrink_axis_mask": {"i": "1"}, "end_mask": {"i": "0"}}}, {"name": "StatefulPartitionedCall/sequential_1/bidirectional_3/forward_lstm_3/PartitionedCall/Shape", "op": "Shape", "input": ["StatefulPartitionedCall/sequential_1/bidirectional_3/forward_lstm_3/PartitionedCall/transpose"], "attr": {"out_type": {"type": "DT_INT32"}, "T": {"type": "DT_FLOAT"}}}, {"name": "StatefulPartitionedCall/sequential_1/bidirectional_3/backward_lstm_3/strided_slice", "op": "StridedSlice", "input": ["StatefulPartitionedCall/sequential_1/bidirectional_3/backward_lstm_3/Shape", "StatefulPartitionedCall/sequential_1/bidirectional_3/backward_lstm_3/strided_slice/stack", "StatefulPartitionedCall/sequential_1/bidirectional_3/backward_lstm_3/strided_slice/stack_1", "StatefulPartitionedCall/sequential_1/bidirectional_3/backward_lstm_3/strided_slice/stack_2"], "attr": {"new_axis_mask": {"i": "0"}, "begin_mask": {"i": "0"}, "Index": {"type": "DT_INT32"}, "shrink_axis_mask": {"i": "1"}, "T": {"type": "DT_INT32"}, "end_mask": {"i": "0"}, "ellipsis_mask": {"i": "0"}}}, {"name": "StatefulPartitionedCall/sequential_1/bidirectional_3/backward_lstm_3/PartitionedCall/ReverseV2", "op": "ReverseV2", "input": ["StatefulPartitionedCall/sequential_1/bidirectional_3/backward_lstm_3/PartitionedCall/transpose", "StatefulPartitionedCall/sequential_1/bidirectional_3/backward_lstm_3/PartitionedCall/ReverseV2/axis"], "attr": {"Tidx": {"type": "DT_INT32"}, "T": {"type": "DT_FLOAT"}}}, {"name": "StatefulPartitionedCall/sequential_1/bidirectional_3/backward_lstm_3/PartitionedCall/strided_slice_1", "op": "StridedSlice", "input": ["StatefulPartitionedCall/sequential_1/bidirectional_3/backward_lstm_3/PartitionedCall/transpose", "StatefulPartitionedCall/sequential_1/bidirectional_3/backward_lstm_3/PartitionedCall/strided_slice_1/stack", "StatefulPartitionedCall/sequential_1/bidirectional_3/backward_lstm_3/PartitionedCall/strided_slice_1/stack_1", "StatefulPartitionedCall/sequential_1/bidirectional_3/backward_lstm_3/PartitionedCall/strided_slice_1/stack_2"], "attr": {"T": {"type": "DT_FLOAT"}, "begin_mask": {"i": "0"}, "shrink_axis_mask": {"i": "1"}, "new_axis_mask": {"i": "0"}, "end_mask": {"i": "0"}, "Index": {"type": "DT_INT32"}, "ellipsis_mask": {"i": "0"}}}, {"name": "StatefulPartitionedCall/sequential_1/bidirectional_3/backward_lstm_3/PartitionedCall/Shape", "op": "Shape", "input": ["StatefulPartitionedCall/sequential_1/bidirectional_3/backward_lstm_3/PartitionedCall/transpose"], "attr": {"out_type": {"type": "DT_INT32"}, "T": {"type": "DT_FLOAT"}}}, {"name": "StatefulPartitionedCall/sequential_1/bidirectional_2/forward_lstm_2/PartitionedCall/while/merge/_97", "op": "Merge", "input": ["StatefulPartitionedCall/sequential_1/bidirectional_2/forward_lstm_2/PartitionedCall/while/enter/_83", "StatefulPartitionedCall/sequential_1/bidirectional_2/forward_lstm_2/PartitionedCall/while/next_iteration/_142"], "attr": {"N": {"i": "2"}, "T": {"type": "DT_FLOAT"}}}, {"name": "StatefulPartitionedCall/sequential_1/bidirectional_2/forward_lstm_2/PartitionedCall/while/body/_69/while/Sigmoid", "op": "Sigmoid", "input": ["StatefulPartitionedCall/sequential_1/bidirectional_2/forward_lstm_2/PartitionedCall/while/body/_69/while/split"], "attr": {"T": {"type": "DT_FLOAT"}}}, {"name": "StatefulPartitionedCall/sequential_1/bidirectional_2/forward_lstm_2/PartitionedCall/while/body/_69/while/Sigmoid_1", "op": "Sigmoid", "input": ["StatefulPartitionedCall/sequential_1/bidirectional_2/forward_lstm_2/PartitionedCall/while/body/_69/while/split:1"], "attr": {"T": {"type": "DT_FLOAT"}}}, {"name": "StatefulPartitionedCall/sequential_1/bidirectional_2/forward_lstm_2/PartitionedCall/while/body/_69/while/Tanh", "op": "Tanh", "input": ["StatefulPartitionedCall/sequential_1/bidirectional_2/forward_lstm_2/PartitionedCall/while/body/_69/while/split:2"], "attr": {"T": {"type": "DT_FLOAT"}}}, {"name": "StatefulPartitionedCall/sequential_1/bidirectional_2/forward_lstm_2/PartitionedCall/while/body/_69/while/Sigmoid_2", "op": "Sigmoid", "input": ["StatefulPartitionedCall/sequential_1/bidirectional_2/forward_lstm_2/PartitionedCall/while/body/_69/while/split:3"], "attr": {"T": {"type": "DT_FLOAT"}}}, {"name": "StatefulPartitionedCall/sequential_1/bidirectional_2/backward_lstm_2/PartitionedCall/while/merge/_172", "op": "Merge", "input": ["StatefulPartitionedCall/sequential_1/bidirectional_2/backward_lstm_2/PartitionedCall/while/enter/_158", "StatefulPartitionedCall/sequential_1/bidirectional_2/backward_lstm_2/PartitionedCall/while/next_iteration/_217"], "attr": {"N": {"i": "2"}, "T": {"type": "DT_FLOAT"}}}, {"name": "StatefulPartitionedCall/sequential_1/bidirectional_2/backward_lstm_2/PartitionedCall/while/body/_144/while/Sigmoid", "op": "Sigmoid", "input": ["StatefulPartitionedCall/sequential_1/bidirectional_2/backward_lstm_2/PartitionedCall/while/body/_144/while/split"], "attr": {"T": {"type": "DT_FLOAT"}}}, {"name": "StatefulPartitionedCall/sequential_1/bidirectional_2/backward_lstm_2/PartitionedCall/while/body/_144/while/Sigmoid_1", "op": "Sigmoid", "input": ["StatefulPartitionedCall/sequential_1/bidirectional_2/backward_lstm_2/PartitionedCall/while/body/_144/while/split:1"], "attr": {"T": {"type": "DT_FLOAT"}}}, {"name": "StatefulPartitionedCall/sequential_1/bidirectional_2/backward_lstm_2/PartitionedCall/while/body/_144/while/Tanh", "op": "Tanh", "input": ["StatefulPartitionedCall/sequential_1/bidirectional_2/backward_lstm_2/PartitionedCall/while/body/_144/while/split:2"], "attr": {"T": {"type": "DT_FLOAT"}}}, {"name": "StatefulPartitionedCall/sequential_1/bidirectional_2/backward_lstm_2/PartitionedCall/while/body/_144/while/Sigmoid_2", "op": "Sigmoid", "input": ["StatefulPartitionedCall/sequential_1/bidirectional_2/backward_lstm_2/PartitionedCall/while/body/_144/while/split:3"], "attr": {"T": {"type": "DT_FLOAT"}}}, {"name": "StatefulPartitionedCall/sequential_1/bidirectional_3/forward_lstm_3/zeros_1/packed", "op": "Pack", "input": ["StatefulPartitionedCall/sequential_1/bidirectional_3/forward_lstm_3/strided_slice", "StatefulPartitionedCall/sequential_1/bidirectional_3/forward_lstm_3/zeros_1/packed/1"], "attr": {"N": {"i": "2"}, "axis": {"i": "0"}, "T": {"type": "DT_INT32"}}}, {"name": "StatefulPartitionedCall/sequential_1/bidirectional_3/forward_lstm_3/zeros/packed", "op": "Pack", "input": ["StatefulPartitionedCall/sequential_1/bidirectional_3/forward_lstm_3/strided_slice", "StatefulPartitionedCall/sequential_1/bidirectional_3/forward_lstm_3/zeros/packed/1"], "attr": {"T": {"type": "DT_INT32"}, "axis": {"i": "0"}, "N": {"i": "2"}}}, {"name": "StatefulPartitionedCall/sequential_1/bidirectional_3/forward_lstm_3/PartitionedCall/while/enter/_228", "op": "Enter", "input": ["StatefulPartitionedCall/sequential_1/bidirectional_3/forward_lstm_3/PartitionedCall/TensorArrayUnstack/TensorListFromTensor"], "attr": {"is_constant": {"b": false}, "parallel_iterations": {"i": "32"}, "frame_name": {"s": "U3RhdGVmdWxQYXJ0aXRpb25lZENhbGwvc2VxdWVudGlhbF8xL2JpZGlyZWN0aW9uYWxfMy9mb3J3YXJkX2xzdG1fMy9QYXJ0aXRpb25lZENhbGwvd2hpbGU="}, "T": {"type": "DT_VARIANT"}}}, {"name": "StatefulPartitionedCall/sequential_1/bidirectional_3/forward_lstm_3/PartitionedCall/MatMul", "op": "MatMul", "input": ["StatefulPartitionedCall/sequential_1/bidirectional_3/forward_lstm_3/PartitionedCall/strided_slice_1", "StatefulPartitionedCall/sequential_1/bidirectional_3/forward_lstm_3/Read/ReadVariableOp"], "device": "/device:CPU:0", "attr": {"transpose_a": {"b": false}, "T": {"type": "DT_FLOAT"}, "transpose_b": {"b": false}}}, {"name": "StatefulPartitionedCall/sequential_1/bidirectional_3/forward_lstm_3/PartitionedCall/strided_slice", "op": "StridedSlice", "input": ["StatefulPartitionedCall/sequential_1/bidirectional_3/forward_lstm_3/PartitionedCall/Shape", "StatefulPartitionedCall/sequential_1/bidirectional_3/forward_lstm_3/PartitionedCall/strided_slice/stack", "StatefulPartitionedCall/sequential_1/bidirectional_3/forward_lstm_3/PartitionedCall/strided_slice/stack_1", "StatefulPartitionedCall/sequential_1/bidirectional_3/forward_lstm_3/PartitionedCall/strided_slice/stack_2"], "attr": {"T": {"type": "DT_INT32"}, "Index": {"type": "DT_INT32"}, "shrink_axis_mask": {"i": "1"}, "new_axis_mask": {"i": "0"}, "end_mask": {"i": "0"}, "begin_mask": {"i": "0"}, "ellipsis_mask": {"i": "0"}}}, {"name": "StatefulPartitionedCall/sequential_1/bidirectional_3/backward_lstm_3/zeros_1/packed", "op": "Pack", "input": ["StatefulPartitionedCall/sequential_1/bidirectional_3/backward_lstm_3/strided_slice", "StatefulPartitionedCall/sequential_1/bidirectional_3/backward_lstm_3/zeros_1/packed/1"], "attr": {"axis": {"i": "0"}, "T": {"type": "DT_INT32"}, "N": {"i": "2"}}}, {"name": "StatefulPartitionedCall/sequential_1/bidirectional_3/backward_lstm_3/zeros/packed", "op": "Pack", "input": ["StatefulPartitionedCall/sequential_1/bidirectional_3/backward_lstm_3/strided_slice", "StatefulPartitionedCall/sequential_1/bidirectional_3/backward_lstm_3/zeros/packed/1"], "attr": {"N": {"i": "2"}, "T": {"type": "DT_INT32"}, "axis": {"i": "0"}}}, {"name": "StatefulPartitionedCall/sequential_1/bidirectional_3/backward_lstm_3/PartitionedCall/TensorArrayUnstack/TensorListFromTensor", "op": "TensorListFromTensor", "input": ["StatefulPartitionedCall/sequential_1/bidirectional_3/backward_lstm_3/PartitionedCall/ReverseV2", "StatefulPartitionedCall/sequential_1/bidirectional_3/backward_lstm_3/PartitionedCall/TensorArrayUnstack/TensorListFromTensor/element_shape"], "attr": {"shape_type": {"type": "DT_INT32"}, "element_dtype": {"type": "DT_FLOAT"}}}, {"name": "StatefulPartitionedCall/sequential_1/bidirectional_3/backward_lstm_3/PartitionedCall/MatMul", "op": "MatMul", "input": ["StatefulPartitionedCall/sequential_1/bidirectional_3/backward_lstm_3/PartitionedCall/strided_slice_1", "StatefulPartitionedCall/sequential_1/bidirectional_3/backward_lstm_3/Read/ReadVariableOp"], "device": "/device:CPU:0", "attr": {"transpose_a": {"b": false}, "transpose_b": {"b": false}, "T": {"type": "DT_FLOAT"}}}, {"name": "StatefulPartitionedCall/sequential_1/bidirectional_3/backward_lstm_3/PartitionedCall/strided_slice", "op": "StridedSlice", "input": ["StatefulPartitionedCall/sequential_1/bidirectional_3/backward_lstm_3/PartitionedCall/Shape", "StatefulPartitionedCall/sequential_1/bidirectional_3/backward_lstm_3/PartitionedCall/strided_slice/stack", "StatefulPartitionedCall/sequential_1/bidirectional_3/backward_lstm_3/PartitionedCall/strided_slice/stack_1", "StatefulPartitionedCall/sequential_1/bidirectional_3/backward_lstm_3/PartitionedCall/strided_slice/stack_2"], "attr": {"shrink_axis_mask": {"i": "1"}, "ellipsis_mask": {"i": "0"}, "Index": {"type": "DT_INT32"}, "begin_mask": {"i": "0"}, "end_mask": {"i": "0"}, "T": {"type": "DT_INT32"}, "new_axis_mask": {"i": "0"}}}, {"name": "StatefulPartitionedCall/sequential_1/bidirectional_2/forward_lstm_2/PartitionedCall/while/StatefulPartitionedCall/sequential_1/bidirectional_2/forward_lstm_2/PartitionedCall/zeros_like_switch/_112", "op": "Switch", "input": ["StatefulPartitionedCall/sequential_1/bidirectional_2/forward_lstm_2/PartitionedCall/while/merge/_97", "StatefulPartitionedCall/sequential_1/bidirectional_2/forward_lstm_2/PartitionedCall/while/LoopCond/_98"], "attr": {"T": {"type": "DT_FLOAT"}}}, {"name": "StatefulPartitionedCall/sequential_1/bidirectional_2/forward_lstm_2/PartitionedCall/while/body/_69/while/mul", "op": "Mul", "input": ["StatefulPartitionedCall/sequential_1/bidirectional_2/forward_lstm_2/PartitionedCall/while/body/_69/while/Sigmoid_1", "StatefulPartitionedCall/sequential_1/bidirectional_2/forward_lstm_2/PartitionedCall/while/Func/StatefulPartitionedCall/sequential_1/bidirectional_2/forward_lstm_2/PartitionedCall/input/_22_switch/_105:1"], "attr": {"T": {"type": "DT_FLOAT"}}}, {"name": "StatefulPartitionedCall/sequential_1/bidirectional_2/forward_lstm_2/PartitionedCall/while/body/_69/while/mul_1", "op": "Mul", "input": ["StatefulPartitionedCall/sequential_1/bidirectional_2/forward_lstm_2/PartitionedCall/while/body/_69/while/Sigmoid", "StatefulPartitionedCall/sequential_1/bidirectional_2/forward_lstm_2/PartitionedCall/while/body/_69/while/Tanh"], "attr": {"T": {"type": "DT_FLOAT"}}}, {"name": "StatefulPartitionedCall/sequential_1/bidirectional_2/backward_lstm_2/PartitionedCall/while/StatefulPartitionedCall/sequential_1/bidirectional_2/backward_lstm_2/PartitionedCall/zeros_like_switch/_187", "op": "Switch", "input": ["StatefulPartitionedCall/sequential_1/bidirectional_2/backward_lstm_2/PartitionedCall/while/merge/_172", "StatefulPartitionedCall/sequential_1/bidirectional_2/backward_lstm_2/PartitionedCall/while/LoopCond/_173"], "attr": {"T": {"type": "DT_FLOAT"}}}, {"name": "StatefulPartitionedCall/sequential_1/bidirectional_2/backward_lstm_2/PartitionedCall/while/body/_144/while/mul", "op": "Mul", "input": ["StatefulPartitionedCall/sequential_1/bidirectional_2/backward_lstm_2/PartitionedCall/while/body/_144/while/Sigmoid_1", "StatefulPartitionedCall/sequential_1/bidirectional_2/backward_lstm_2/PartitionedCall/while/Func/StatefulPartitionedCall/sequential_1/bidirectional_2/backward_lstm_2/PartitionedCall/input/_34_switch/_180:1"], "attr": {"T": {"type": "DT_FLOAT"}}}, {"name": "StatefulPartitionedCall/sequential_1/bidirectional_2/backward_lstm_2/PartitionedCall/while/body/_144/while/mul_1", "op": "Mul", "input": ["StatefulPartitionedCall/sequential_1/bidirectional_2/backward_lstm_2/PartitionedCall/while/body/_144/while/Sigmoid", "StatefulPartitionedCall/sequential_1/bidirectional_2/backward_lstm_2/PartitionedCall/while/body/_144/while/Tanh"], "attr": {"T": {"type": "DT_FLOAT"}}}, {"name": "StatefulPartitionedCall/sequential_1/bidirectional_3/forward_lstm_3/zeros_1", "op": "Fill", "input": ["StatefulPartitionedCall/sequential_1/bidirectional_3/forward_lstm_3/zeros_1/packed", "StatefulPartitionedCall/sequential_1/bidirectional_3/forward_lstm_3/zeros_1/Const"], "attr": {"index_type": {"type": "DT_INT32"}, "T": {"type": "DT_FLOAT"}}}, {"name": "StatefulPartitionedCall/sequential_1/bidirectional_3/forward_lstm_3/zeros", "op": "Fill", "input": ["StatefulPartitionedCall/sequential_1/bidirectional_3/forward_lstm_3/zeros/packed", "StatefulPartitionedCall/sequential_1/bidirectional_3/forward_lstm_3/zeros/Const"], "attr": {"T": {"type": "DT_FLOAT"}, "index_type": {"type": "DT_INT32"}}}, {"name": "StatefulPartitionedCall/sequential_1/bidirectional_3/forward_lstm_3/PartitionedCall/while/merge/_241", "op": "Merge", "input": ["StatefulPartitionedCall/sequential_1/bidirectional_3/forward_lstm_3/PartitionedCall/while/enter/_228", "StatefulPartitionedCall/sequential_1/bidirectional_3/forward_lstm_3/PartitionedCall/while/next_iteration/_283"], "attr": {"T": {"type": "DT_VARIANT"}, "N": {"i": "2"}}}, {"name": "StatefulPartitionedCall/sequential_1/bidirectional_3/forward_lstm_3/PartitionedCall/TensorArrayV…
ulPartitionedCall/sequential_1/bidirectional_3/backward_lstm_3/PartitionedCall/strided_slice_2/stack", "StatefulPartitionedCall/sequential_1/bidirectional_3/backward_lstm_3/PartitionedCall/strided_slice_2/stack_1", "StatefulPartitionedCall/sequential_1/bidirectional_3/backward_lstm_3/PartitionedCall/strided_slice_2/stack_2"], "attr": {"Index": {"type": "DT_INT32"}, "new_axis_mask": {"i": "0"}, "end_mask": {"i": "0"}, "shrink_axis_mask": {"i": "1"}, "begin_mask": {"i": "0"}, "T": {"type": "DT_FLOAT"}, "ellipsis_mask": {"i": "0"}}}, {"name": "StatefulPartitionedCall/sequential_1/bidirectional_3/forward_lstm_3/PartitionedCall/Tanh_1", "op": "Tanh", "input": ["StatefulPartitionedCall/sequential_1/bidirectional_3/forward_lstm_3/PartitionedCall/add_1"], "attr": {"T": {"type": "DT_FLOAT"}}}, {"name": "StatefulPartitionedCall/sequential_1/bidirectional_3/forward_lstm_3/PartitionedCall/while/body/_219/while/MatMul", "op": "MatMul", "input": ["StatefulPartitionedCall/sequential_1/bidirectional_3/forward_lstm_3/PartitionedCall/while/body/_219/while/TensorArrayV2Read/TensorListGetItem", "StatefulPartitionedCall/sequential_1/bidirectional_3/forward_lstm_3/PartitionedCall/while/Func/StatefulPartitionedCall/sequential_1/bidirectional_3/forward_lstm_3/PartitionedCall/input/_47_switch/_257:1"], "device": "/device:CPU:0", "attr": {"transpose_a": {"b": false}, "T": {"type": "DT_FLOAT"}, "transpose_b": {"b": false}}}, {"name": "StatefulPartitionedCall/sequential_1/bidirectional_3/forward_lstm_3/PartitionedCall/while/next_iteration/_277", "op": "NextIteration", "input": ["StatefulPartitionedCall/sequential_1/bidirectional_3/forward_lstm_3/PartitionedCall/while/body/_219/while/add_2", "^StatefulPartitionedCall/sequential_1/bidirectional_3/forward_lstm_3/PartitionedCall/while/loop_body_control/_260"], "attr": {"T": {"type": "DT_INT32"}}}, {"name": "StatefulPartitionedCall/sequential_1/bidirectional_3/forward_lstm_3/PartitionedCall/while/next_iteration/_275", "op": "NextIteration", "input": ["StatefulPartitionedCall/sequential_1/bidirectional_3/forward_lstm_3/PartitionedCall/while/body/_219/while/add_3", "^StatefulPartitionedCall/sequential_1/bidirectional_3/forward_lstm_3/PartitionedCall/while/loop_body_control/_260"], "attr": {"T": {"type": "DT_INT32"}}}, {"name": "StatefulPartitionedCall/sequential_1/bidirectional_3/backward_lstm_3/PartitionedCall/Tanh_1", "op": "Tanh", "input": ["StatefulPartitionedCall/sequential_1/bidirectional_3/backward_lstm_3/PartitionedCall/add_1"], "attr": {"T": {"type": "DT_FLOAT"}}}, {"name": "StatefulPartitionedCall/sequential_1/bidirectional_3/backward_lstm_3/PartitionedCall/while/body/_289/while/MatMul", "op": "MatMul", "input": ["StatefulPartitionedCall/sequential_1/bidirectional_3/backward_lstm_3/PartitionedCall/while/body/_289/while/TensorArrayV2Read/TensorListGetItem", "StatefulPartitionedCall/sequential_1/bidirectional_3/backward_lstm_3/PartitionedCall/while/Func/StatefulPartitionedCall/sequential_1/bidirectional_3/backward_lstm_3/PartitionedCall/input/_59_switch/_327:1"], "device": "/device:CPU:0", "attr": {"T": {"type": "DT_FLOAT"}, "transpose_b": {"b": false}, "transpose_a": {"b": false}}}, {"name": "StatefulPartitionedCall/sequential_1/bidirectional_3/backward_lstm_3/PartitionedCall/while/next_iteration/_347", "op": "NextIteration", "input": ["StatefulPartitionedCall/sequential_1/bidirectional_3/backward_lstm_3/PartitionedCall/while/body/_289/while/add_2", "^StatefulPartitionedCall/sequential_1/bidirectional_3/backward_lstm_3/PartitionedCall/while/loop_body_control/_330"], "attr": {"T": {"type": "DT_INT32"}}}, {"name": "StatefulPartitionedCall/sequential_1/bidirectional_3/backward_lstm_3/PartitionedCall/while/next_iteration/_345", "op": "NextIteration", "input": ["StatefulPartitionedCall/sequential_1/bidirectional_3/backward_lstm_3/PartitionedCall/while/body/_289/while/add_3", "^StatefulPartitionedCall/sequential_1/bidirectional_3/backward_lstm_3/PartitionedCall/while/loop_body_control/_330"], "attr": {"T": {"type": "DT_INT32"}}}, {"name": "StatefulPartitionedCall/sequential_1/bidirectional_3/concat", "op": "ConcatV2", "input": ["StatefulPartitionedCall/sequential_1/bidirectional_3/forward_lstm_3/PartitionedCall/strided_slice_2", "StatefulPartitionedCall/sequential_1/bidirectional_3/backward_lstm_3/PartitionedCall/strided_slice_2", "StatefulPartitionedCall/sequential_1/bidirectional_3/concat/axis"], "attr": {"N": {"i": "2"}, "T": {"type": "DT_FLOAT"}, "Tidx": {"type": "DT_INT32"}}}, {"name": "StatefulPartitionedCall/sequential_1/bidirectional_3/forward_lstm_3/PartitionedCall/mul_2", "op": "Mul", "input": ["StatefulPartitionedCall/sequential_1/bidirectional_3/forward_lstm_3/PartitionedCall/Sigmoid_2", "StatefulPartitionedCall/sequential_1/bidirectional_3/forward_lstm_3/PartitionedCall/Tanh_1"], "attr": {"T": {"type": "DT_FLOAT"}}}, {"name": "StatefulPartitionedCall/sequential_1/bidirectional_3/forward_lstm_3/PartitionedCall/while/body/_219/while/add", "op": "AddV2", "input": ["StatefulPartitionedCall/sequential_1/bidirectional_3/forward_lstm_3/PartitionedCall/while/body/_219/while/MatMul", "StatefulPartitionedCall/sequential_1/bidirectional_3/forward_lstm_3/PartitionedCall/while/body/_219/while/MatMul_1"], "attr": {"T": {"type": "DT_FLOAT"}}}, {"name": "StatefulPartitionedCall/sequential_1/bidirectional_3/backward_lstm_3/PartitionedCall/mul_2", "op": "Mul", "input": ["StatefulPartitionedCall/sequential_1/bidirectional_3/backward_lstm_3/PartitionedCall/Sigmoid_2", "StatefulPartitionedCall/sequential_1/bidirectional_3/backward_lstm_3/PartitionedCall/Tanh_1"], "attr": {"T": {"type": "DT_FLOAT"}}}, {"name": "StatefulPartitionedCall/sequential_1/bidirectional_3/backward_lstm_3/PartitionedCall/while/body/_289/while/add", "op": "AddV2", "input": ["StatefulPartitionedCall/sequential_1/bidirectional_3/backward_lstm_3/PartitionedCall/while/body/_289/while/MatMul", "StatefulPartitionedCall/sequential_1/bidirectional_3/backward_lstm_3/PartitionedCall/while/body/_289/while/MatMul_1"], "attr": {"T": {"type": "DT_FLOAT"}}}, {"name": "StatefulPartitionedCall/sequential_1/dense_2/Relu", "op": "_FusedMatMul", "input": ["StatefulPartitionedCall/sequential_1/bidirectional_3/concat", "StatefulPartitionedCall/sequential_1/dense_2/MatMul/ReadVariableOp", "StatefulPartitionedCall/sequential_1/dense_2/BiasAdd/ReadVariableOp"], "device": "/device:CPU:0", "attr": {"T": {"type": "DT_FLOAT"}, "num_args": {"i": "1"}, "transpose_b": {"b": false}, "epsilon": {"f": 0.0}, "fused_ops": {"list": {"s": ["Qmlhc0FkZA==", "UmVsdQ=="]}}, "transpose_a": {"b": false}}}, {"name": "StatefulPartitionedCall/sequential_1/bidirectional_3/forward_lstm_3/PartitionedCall/zeros_like", "op": "ZerosLike", "input": ["StatefulPartitionedCall/sequential_1/bidirectional_3/forward_lstm_3/PartitionedCall/mul_2"], "attr": {"T": {"type": "DT_FLOAT"}}}, {"name": "StatefulPartitionedCall/sequential_1/bidirectional_3/forward_lstm_3/PartitionedCall/while/body/_219/while/BiasAdd", "op": "BiasAdd", "input": ["StatefulPartitionedCall/sequential_1/bidirectional_3/forward_lstm_3/PartitionedCall/while/body/_219/while/add", "StatefulPartitionedCall/sequential_1/bidirectional_3/forward_lstm_3/PartitionedCall/while/Func/StatefulPartitionedCall/sequential_1/bidirectional_3/forward_lstm_3/PartitionedCall/input/_49_switch/_259:1"], "attr": {"data_format": {"s": "TkhXQw=="}, "T": {"type": "DT_FLOAT"}}}, {"name": "StatefulPartitionedCall/sequential_1/bidirectional_3/backward_lstm_3/PartitionedCall/zeros_like", "op": "ZerosLike", "input": ["StatefulPartitionedCall/sequential_1/bidirectional_3/backward_lstm_3/PartitionedCall/mul_2"], "attr": {"T": {"type": "DT_FLOAT"}}}, {"name": "StatefulPartitionedCall/sequential_1/bidirectional_3/backward_lstm_3/PartitionedCall/while/body/_289/while/BiasAdd", "op": "BiasAdd", "input": ["StatefulPartitionedCall/sequential_1/bidirectional_3/backward_lstm_3/PartitionedCall/while/body/_289/while/add", "StatefulPartitionedCall/sequential_1/bidirectional_3/backward_lstm_3/PartitionedCall/while/Func/StatefulPartitionedCall/sequential_1/bidirectional_3/backward_lstm_3/PartitionedCall/input/_61_switch/_329:1"], "attr": {"T": {"type": "DT_FLOAT"}, "data_format": {"s": "TkhXQw=="}}}, {"name": "StatefulPartitionedCall/sequential_1/dense_3/BiasAdd", "op": "_FusedMatMul", "input": ["StatefulPartitionedCall/sequential_1/dense_2/Relu", "StatefulPartitionedCall/sequential_1/dense_3/MatMul/ReadVariableOp", "StatefulPartitionedCall/sequential_1/dense_3/BiasAdd/ReadVariableOp"], "device": "/device:CPU:0", "attr": {"transpose_b": {"b": false}, "epsilon": {"f": 0.0}, "transpose_a": {"b": false}, "T": {"type": "DT_FLOAT"}, "fused_ops": {"list": {"s": ["Qmlhc0FkZA=="]}}, "num_args": {"i": "1"}}}, {"name": "StatefulPartitionedCall/sequential_1/bidirectional_3/forward_lstm_3/PartitionedCall/while/enter/_224", "op": "Enter", "input": ["StatefulPartitionedCall/sequential_1/bidirectional_3/forward_lstm_3/PartitionedCall/zeros_like"], "attr": {"frame_name": {"s": "U3RhdGVmdWxQYXJ0aXRpb25lZENhbGwvc2VxdWVudGlhbF8xL2JpZGlyZWN0aW9uYWxfMy9mb3J3YXJkX2xzdG1fMy9QYXJ0aXRpb25lZENhbGwvd2hpbGU="}, "parallel_iterations": {"i": "32"}, "is_constant": {"b": false}, "T": {"type": "DT_FLOAT"}}}, {"name": "StatefulPartitionedCall/sequential_1/bidirectional_3/forward_lstm_3/PartitionedCall/while/body/_219/while/split", "op": "Split", "input": ["StatefulPartitionedCall/sequential_1/bidirectional_3/forward_lstm_3/PartitionedCall/while/body/_219/while/split/split_dim", "StatefulPartitionedCall/sequential_1/bidirectional_3/forward_lstm_3/PartitionedCall/while/body/_219/while/BiasAdd"], "attr": {"T": {"type": "DT_FLOAT"}, "num_split": {"i": "4"}}}, {"name": "StatefulPartitionedCall/sequential_1/bidirectional_3/backward_lstm_3/PartitionedCall/while/enter/_294", "op": "Enter", "input": ["StatefulPartitionedCall/sequential_1/bidirectional_3/backward_lstm_3/PartitionedCall/zeros_like"], "attr": {"frame_name": {"s": "U3RhdGVmdWxQYXJ0aXRpb25lZENhbGwvc2VxdWVudGlhbF8xL2JpZGlyZWN0aW9uYWxfMy9iYWNrd2FyZF9sc3RtXzMvUGFydGl0aW9uZWRDYWxsL3doaWxl"}, "T": {"type": "DT_FLOAT"}, "parallel_iterations": {"i": "32"}, "is_constant": {"b": false}}}, {"name": "StatefulPartitionedCall/sequential_1/bidirectional_3/backward_lstm_3/PartitionedCall/while/body/_289/while/split", "op": "Split", "input": ["StatefulPartitionedCall/sequential_1/bidirectional_3/backward_lstm_3/PartitionedCall/while/body/_289/while/split/split_dim", "StatefulPartitionedCall/sequential_1/bidirectional_3/backward_lstm_3/PartitionedCall/while/body/_289/while/BiasAdd"], "attr": {"num_split": {"i": "4"}, "T": {"type": "DT_FLOAT"}}}, {"name": "Identity", "op": "Identity", "input": ["StatefulPartitionedCall/sequential_1/dense_3/BiasAdd", "^StatefulPartitionedCall/sequential_1/embedding_1/embedding_lookup"], "attr": {"T": {"type": "DT_FLOAT"}}}, {"name": "StatefulPartitionedCall/sequential_1/bidirectional_3/forward_lstm_3/PartitionedCall/while/merge/_237", "op": "Merge", "input": ["StatefulPartitionedCall/sequential_1/bidirectional_3/forward_lstm_3/PartitionedCall/while/enter/_224", "StatefulPartitionedCall/sequential_1/bidirectional_3/forward_lstm_3/PartitionedCall/while/next_iteration/_279"], "attr": {"T": {"type": "DT_FLOAT"}, "N": {"i": "2"}}}, {"name": "StatefulPartitionedCall/sequential_1/bidirectional_3/forward_lstm_3/PartitionedCall/while/body/_219/while/Sigmoid", "op": "Sigmoid", "input": ["StatefulPartitionedCall/sequential_1/bidirectional_3/forward_lstm_3/PartitionedCall/while/body/_219/while/split"], "attr": {"T": {"type": "DT_FLOAT"}}}, {"name": "StatefulPartitionedCall/sequential_1/bidirectional_3/forward_lstm_3/PartitionedCall/while/body/_219/while/Sigmoid_1", "op": "Sigmoid", "input": ["StatefulPartitionedCall/sequential_1/bidirectional_3/forward_lstm_3/PartitionedCall/while/body/_219/while/split:1"], "attr": {"T": {"type": "DT_FLOAT"}}}, {"name": "StatefulPartitionedCall/sequential_1/bidirectional_3/forward_lstm_3/PartitionedCall/while/body/_219/while/Tanh", "op": "Tanh", "input": ["StatefulPartitionedCall/sequential_1/bidirectional_3/forward_lstm_3/PartitionedCall/while/body/_219/while/split:2"], "attr": {"T": {"type": "DT_FLOAT"}}}, {"name": "StatefulPartitionedCall/sequential_1/bidirectional_3/forward_lstm_3/PartitionedCall/while/body/_219/while/Sigmoid_2", "op": "Sigmoid", "input": ["StatefulPartitionedCall/sequential_1/bidirectional_3/forward_lstm_3/PartitionedCall/while/body/_219/while/split:3"], "attr": {"T": {"type": "DT_FLOAT"}}}, {"name": "StatefulPartitionedCall/sequential_1/bidirectional_3/backward_lstm_3/PartitionedCall/while/merge/_307", "op": "Merge", "input": ["StatefulPartitionedCall/sequential_1/bidirectional_3/backward_lstm_3/PartitionedCall/while/enter/_294", "StatefulPartitionedCall/sequential_1/bidirectional_3/backward_lstm_3/PartitionedCall/while/next_iteration/_349"], "attr": {"N": {"i": "2"}, "T": {"type": "DT_FLOAT"}}}, {"name": "StatefulPartitionedCall/sequential_1/bidirectional_3/backward_lstm_3/PartitionedCall/while/body/_289/while/Sigmoid", "op": "Sigmoid", "input": ["StatefulPartitionedCall/sequential_1/bidirectional_3/backward_lstm_3/PartitionedCall/while/body/_289/while/split"], "attr": {"T": {"type": "DT_FLOAT"}}}, {"name": "StatefulPartitionedCall/sequential_1/bidirectional_3/backward_lstm_3/PartitionedCall/while/body/_289/while/Sigmoid_1", "op": "Sigmoid", "input": ["StatefulPartitionedCall/sequential_1/bidirectional_3/backward_lstm_3/PartitionedCall/while/body/_289/while/split:1"], "attr": {"T": {"type": "DT_FLOAT"}}}, {"name": "StatefulPartitionedCall/sequential_1/bidirectional_3/backward_lstm_3/PartitionedCall/while/body/_289/while/Tanh", "op": "Tanh", "input": ["StatefulPartitionedCall/sequential_1/bidirectional_3/backward_lstm_3/PartitionedCall/while/body/_289/while/split:2"], "attr": {"T": {"type": "DT_FLOAT"}}}, {"name": "StatefulPartitionedCall/sequential_1/bidirectional_3/backward_lstm_3/PartitionedCall/while/body/_289/while/Sigmoid_2", "op": "Sigmoid", "input": ["StatefulPartitionedCall/sequential_1/bidirectional_3/backward_lstm_3/PartitionedCall/while/body/_289/while/split:3"], "attr": {"T": {"type": "DT_FLOAT"}}}, {"name": "StatefulPartitionedCall/sequential_1/bidirectional_3/forward_lstm_3/PartitionedCall/while/StatefulPartitionedCall/sequential_1/bidirectional_3/forward_lstm_3/PartitionedCall/zeros_like_switch/_251", "op": "Switch", "input": ["StatefulPartitionedCall/sequential_1/bidirectional_3/forward_lstm_3/PartitionedCall/while/merge/_237", "StatefulPartitionedCall/sequential_1/bidirectional_3/forward_lstm_3/PartitionedCall/while/LoopCond/_246"], "attr": {"T": {"type": "DT_FLOAT"}}}, {"name": "StatefulPartitionedCall/sequential_1/bidirectional_3/forward_lstm_3/PartitionedCall/while/body/_219/while/mul", "op": "Mul", "input": ["StatefulPartitionedCall/sequential_1/bidirectional_3/forward_lstm_3/PartitionedCall/while/body/_219/while/Sigmoid_1", "StatefulPartitionedCall/sequential_1/bidirectional_3/forward_lstm_3/PartitionedCall/while/Func/StatefulPartitionedCall/sequential_1/bidirectional_3/forward_lstm_3/PartitionedCall/input/_46_switch/_253:1"], "attr": {"T": {"type": "DT_FLOAT"}}}, {"name": "StatefulPartitionedCall/sequential_1/bidirectional_3/forward_lstm_3/PartitionedCall/while/body/_219/while/mul_1", "op": "Mul", "input": ["StatefulPartitionedCall/sequential_1/bidirectional_3/forward_lstm_3/PartitionedCall/while/body/_219/while/Sigmoid", "StatefulPartitionedCall/sequential_1/bidirectional_3/forward_lstm_3/PartitionedCall/while/body/_219/while/Tanh"], "attr": {"T": {"type": "DT_FLOAT"}}}, {"name": "StatefulPartitionedCall/sequential_1/bidirectional_3/backward_lstm_3/PartitionedCall/while/StatefulPartitionedCall/sequential_1/bidirectional_3/backward_lstm_3/PartitionedCall/zeros_like_switch/_321", "op": "Switch", "input": ["StatefulPartitionedCall/sequential_1/bidirectional_3/backward_lstm_3/PartitionedCall/while/merge/_307", "StatefulPartitionedCall/sequential_1/bidirectional_3/backward_lstm_3/PartitionedCall/while/LoopCond/_316"], "attr": {"T": {"type": "DT_FLOAT"}}}, {"name": "StatefulPartitionedCall/sequential_1/bidirectional_3/backward_lstm_3/PartitionedCall/while/body/_289/while/mul", "op": "Mul", "input": ["StatefulPartitionedCall/sequential_1/bidirectional_3/backward_lstm_3/PartitionedCall/while/body/_289/while/Sigmoid_1", "StatefulPartitionedCall/sequential_1/bidirectional_3/backward_lstm_3/PartitionedCall/while/Func/StatefulPartitionedCall/sequential_1/bidirectional_3/backward_lstm_3/PartitionedCall/input/_58_switch/_323:1"], "attr": {"T": {"type": "DT_FLOAT"}}}, {"name": "StatefulPartitionedCall/sequential_1/bidirectional_3/backward_lstm_3/PartitionedCall/while/body/_289/while/mul_1", "op": "Mul", "input": ["StatefulPartitionedCall/sequential_1/bidirectional_3/backward_lstm_3/PartitionedCall/while/body/_289/while/Sigmoid", "StatefulPartitionedCall/sequential_1/bidirectional_3/backward_lstm_3/PartitionedCall/while/body/_289/while/Tanh"], "attr": {"T": {"type": "DT_FLOAT"}}}, {"name": "StatefulPartitionedCall/sequential_1/bidirectional_3/forward_lstm_3/PartitionedCall/while/body/_219/while/add_1", "op": "AddV2", "input": ["StatefulPartitionedCall/sequential_1/bidirectional_3/forward_lstm_3/PartitionedCall/while/body/_219/while/mul", "StatefulPartitionedCall/sequential_1/bidirectional_3/forward_lstm_3/PartitionedCall/while/body/_219/while/mul_1"], "attr": {"T": {"type": "DT_FLOAT"}}}, {"name": "StatefulPartitionedCall/sequential_1/bidirectional_3/backward_lstm_3/PartitionedCall/while/body/_289/while/add_1", "op": "AddV2", "input": ["StatefulPartitionedCall/sequential_1/bidirectional_3/backward_lstm_3/PartitionedCall/while/body/_289/while/mul", "StatefulPartitionedCall/sequential_1/bidirectional_3/backward_lstm_3/PartitionedCall/while/body/_289/while/mul_1"], "attr": {"T": {"type": "DT_FLOAT"}}}, {"name": "StatefulPartitionedCall/sequential_1/bidirectional_3/forward_lstm_3/PartitionedCall/while/body/_219/while/Tanh_1", "op": "Tanh", "input": ["StatefulPartitionedCall/sequential_1/bidirectional_3/forward_lstm_3/PartitionedCall/while/body/_219/while/add_1"], "attr": {"T": {"type": "DT_FLOAT"}}}, {"name": "StatefulPartitionedCall/sequential_1/bidirectional_3/forward_lstm_3/PartitionedCall/while/body/_219/while/SelectV2_2", "op": "SelectV2", "input": ["StatefulPartitionedCall/sequential_1/bidirectional_3/forward_lstm_3/PartitionedCall/while/body/_219/while/TensorArrayV2Read_1/TensorListGetItem", "StatefulPartitionedCall/sequential_1/bidirectional_3/forward_lstm_3/PartitionedCall/while/body/_219/while/add_1", "StatefulPartitionedCall/sequential_1/bidirectional_3/forward_lstm_3/PartitionedCall/while/Func/StatefulPartitionedCall/sequential_1/bidirectional_3/forward_lstm_3/PartitionedCall/input/_46_switch/_253:1"], "attr": {"T": {"type": "DT_FLOAT"}}}, {"name": "StatefulPartitionedCall/sequential_1/bidirectional_3/backward_lstm_3/PartitionedCall/while/body/_289/while/Tanh_1", "op": "Tanh", "input": ["StatefulPartitionedCall/sequential_1/bidirectional_3/backward_lstm_3/PartitionedCall/while/body/_289/while/add_1"], "attr": {"T": {"type": "DT_FLOAT"}}}, {"name": "StatefulPartitionedCall/sequential_1/bidirectional_3/backward_lstm_3/PartitionedCall/while/body/_289/while/SelectV2_2", "op": "SelectV2", "input": ["StatefulPartitionedCall/sequential_1/bidirectional_3/backward_lstm_3/PartitionedCall/while/body/_289/while/TensorArrayV2Read_1/TensorListGetItem", "StatefulPartitionedCall/sequential_1/bidirectional_3/backward_lstm_3/PartitionedCall/while/body/_289/while/add_1", "StatefulPartitionedCall/sequential_1/bidirectional_3/backward_lstm_3/PartitionedCall/while/Func/StatefulPartitionedCall/sequential_1/bidirectional_3/backward_lstm_3/PartitionedCall/input/_58_switch/_323:1"], "attr": {"T": {"type": "DT_FLOAT"}}}, {"name": "StatefulPartitionedCall/sequential_1/bidirectional_3/forward_lstm_3/PartitionedCall/while/body/_219/while/mul_2", "op": "Mul", "input": ["StatefulPartitionedCall/sequential_1/bidirectional_3/forward_lstm_3/PartitionedCall/while/body/_219/while/Sigmoid_2", "StatefulPartitionedCall/sequential_1/bidirectional_3/forward_lstm_3/PartitionedCall/while/body/_219/while/Tanh_1"], "attr": {"T": {"type": "DT_FLOAT"}}}, {"name": "StatefulPartitionedCall/sequential_1/bidirectional_3/forward_lstm_3/PartitionedCall/while/next_iteration/_281", "op": "NextIteration", "input": ["StatefulPartitionedCall/sequential_1/bidirectional_3/forward_lstm_3/PartitionedCall/while/body/_219/while/SelectV2_2", "^StatefulPartitionedCall/sequential_1/bidirectional_3/forward_lstm_3/PartitionedCall/while/loop_body_control/_260"], "attr": {"T": {"type": "DT_FLOAT"}}}, {"name": "StatefulPartitionedCall/sequential_1/bidirectional_3/backward_lstm_3/PartitionedCall/while/body/_289/while/mul_2", "op": "Mul", "input": ["StatefulPartitionedCall/sequential_1/bidirectional_3/backward_lstm_3/PartitionedCall/while/body/_289/while/Sigmoid_2", "StatefulPartitionedCall/sequential_1/bidirectional_3/backward_lstm_3/PartitionedCall/while/body/_289/while/Tanh_1"], "attr": {"T": {"type": "DT_FLOAT"}}}, {"name": "StatefulPartitionedCall/sequential_1/bidirectional_3/backward_lstm_3/PartitionedCall/while/next_iteration/_351", "op": "NextIteration", "input": ["StatefulPartitionedCall/sequential_1/bidirectional_3/backward_lstm_3/PartitionedCall/while/body/_289/while/SelectV2_2", "^StatefulPartitionedCall/sequential_1/bidirectional_3/backward_lstm_3/PartitionedCall/while/loop_body_control/_330"], "attr": {"T": {"type": "DT_FLOAT"}}}, {"name": "StatefulPartitionedCall/sequential_1/bidirectional_3/forward_lstm_3/PartitionedCall/while/body/_219/while/SelectV2_1", "op": "SelectV2", "input": ["StatefulPartitionedCall/sequential_1/bidirectional_3/forward_lstm_3/PartitionedCall/while/body/_219/while/TensorArrayV2Read_1/TensorListGetItem", "StatefulPartitionedCall/sequential_1/bidirectional_3/forward_lstm_3/PartitionedCall/while/body/_219/while/mul_2", "StatefulPartitionedCall/sequential_1/bidirectional_3/forward_lstm_3/PartitionedCall/while/Func/StatefulPartitionedCall/sequential_1/bidirectional_3/forward_lstm_3/PartitionedCall/input/_45_switch/_252:1"], "attr": {"T": {"type": "DT_FLOAT"}}}, {"name": "StatefulPartitionedCall/sequential_1/bidirectional_3/forward_lstm_3/PartitionedCall/while/body/_219/while/SelectV2", "op": "SelectV2", "input": ["StatefulPartitionedCall/sequential_1/bidirectional_3/forward_lstm_3/PartitionedCall/while/body/_219/while/TensorArrayV2Read_1/TensorListGetItem", "StatefulPartitionedCall/sequential_1/bidirectional_3/forward_lstm_3/PartitionedCall/while/body/_219/while/mul_2", "StatefulPartitionedCall/sequential_1/bidirectional_3/forward_lstm_3/PartitionedCall/while/StatefulPartitionedCall/sequential_1/bidirectional_3/forward_lstm_3/PartitionedCall/zeros_like_switch/_251:1"], "attr": {"T": {"type": "DT_FLOAT"}}}, {"name": "StatefulPartitionedCall/sequential_1/bidirectional_3/backward_lstm_3/PartitionedCall/while/body/_289/while/SelectV2_1", "op": "SelectV2", "input": ["StatefulPartitionedCall/sequential_1/bidirectional_3/backward_lstm_3/PartitionedCall/while/body/_289/while/TensorArrayV2Read_1/TensorListGetItem", "StatefulPartitionedCall/sequential_1/bidirectional_3/backward_lstm_3/PartitionedCall/while/body/_289/while/mul_2", "StatefulPartitionedCall/sequential_1/bidirectional_3/backward_lstm_3/PartitionedCall/while/Func/StatefulPartitionedCall/sequential_1/bidirectional_3/backward_lstm_3/PartitionedCall/input/_57_switch/_322:1"], "attr": {"T": {"type": "DT_FLOAT"}}}, {"name": "StatefulPartitionedCall/sequential_1/bidirectional_3/backward_lstm_3/PartitionedCall/while/body/_289/while/SelectV2", "op": "SelectV2", "input": ["StatefulPartitionedCall/sequential_1/bidirectional_3/backward_lstm_3/PartitionedCall/while/body/_289/while/TensorArrayV2Read_1/TensorListGetItem", "StatefulPartitionedCall/sequential_1/bidirectional_3/backward_lstm_3/PartitionedCall/while/body/_289/while/mul_2", "StatefulPartitionedCall/sequential_1/bidirectional_3/backward_lstm_3/PartitionedCall/while/StatefulPartitionedCall/sequential_1/bidirectional_3/backward_lstm_3/PartitionedCall/zeros_like_switch/_321:1"], "attr": {"T": {"type": "DT_FLOAT"}}}, {"name": "StatefulPartitionedCall/sequential_1/bidirectional_3/forward_lstm_3/PartitionedCall/while/next_iteration/_280", "op": "NextIteration", "input": ["StatefulPartitionedCall/sequential_1/bidirectional_3/forward_lstm_3/PartitionedCall/while/body/_219/while/SelectV2_1", "^StatefulPartitionedCall/sequential_1/bidirectional_3/forward_lstm_3/PartitionedCall/while/loop_body_control/_260"], "attr": {"T": {"type": "DT_FLOAT"}}}, {"name": "StatefulPartitionedCall/sequential_1/bidirectional_3/forward_lstm_3/PartitionedCall/while/next_iteration/_279", "op": "NextIteration", "input": ["StatefulPartitionedCall/sequential_1/bidirectional_3/forward_lstm_3/PartitionedCall/while/body/_219/while/SelectV2", "^StatefulPartitionedCall/sequential_1/bidirectional_3/forward_lstm_3/PartitionedCall/while/loop_body_control/_260"], "attr": {"T": {"type": "DT_FLOAT"}}}, {"name": "StatefulPartitionedCall/sequential_1/bidirectional_3/forward_lstm_3/PartitionedCall/while/body/_219/while/TensorArrayV2Write/TensorListSetItem", "op": "TensorListSetItem", "input": ["StatefulPartitionedCall/sequential_1/bidirectional_3/forward_lstm_3/PartitionedCall/while/StatefulPartitionedCall/sequential_1/bidirectional_3/forward_lstm_3/PartitionedCall/TensorArrayV2_1_switch/_250:1", "Func/StatefulPartitionedCall/sequential_1/bidirectional_3/forward_lstm_3/PartitionedCall/while/body/_219/input/_468", "StatefulPartitionedCall/sequential_1/bidirectional_3/forward_lstm_3/PartitionedCall/while/body/_219/while/SelectV2"], "attr": {"element_dtype": {"type": "DT_FLOAT"}}}, {"name": "StatefulPartitionedCall/sequential_1/bidirectional_3/backward_lstm_3/PartitionedCall/while/next_iteration/_350", "op": "NextIteration", "input": ["StatefulPartitionedCall/sequential_1/bidirectional_3/backward_lstm_3/PartitionedCall/while/body/_289/while/SelectV2_1", "^StatefulPartitionedCall/sequential_1/bidirectional_3/backward_lstm_3/PartitionedCall/while/loop_body_control/_330"], "attr": {"T": {"type": "DT_FLOAT"}}}, {"name": "StatefulPartitionedCall/sequential_1/bidirectional_3/backward_lstm_3/PartitionedCall/while/next_iteration/_349", "op": "NextIteration", "input": ["StatefulPartitionedCall/sequential_1/bidirectional_3/backward_lstm_3/PartitionedCall/while/body/_289/while/SelectV2", "^StatefulPartitionedCall/sequential_1/bidirectional_3/backward_lstm_3/PartitionedCall/while/loop_body_control/_330"], "attr": {"T": {"type": "DT_FLOAT"}}}, {"name": "StatefulPartitionedCall/sequential_1/bidirectional_3/backward_lstm_3/PartitionedCall/while/body/_289/while/TensorArrayV2Write/TensorListSetItem", "op": "TensorListSetItem", "input": ["StatefulPartitionedCall/sequential_1/bidirectional_3/backward_lstm_3/PartitionedCall/while/StatefulPartitionedCall/sequential_1/bidirectional_3/backward_lstm_3/PartitionedCall/TensorArrayV2_1_switch/_320:1", "Func/StatefulPartitionedCall/sequential_1/bidirectional_3/backward_lstm_3/PartitionedCall/while/body/_289/input/_511", "StatefulPartitionedCall/sequential_1/bidirectional_3/backward_lstm_3/PartitionedCall/while/body/_289/while/SelectV2"], "attr": {"element_dtype": {"type": "DT_FLOAT"}}}, {"name": "StatefulPartitionedCall/sequential_1/bidirectional_3/forward_lstm_3/PartitionedCall/while/next_iteration/_278", "op": "NextIteration", "input": ["StatefulPartitionedCall/sequential_1/bidirectional_3/forward_lstm_3/PartitionedCall/while/body/_219/while/TensorArrayV2Write/TensorListSetItem", "^StatefulPartitionedCall/sequential_1/bidirectional_3/forward_lstm_3/PartitionedCall/while/loop_body_control/_260"], "attr": {"T": {"type": "DT_VARIANT"}}}, {"name": "StatefulPartitionedCall/sequential_1/bidirectional_3/backward_lstm_3/PartitionedCall/while/next_iteration/_348", "op": "NextIteration", "input": ["StatefulPartitionedCall/sequential_1/bidirectional_3/backward_lstm_3/PartitionedCall/while/body/_289/while/TensorArrayV2Write/TensorListSetItem", "^StatefulPartitionedCall/sequential_1/bidirectional_3/backward_lstm_3/PartitionedCall/while/loop_body_control/_330"], "attr": {"T": {"type": "DT_VARIANT"}}}], "library": {}, "versions": {"producer": 561}}, "weightsManifest": [{"paths": ["group1-shard1of4.bin", "group1-shard2of4.bin", "group1-shard3of4.bin", "group1-shard4of4.bin"], "weights": [{"name": "StatefulPartitionedCall/sequential_1/bidirectional_3/forward_lstm_3/PartitionedCall/TensorArrayV2_1/element_shape", "shape": [2], "dtype": "int32"}, {"name": "StatefulPartitionedCall/sequential_1/bidirectional_3/forward_lstm_3/PartitionedCall/TensorArrayUnstack/TensorListFromTensor/element_shape", "shape": [2], "dtype": "int32"}, {"name": "StatefulPartitionedCall/sequential_1/bidirectional_3/forward_lstm_3/PartitionedCall/ExpandDims/dim", "shape": [], "dtype": "int32"}, {"name": "StatefulPartitionedCall/sequential_1/bidirectional_3/forward_lstm_3/PartitionedCall/transpose_1/perm", "shape": [3], "dtype": "int32"}, {"name": "StatefulPartitionedCall/sequential_1/bidirectional_3/forward_lstm_3/PartitionedCall/TensorArrayUnstack_1/TensorListFromTensor/element_shape", "shape": [2], "dtype": "int32"}, {"name": "StatefulPartitionedCall/sequential_1/bidirectional_3/forward_lstm_3/zeros_1/packed/1", "shape": [], "dtype": "int32"}, {"name": "StatefulPartitionedCall/sequential_1/bidirectional_3/forward_lstm_3/zeros_1/Const", "shape": [], "dtype": "float32"}, {"name": "StatefulPartitionedCall/sequential_1/bidirectional_3/forward_lstm_3/PartitionedCall/split/split_dim", "shape": [], "dtype": "int32"}, {"name": "StatefulPartitionedCall/sequential_1/bidirectional_3/forward_lstm_3/PartitionedCall/strided_slice_1/stack", "shape": [1], "dtype": "int32"}, {"name": "StatefulPartitionedCall/sequential_1/bidirectional_3/forward_lstm_3/PartitionedCall/strided_slice_1/stack_1", "shape": [1], "dtype": "int32"}, {"name": "StatefulPartitionedCall/sequential_1/bidirectional_3/forward_lstm_3/PartitionedCall/strided_slice_1/stack_2", "shape": [1], "dtype": "int32"}, {"name": "StatefulPartitionedCall/sequential_1/bidirectional_3/forward_lstm_3/Read/ReadVariableOp", "shape": [128, 128], "dtype": "float32"}, {"name": "StatefulPartitionedCall/sequential_1/bidirectional_3/forward_lstm_3/strided_slice/stack", "shape": [1], "dtype": "int32"}, {"name": "StatefulPartitionedCall/sequential_1/bidirectional_3/forward_lstm_3/strided_slice/stack_1", "shape": [1], "dtype": "int32"}, {"name": "StatefulPartitionedCall/sequential_1/bidirectional_3/forward_lstm_3/strided_slice/stack_2", "shape": [1], "dtype": "int32"}, {"name": "StatefulPartitionedCall/sequential_1/bidirectional_3/forward_lstm_3/zeros/packed/1", "shape": [], "dtype": "int32"}, {"name": "StatefulPartitionedCall/sequential_1/bidirectional_3/forward_lstm_3/zeros/Const", "shape": [], "dtype": "float32"}, {"name": "StatefulPartitionedCall/sequential_1/bidirectional_3/forward_lstm_3/Read_1/ReadVariableOp", "shape": [32, 128], "dtype": "float32"}, {"name": "StatefulPartitionedCall/sequential_1/bidirectional_3/forward_lstm_3/Read_2/ReadVariableOp", "shape": [128], "dtype": "float32"}, {"name": "StatefulPartitionedCall/sequential_1/bidirectional_3/forward_lstm_3/PartitionedCall/time", "shape": [], "dtype": "int32"}, {"name": "StatefulPartitionedCall/sequential_1/bidirectional_3/forward_lstm_3/PartitionedCall/transpose/perm", "shape": [3], "dtype": "int32"}, {"name": "StatefulPartitionedCall/sequential_1/bidirectional_3/forward_lstm_3/PartitionedCall/strided_slice/stack", "shape": [1], "dtype": "int32"}, {"name": "StatefulPartitionedCall/sequential_1/bidirectional_3/forward_lstm_3/PartitionedCall/strided_slice/stack_1", "shape": [1], "dtype": "int32"}, {"name": "StatefulPartitionedCall/sequential_1/bidirectional_3/forward_lstm_3/PartitionedCall/strided_slice/stack_2", "shape": [1], "dtype": "int32"}, {"name": "StatefulPartitionedCall/sequential_1/bidirectional_3/forward_lstm_3/PartitionedCall/while/loop_counter", "shape": [], "dtype": "int32"}, {"name": "StatefulPartitionedCall/sequential_1/bidirectional_3/forward_lstm_3/PartitionedCall/TensorArrayV2Stack/TensorListStack/element_shape", "shape": [2], "dtype": "int32"}, {"name": "StatefulPartitionedCall/sequential_1/bidirectional_3/forward_lstm_3/PartitionedCall/strided_slice_2/stack", "shape": [1], "dtype": "int32"}, {"name": "StatefulPartitionedCall/sequential_1/bidirectional_3/forward_lstm_3/PartitionedCall/strided_slice_2/stack_1", "shape": [1], "dtype": "int32"}, {"name": "StatefulPartitionedCall/sequential_1/bidirectional_3/forward_lstm_3/PartitionedCall/strided_slice_2/stack_2", "shape": [1], "dtype": "int32"}, {"name": "StatefulPartitionedCall/sequential_1/bidirectional_3/backward_lstm_3/PartitionedCall/TensorArrayV2_1/element_shape", "shape": [2], "dtype": "int32"}, {"name": "StatefulPartitionedCall/sequential_1/bidirectional_3/backward_lstm_3/PartitionedCall/ReverseV2/axis", "shape": [1], "dtype": "int32"}, {"name": "StatefulPartitionedCall/sequential_1/bidirectional_3/backward_lstm_3/PartitionedCall/TensorArrayUnstack/TensorListFromTensor/element_shape", "shape": [2], "dtype": "int32"}, {"name": "StatefulPartitionedCall/sequential_1/bidirectional_3/backward_lstm_3/PartitionedCall/ExpandDims/dim", "shape": [], "dtype": "int32"}, {"name": "StatefulPartitionedCall/sequential_1/bidirectional_3/backward_lstm_3/PartitionedCall/transpose_1/perm", "shape": [3], "dtype": "int32"}, {"name": "StatefulPartitionedCall/sequential_1/bidirectional_3/backward_lstm_3/PartitionedCall/ReverseV2_1/axis", "shape": [1], "dtype": "int32"}, {"name": "StatefulPartitionedCall/sequential_1/bidirectional_3/backward_lstm_3/PartitionedCall/TensorArrayUnstack_1/TensorListFromTensor/element_shape", "shape": [2], "dtype": "int32"}, {"name": "StatefulPartitionedCall/sequential_1/bidirectional_3/backward_lstm_3/zeros_1/packed/1", "shape": [], "dtype": "int32"}, {"name": "StatefulPartitionedCall/sequential_1/bidirectional_3/backward_lstm_3/zeros_1/Const", "shape": [], "dtype": "float32"}, {"name": "StatefulPartitionedCall/sequential_1/bidirectional_3/backward_lstm_3/PartitionedCall/split/split_dim", "shape": [], "dtype": "int32"}, {"name": "StatefulPartitionedCall/sequential_1/bidirectional_3/backward_lstm_3/PartitionedCall/strided_slice_1/stack", "shape": [1], "dtype": "int32"}, {"name": "StatefulPartitionedCall/sequential_1/bidirectional_3/backward_lstm_3/PartitionedCall/strided_slice_1/stack_1", "shape": [1], "dtype": "int32"}, {"name": "StatefulPartitionedCall/sequential_1/bidirectional_3/backward_lstm_3/PartitionedCall/strided_slice_1/stack_2", "shape": [1], "dtype": "int32"}, {"name": "StatefulPartitionedCall/sequential_1/bidirectional_3/backward_lstm_3/Read/ReadVariableOp", "shape": [128, 128], "dtype": "float32"}, {"name": "StatefulPartitionedCall/sequential_1/bidirectional_3/backward_lstm_3/strided_slice/stack", "shape": [1], "dtype": "int32"}, {"name": "StatefulPartitionedCall/sequential_1/bidirectional_3/backward_lstm_3/strided_slice/stack_1", "shape": [1], "dtype": "int32"}, {"name": "StatefulPartitionedCall/sequential_1/bidirectional_3/backward_lstm_3/strided_slice/stack_2", "shape": [1], "dtype": "int32"}, {"name": "StatefulPartitionedCall/sequential_1/bidirectional_3/backward_lstm_3/zeros/packed/1", "shape": [], "dtype": "int32"}, {"name": "StatefulPartitionedCall/sequential_1/bidirectional_3/backward_lstm_3/zeros/Const", "shape": [], "dtype": "float32"}, {"name": "StatefulPartitionedCall/sequential_1/bidirectional_3/backward_lstm_3/Read_1/ReadVariableOp", "shape": [32, 128], "dtype": "float32"}, {"name": "StatefulPartitionedCall/sequential_1/bidirectional_3/backward_lstm_3/Read_2/ReadVariableOp", "shape": [128], "dtype": "float32"}, {"name": "StatefulPartitionedCall/sequential_1/bidirectional_3/backward_lstm_3/PartitionedCall/time", "shape": [], "dtype": "int32"}, {"name": "StatefulPartitionedCall/sequential_1/bidirectional_2/forward_lstm_2/PartitionedCall/TensorArrayV2_1/element_shape", "shape": [2], "dtype": "int32"}, {"name": "StatefulPartitionedCall/sequential_1/bidirectional_2/forward_lstm_2/PartitionedCall/TensorArrayUnstack/TensorListFromTensor/element_shape", "shape": [2], "dtype": "int32"}, {"name": "StatefulPartitionedCall/sequential_1/bidirectional_2/forward_lstm_2/PartitionedCall/ExpandDims/dim", "shape": [], "dtype": "int32"}, {"name": "StatefulPartitionedCall/sequential_1/bidirectional_2/forward_lstm_2/PartitionedCall/transpose_1/perm", "shape": [3], "dtype": "int32"}, {"name": "StatefulPartitionedCall/sequential_1/bidirectional_2/forward_lstm_2/PartitionedCall/TensorArrayUnstack_1/TensorListFromTensor/element_shape", "shape": [2], "dtype": "int32"}, {"name": "StatefulPartitionedCall/sequential_1/bidirectional_2/forward_lstm_2/zeros_1/packed/1", "shape": [], "dtype": "int32"}, {"name": "StatefulPartitionedCall/sequential_1/bidirectional_2/forward_lstm_2/zeros_1/Const", "shape": [], "dtype": "float32"}, {"name": "StatefulPartitionedCall/sequential_1/bidirectional_2/forward_lstm_2/PartitionedCall/split/split_dim", "shape": [], "dtype": "int32"}, {"name": "StatefulPartitionedCall/sequential_1/bidirectional_2/forward_lstm_2/PartitionedCall/strided_slice_1/stack", "shape": [1], "dtype": "int32"}, {"name": "StatefulPartitionedCall/sequential_1/bidirectional_2/forward_lstm_2/PartitionedCall/strided_slice_1/stack_1", "shape": [1], "dtype": "int32"}, {"name": "StatefulPartitionedCall/sequential_1/bidirectional_2/forward_lstm_2/PartitionedCall/strided_slice_1/stack_2", "shape": [1], "dtype": "int32"}, {"name": "StatefulPartitionedCall/sequential_1/bidirectional_2/forward_lstm_2/Read/ReadVariableOp", "shape": [64, 256], "dtype": "float32"}, {"name": "StatefulPartitionedCall/sequential_1/bidirectional_2/forward_lstm_2/strided_slice/stack", "shape": [1], "dtype": "int32"}, {"name": "StatefulPartitionedCall/sequential_1/bidirectional_2/forward_lstm_2/strided_slice/stack_1", "shape": [1], "dtype": "int32"}, {"name": "StatefulPartitionedCall/sequential_1/bidirectional_2/forward_lstm_2/strided_slice/stack_2", "shape": [1], "dtype": "int32"}, {"name": "StatefulPartitionedCall/sequential_1/bidirectional_2/forward_lstm_2/zeros/packed/1", "shape": [], "dtype": "int32"}, {"name": "StatefulPartitionedCall/sequential_1/bidirectional_2/forward_lstm_2/zeros/Const", "shape": [], "dtype": "float32"}, {"name": "StatefulPartitionedCall/sequential_1/bidirectional_2/forward_lstm_2/Read_1/ReadVariableOp", "shape": [64, 256], "dtype": "float32"}, {"name": "StatefulPartitionedCall/sequential_1/bidirectional_2/forward_lstm_2/Read_2/ReadVariableOp", "shape": [256], "dtype": "float32"}, {"name": "StatefulPartitionedCall/sequential_1/bidirectional_2/forward_lstm_2/PartitionedCall/time", "shape": [], "dtype": "int32"}, {"name": "StatefulPartitionedCall/sequential_1/bidirectional_2/forward_lstm_2/PartitionedCall/transpose/perm", "shape": [3], "dtype": "int32"}, {"name": "StatefulPartitionedCall/sequential_1/bidirectional_2/forward_lstm_2/PartitionedCall/strided_slice/stack", "shape": [1], "dtype": "int32"}, {"name": "StatefulPartitionedCall/sequential_1/bidirectional_2/forward_lstm_2/PartitionedCall/strided_slice/stack_1", "shape": [1], "dtype": "int32"}, {"name": "StatefulPartitionedCall/sequential_1/bidirectional_2/forward_lstm_2/PartitionedCall/strided_slice/stack_2", "shape": [1], "dtype": "int32"}, {"name": "StatefulPartitionedCall/sequential_1/bidirectional_2/forward_lstm_2/PartitionedCall/while/loop_counter", "shape": [], "dtype": "int32"}, {"name": "StatefulPartitionedCall/sequential_1/bidirectional_2/forward_lstm_2/PartitionedCall/TensorArrayV2Stack/TensorListStack/element_shape", "shape": [2], "dtype": "int32"}, {"name": "StatefulPartitionedCall/sequential_1/bidirectional_2/forward_lstm_2/PartitionedCall/transpose_2/perm", "shape": [3], "dtype": "int32"}, {"name": "StatefulPartitionedCall/sequential_1/bidirectional_2/backward_lstm_2/PartitionedCall/TensorArrayV2_1/element_shape", "shape": [2], "dtype": "int32"}, {"name": "StatefulPartitionedCall/sequential_1/bidirectional_2/backward_lstm_2/PartitionedCall/ReverseV2/axis", "shape": [1], "dtype": "int32"}, {"name": "StatefulPartitionedCall/sequential_1/bidirectional_2/backward_lstm_2/PartitionedCall/TensorArrayUnstack/TensorListFromTensor/element_shape", "shape": [2], "dtype": "int32"}, {"name": "StatefulPartitionedCall/sequential_1/embedding_1/NotEqual/y", "shape": [], "dtype": "float32"}, {"name": "StatefulPartitionedCall/sequential_1/bidirectional_2/backward_lstm_2/PartitionedCall/ExpandDims/dim", "shape": [], "dtype": "int32"}, {"name": "StatefulPartitionedCall/sequential_1/bidirectional_2/backward_lstm_2/PartitionedCall/transpose_1/perm", "shape": [3], "dtype": "int32"}, {"name": "StatefulPartitionedCall/sequential_1/bidirectional_2/backward_lstm_2/PartitionedCall/ReverseV2_1/axis", "shape": [1], "dtype": "int32"}, {"name": "StatefulPartitionedCall/sequential_1/bidirectional_2/backward_lstm_2/PartitionedCall/TensorArrayUnstack_1/TensorListFromTensor/element_shape", "shape": [2], "dtype": "int32"}, {"name": "StatefulPartitionedCall/sequential_1/bidirectional_2/backward_lstm_2/zeros_1/packed/1", "shape": [], "dtype": "int32"}, {"name": "StatefulPartitionedCall/sequential_1/bidirectional_2/backward_lstm_2/zeros_1/Const", "shape": [], "dtype": "float32"}, {"name": "StatefulPartitionedCall/sequential_1/bidirectional_2/backward_lstm_2/PartitionedCall/split/split_dim", "shape": [], "dtype": "int32"}, {"name": "StatefulPartitionedCall/sequential_1/bidirectional_2/backward_lstm_2/PartitionedCall/strided_slice_1/stack", "shape": [1], "dtype": "int32"}, {"name": "StatefulPartitionedCall/sequential_1/bidirectional_2/backward_lstm_2/PartitionedCall/strided_slice_1/stack_1", "shape": [1], "dtype": "int32"}, {"name": "StatefulPartitionedCall/sequential_1/bidirectional_2/backward_lstm_2/PartitionedCall/strided_slice_1/stack_2", "shape": [1], "dtype": "int32"}, {"name": "StatefulPartitionedCall/sequential_1/bidirectional_2/backward_lstm_2/Read/ReadVariableOp", "shape": [64, 256], "dtype": "float32"}, {"name": "StatefulPartitionedCall/sequential_1/bidirectional_2/backward_lstm_2/strided_slice/stack", "shape": [1], "dtype": "int32"}, {"name": "StatefulPartitionedCall/sequential_1/bidirectional_2/backward_lstm_2/strided_slice/stack_1", "shape": [1], "dtype": "int32"}, {"name": "StatefulPartitionedCall/sequential_1/bidirectional_2/backward_lstm_2/strided_slice/stack_2", "shape": [1], "dtype": "int32"}, {"name": "StatefulPartitionedCall/sequential_1/bidirectional_2/backward_lstm_2/zeros/packed/1", "shape": [], "dtype": "int32"}, {"name": "StatefulPartitionedCall/sequential_1/bidirectional_2/backward_lstm_2/zeros/Const", "shape": [], "dtype": "float32"}, {"name": "StatefulPartitionedCall/sequential_1/bidirectional_2/backward_lstm_2/Read_1/ReadVariableOp", "shape": [64, 256], "dtype": "float32"}, {"name": "StatefulPartitionedCall/sequential_1/bidirectional_2/backward_lstm_2/Read_2/ReadVariableOp", "shape": [256], "dtype": "float32"}, {"name": "StatefulPartitionedCall/sequential_1/bidirectional_2/backward_lstm_2/PartitionedCall/time", "shape": [], "dtype": "int32"}, {"name": "StatefulPartitionedCall/sequential_1/bidirectional_2/backward_lstm_2/PartitionedCall/transpose/perm", "shape": [3], "dtype": "int32"}, {"name": "StatefulPartitionedCall/sequential_1/bidirectional_2/backward_lstm_2/PartitionedCall/strided_slice/stack", "shape": [1], "dtype": "int32"}, {"name": "StatefulPartitionedCall/sequential_1/bidirectional_2/backward_lstm_2/PartitionedCall/strided_slice/stack_1", "shape": [1], "dtype": "int32"}, {"name": "StatefulPartitionedCall/sequential_1/bidirectional_2/backward_lstm_2/PartitionedCall/strided_slice/stack_2", "shape": [1], "dtype": "int32"}, {"name": "StatefulPartitionedCall/sequential_1/bidirectional_2/backward_lstm_2/PartitionedCall/while/loop_counter", "shape": [], "dtype": "int32"}, {"name": "StatefulPartitionedCall/sequential_1/bidirectional_2/backward_lstm_2/PartitionedCall/TensorArrayV2Stack/TensorListStack/element_shape", "shape": [2], "dtype": "int32"}, {"name": "StatefulPartitionedCall/sequential_1/bidirectional_2/backward_lstm_2/PartitionedCall/transpose_2/perm", "shape": [3], "dtype": "int32"}, {"name": "StatefulPartitionedCall/sequential_1/bidirectional_2/ReverseV2/axis", "shape": [1], "dtype": "int32"}, {"name": "StatefulPartitionedCall/sequential_1/bidirectional_2/concat/axis", "shape": [], "dtype": "int32"}, {"name": "StatefulPartitionedCall/sequential_1/bidirectional_3/backward_lstm_3/PartitionedCall/transpose/perm", "shape": [3], "dtype": "int32"}, {"name": "StatefulPartitionedCall/sequential_1/bidirectional_3/backward_lstm_3/PartitionedCall/strided_slice/stack", "shape": [1], "dtype": "int32"}, {"name": "StatefulPartitionedCall/sequential_1/bidirectional_3/backward_lstm_3/PartitionedCall/strided_slice/stack_1", "shape": [1], "dtype": "int32"}, {"name": "StatefulPartitionedCall/sequential_1/bidirectional_3/backward_lstm_3/PartitionedCall/strided_slice/stack_2", "shape": [1], "dtype": "int32"}, {"name": "StatefulPartitionedCall/sequential_1/bidirectional_3/backward_lstm_3/PartitionedCall/while/loop_counter", "shape": [], "dtype": "int32"}, {"name": "StatefulPartitionedCall/sequential_1/bidirectional_3/backward_lstm_3/PartitionedCall/TensorArrayV2Stack/TensorListStack/element_shape", "shape": [2], "dtype": "int32"}, {"name": "StatefulPartitionedCall/sequential_1/bidirectional_3/backward_lstm_3/PartitionedCall/strided_slice_2/stack", "shape": [1], "dtype": "int32"}, {"name": "StatefulPartitionedCall/sequential_1/bidirectional_3/backward_lstm_3/PartitionedCall/strided_slice_2/stack_1", "shape": [1], "dtype": "int32"}, {"name": "StatefulPartitionedCall/sequential_1/bidirectional_3/backward_lstm_3/PartitionedCall/strided_slice_2/stack_2", "shape": [1], "dtype": "int32"}, {"name": "StatefulPartitionedCall/sequential_1/bidirectional_3/concat/axis", "shape": [], "dtype": "int32"}, {"name": "StatefulPartitionedCall/sequential_1/dense_2/MatMul/ReadVariableOp", "shape": [64, 64], "dtype": "float32"}, {"name": "StatefulPartitionedCall/sequential_1/dense_2/BiasAdd/ReadVariableOp", "shape": [64], "dtype": "float32"}, {"name": "StatefulPartitionedCall/sequential_1/dense_3/MatMul/ReadVariableOp", "shape": [64, 1], "dtype": "float32"}, {"name": "StatefulPartitionedCall/sequential_1/dense_3/BiasAdd/ReadVariableOp", "shape": [1], "dtype": "float32"}, {"name": "unknown", "shape": [50000, 64], "dtype": "float32"}, {"name": "StatefulPartitionedCall/sequential_1/embedding_1/embedding_lookup/axis", "shape": [], "dtype": "int32"}, {"name": "StatefulPartitionedCall/sequential_1/bidirectional_2/forward_lstm_2/PartitionedCall/while/body/_69/while/split/split_dim", "shape": [], "dtype": "int32"}, {"name": "StatefulPartitionedCall/sequential_1/bidirectional_2/forward_lstm_2/PartitionedCall/while/body/_69/while/TensorArrayV2Read/TensorListGetItem/element_shape", "shape": [2], "dtype": "int32"}, {"name": "StatefulPartitionedCall/sequential_1/bidirectional_2/forward_lstm_2/PartitionedCall/while/body/_69/while/TensorArrayV2Read_1/TensorListGetItem/element_shape", "shape": [2], "dtype": "int32"}, {"name": "StatefulPartitionedCall/sequential_1/bidirectional_2/forward_lstm_2/PartitionedCall/while/body/_69/while/add_2/y", "shape": [], "dtype": "int32"}, {"name": "StatefulPartitionedCall/sequential_1/bidirectional_2/forward_lstm_2/PartitionedCall/while/body/_69/while/add_3/y", "shape": [], "dtype": "int32"}, {"name": "StatefulPartitionedCall/sequential_1/bidirectional_2/backward_lstm_2/PartitionedCall/while/body/_144/while/split/split_dim", "shape": [], "dtype": "int32"}, {"name": "StatefulPartitionedCall/sequential_1/bidirectional_2/backward_lstm_2/PartitionedCall/while/body/_144/while/TensorArrayV2Read/TensorListGetItem/element_shape", "shape": [2], "dtype": "int32"}, {"name": "StatefulPartitionedCall/sequential_1/bidirectional_2/backward_lstm_2/PartitionedCall/while/body/_144/while/TensorArrayV2Read_1/TensorListGetItem/element_shape", "shape": [2], "dtype": "int32"}, {"name": "StatefulPartitionedCall/sequential_1/bidirectional_2/backward_lstm_2/PartitionedCall/while/body/_144/while/add_2/y", "shape": [], "dtype": "int32"}, {"name": "StatefulPartitionedCall/sequential_1/bidirectional_2/backward_lstm_2/PartitionedCall/while/body/_144/while/add_3/y", "shape": [], "dtype": "int32"}, {"name": "StatefulPartitionedCall/sequential_1/bidirectional_3/forward_lstm_3/PartitionedCall/while/body/_219/while/split/split_dim", "shape": [], "dtype": "int32"}, {"name": "StatefulPartitionedCall/sequential_1/bidirectional_3/forward_lstm_3/PartitionedCall/while/body/_219/while/TensorArrayV2Read/TensorListGetItem/element_shape", "shape": [2], "dtype": "int32"}, {"name": "StatefulPartitionedCall/sequential_1/bidirectional_3/forward_lstm_3/PartitionedCall/while/body/_219/while/TensorArrayV2Read_1/TensorListGetItem/element_shape", "shape": [2], "dtype": "int32"}, {"name": "StatefulPartitionedCall/sequential_1/bidirectional_3/forward_lstm_3/PartitionedCall/while/body/_219/while/add_2/y", "shape": [], "dtype": "int32"}, {"name": "StatefulPartitionedCall/sequential_1/bidirectional_3/forward_lstm_3/PartitionedCall/while/body/_219/while/add_3/y", "shape": [], "dtype": "int32"}, {"name": "StatefulPartitionedCall/sequential_1/bidirectional_3/backward_lstm_3/PartitionedCall/while/body/_289/while/split/split_dim", "shape": [], "dtype": "int32"}, {"name": "StatefulPartitionedCall/sequential_1/bidirectional_3/backward_lstm_3/PartitionedCall/while/body/_289/while/TensorArrayV2Read/TensorListGetItem/element_shape", "shape": [2], "dtype": "int32"}, {"name": "StatefulPartitionedCall/sequential_1/bidirectional_3/backward_lstm_3/PartitionedCall/while/body/_289/while/TensorArrayV2Read_1/TensorListGetItem/element_shape", "shape": [2], "dtype": "int32"}, {"name": "StatefulPartitionedCall/sequential_1/bidirectional_3/backward_lstm_3/PartitionedCall/while/body/_289/while/add_2/y", "shape": [], "dtype": "int32"}, {"name": "StatefulPartitionedCall/sequential_1/bidirectional_3/backward_lstm_3/PartitionedCall/while/body/_289/while/add_3/y", "shape": [], "dtype": "int32"}]}]}