{"format": "graph-model", "generatedBy": "2.4.1", "convertedBy": "TensorFlow.js Converter v3.5.0", "signature": {"inputs": {"embedding_5_input:0": {"name": "embedding_5_input:0", "dtype": "DT_FLOAT", "tensorShape": {"dim": [{"size": "-1"}, {"size": "-1"}]}}}, "outputs": {"Identity:0": {"name": "Identity:0", "dtype": "DT_FLOAT", "tensorShape": {"dim": [{"size": "-1"}, {"size": "1"}]}}}}, "modelTopology": {"node": [{"name": "StatefulPartitionedCall/sequential_5/bidirectional_8/forward_lstm_8/PartitionedCall/TensorArrayV2_1/element_shape", "op": "Const", "attr": {"value": {"tensor": {"dtype": "DT_INT32", "tensorShape": {"dim": [{"size": "2"}]}}}, "dtype": {"type": "DT_INT32"}}}, {"name": "StatefulPartitionedCall/sequential_5/bidirectional_8/forward_lstm_8/PartitionedCall/TensorArrayUnstack/TensorListFromTensor/element_shape", "op": "Const", "attr": {"value": {"tensor": {"dtype": "DT_INT32", "tensorShape": {"dim": [{"size": "2"}]}}}, "dtype": {"type": "DT_INT32"}}}, {"name": "StatefulPartitionedCall/sequential_5/bidirectional_8/forward_lstm_8/PartitionedCall/ExpandDims/dim", "op": "Const", "attr": {"dtype": {"type": "DT_INT32"}, "value": {"tensor": {"dtype": "DT_INT32", "tensorShape": {}}}}}, {"name": "StatefulPartitionedCall/sequential_5/bidirectional_8/forward_lstm_8/PartitionedCall/transpose_1/perm", "op": "Const", "attr": {"value": {"tensor": {"dtype": "DT_INT32", "tensorShape": {"dim": [{"size": "3"}]}}}, "dtype": {"type": "DT_INT32"}}}, {"name": "StatefulPartitionedCall/sequential_5/bidirectional_8/forward_lstm_8/PartitionedCall/TensorArrayUnstack_1/TensorListFromTensor/element_shape", "op": "Const", "attr": {"dtype": {"type": "DT_INT32"}, "value": {"tensor": {"dtype": "DT_INT32", "tensorShape": {"dim": [{"size": "2"}]}}}}}, {"name": "StatefulPartitionedCall/sequential_5/bidirectional_8/forward_lstm_8/zeros_1/packed/1", "op": "Const", "attr": {"dtype": {"type": "DT_INT32"}, "value": {"tensor": {"dtype": "DT_INT32", "tensorShape": {}}}}}, {"name": "StatefulPartitionedCall/sequential_5/bidirectional_8/forward_lstm_8/zeros_1/Const", "op": "Const", "attr": {"dtype": {"type": "DT_FLOAT"}, "value": {"tensor": {"dtype": "DT_FLOAT", "tensorShape": {}}}}}, {"name": "StatefulPartitionedCall/sequential_5/bidirectional_8/forward_lstm_8/PartitionedCall/split/split_dim", "op": "Const", "attr": {"value": {"tensor": {"dtype": "DT_INT32", "tensorShape": {}}}, "dtype": {"type": "DT_INT32"}}}, {"name": "StatefulPartitionedCall/sequential_5/bidirectional_8/forward_lstm_8/PartitionedCall/strided_slice_1/stack", "op": "Const", "attr": {"dtype": {"type": "DT_INT32"}, "value": {"tensor": {"dtype": "DT_INT32", "tensorShape": {"dim": [{"size": "1"}]}}}}}, {"name": "StatefulPartitionedCall/sequential_5/bidirectional_8/forward_lstm_8/PartitionedCall/strided_slice_1/stack_1", "op": "Const", "attr": {"value": {"tensor": {"dtype": "DT_INT32", "tensorShape": {"dim": [{"size": "1"}]}}}, "dtype": {"type": "DT_INT32"}}}, {"name": "StatefulPartitionedCall/sequential_5/bidirectional_8/forward_lstm_8/PartitionedCall/strided_slice_1/stack_2", "op": "Const", "attr": {"value": {"tensor": {"dtype": "DT_INT32", "tensorShape": {"dim": [{"size": "1"}]}}}, "dtype": {"type": "DT_INT32"}}}, {"name": "StatefulPartitionedCall/sequential_5/bidirectional_8/forward_lstm_8/Read/ReadVariableOp", "op": "Const", "attr": {"dtype": {"type": "DT_FLOAT"}, "value": {"tensor": {"dtype": "DT_FLOAT", "tensorShape": {"dim": [{"size": "64"}, {"size": "256"}]}}}}}, {"name": "StatefulPartitionedCall/sequential_5/bidirectional_8/forward_lstm_8/strided_slice/stack", "op": "Const", "attr": {"dtype": {"type": "DT_INT32"}, "value": {"tensor": {"dtype": "DT_INT32", "tensorShape": {"dim": [{"size": "1"}]}}}}}, {"name": "StatefulPartitionedCall/sequential_5/bidirectional_8/forward_lstm_8/strided_slice/stack_1", "op": "Const", "attr": {"dtype": {"type": "DT_INT32"}, "value": {"tensor": {"dtype": "DT_INT32", "tensorShape": {"dim": [{"size": "1"}]}}}}}, {"name": "StatefulPartitionedCall/sequential_5/bidirectional_8/forward_lstm_8/strided_slice/stack_2", "op": "Const", "attr": {"dtype": {"type": "DT_INT32"}, "value": {"tensor": {"dtype": "DT_INT32", "tensorShape": {"dim": [{"size": "1"}]}}}}}, {"name": "StatefulPartitionedCall/sequential_5/bidirectional_8/forward_lstm_8/zeros/packed/1", "op": "Const", "attr": {"value": {"tensor": {"dtype": "DT_INT32", "tensorShape": {}}}, "dtype": {"type": "DT_INT32"}}}, {"name": "StatefulPartitionedCall/sequential_5/bidirectional_8/forward_lstm_8/zeros/Const", "op": "Const", "attr": {"dtype": {"type": "DT_FLOAT"}, "value": {"tensor": {"dtype": "DT_FLOAT", "tensorShape": {}}}}}, {"name": "StatefulPartitionedCall/sequential_5/bidirectional_8/forward_lstm_8/Read_1/ReadVariableOp", "op": "Const", "attr": {"value": {"tensor": {"dtype": "DT_FLOAT", "tensorShape": {"dim": [{"size": "64"}, {"size": "256"}]}}}, "dtype": {"type": "DT_FLOAT"}}}, {"name": "StatefulPartitionedCall/sequential_5/bidirectional_8/forward_lstm_8/Read_2/ReadVariableOp", "op": "Const", "attr": {"dtype": {"type": "DT_FLOAT"}, "value": {"tensor": {"dtype": "DT_FLOAT", "tensorShape": {"dim": [{"size": "256"}]}}}}}, {"name": "StatefulPartitionedCall/sequential_5/bidirectional_8/forward_lstm_8/PartitionedCall/time", "op": "Const", "attr": {"dtype": {"type": "DT_INT32"}, "value": {"tensor": {"dtype": "DT_INT32", "tensorShape": {}}}}}, {"name": "StatefulPartitionedCall/sequential_5/bidirectional_8/forward_lstm_8/PartitionedCall/transpose/perm", "op": "Const", "attr": {"dtype": {"type": "DT_INT32"}, "value": {"tensor": {"dtype": "DT_INT32", "tensorShape": {"dim": [{"size": "3"}]}}}}}, {"name": "StatefulPartitionedCall/sequential_5/bidirectional_8/forward_lstm_8/PartitionedCall/strided_slice/stack", "op": "Const", "attr": {"value": {"tensor": {"dtype": "DT_INT32", "tensorShape": {"dim": [{"size": "1"}]}}}, "dtype": {"type": "DT_INT32"}}}, {"name": "StatefulPartitionedCall/sequential_5/bidirectional_8/forward_lstm_8/PartitionedCall/strided_slice/stack_1", "op": "Const", "attr": {"dtype": {"type": "DT_INT32"}, "value": {"tensor": {"dtype": "DT_INT32", "tensorShape": {"dim": [{"size": "1"}]}}}}}, {"name": "StatefulPartitionedCall/sequential_5/bidirectional_8/forward_lstm_8/PartitionedCall/strided_slice/stack_2", "op": "Const", "attr": {"value": {"tensor": {"dtype": "DT_INT32", "tensorShape": {"dim": [{"size": "1"}]}}}, "dtype": {"type": "DT_INT32"}}}, {"name": "StatefulPartitionedCall/sequential_5/bidirectional_8/forward_lstm_8/PartitionedCall/while/loop_counter", "op": "Const", "attr": {"dtype": {"type": "DT_INT32"}, "value": {"tensor": {"dtype": "DT_INT32", "tensorShape": {}}}}}, {"name": "StatefulPartitionedCall/sequential_5/bidirectional_8/forward_lstm_8/PartitionedCall/TensorArrayV2Stack/TensorListStack/element_shape", "op": "Const", "attr": {"dtype": {"type": "DT_INT32"}, "value": {"tensor": {"dtype": "DT_INT32", "tensorShape": {"dim": [{"size": "2"}]}}}}}, {"name": "StatefulPartitionedCall/sequential_5/bidirectional_8/forward_lstm_8/PartitionedCall/strided_slice_2/stack", "op": "Const", "attr": {"value": {"tensor": {"dtype": "DT_INT32", "tensorShape": {"dim": [{"size": "1"}]}}}, "dtype": {"type": "DT_INT32"}}}, {"name": "StatefulPartitionedCall/sequential_5/bidirectional_8/forward_lstm_8/PartitionedCall/strided_slice_2/stack_1", "op": "Const", "attr": {"value": {"tensor": {"dtype": "DT_INT32", "tensorShape": {"dim": [{"size": "1"}]}}}, "dtype": {"type": "DT_INT32"}}}, {"name": "StatefulPartitionedCall/sequential_5/bidirectional_8/forward_lstm_8/PartitionedCall/strided_slice_2/stack_2", "op": "Const", "attr": {"dtype": {"type": "DT_INT32"}, "value": {"tensor": {"dtype": "DT_INT32", "tensorShape": {"dim": [{"size": "1"}]}}}}}, {"name": "StatefulPartitionedCall/sequential_5/bidirectional_8/backward_lstm_8/PartitionedCall/TensorArrayV2_1/element_shape", "op": "Const", "attr": {"dtype": {"type": "DT_INT32"}, "value": {"tensor": {"dtype": "DT_INT32", "tensorShape": {"dim": [{"size": "2"}]}}}}}, {"name": "StatefulPartitionedCall/sequential_5/bidirectional_8/backward_lstm_8/PartitionedCall/ReverseV2/axis", "op": "Const", "attr": {"value": {"tensor": {"dtype": "DT_INT32", "tensorShape": {"dim": [{"size": "1"}]}}}, "dtype": {"type": "DT_INT32"}}}, {"name": "StatefulPartitionedCall/sequential_5/bidirectional_8/backward_lstm_8/PartitionedCall/TensorArrayUnstack/TensorListFromTensor/element_shape", "op": "Const", "attr": {"dtype": {"type": "DT_INT32"}, "value": {"tensor": {"dtype": "DT_INT32", "tensorShape": {"dim": [{"size": "2"}]}}}}}, {"name": "StatefulPartitionedCall/sequential_5/embedding_5/NotEqual/y", "op": "Const", "attr": {"value": {"tensor": {"dtype": "DT_FLOAT", "tensorShape": {}}}, "dtype": {"type": "DT_FLOAT"}}}, {"name": "StatefulPartitionedCall/sequential_5/bidirectional_8/backward_lstm_8/PartitionedCall/ExpandDims/dim", "op": "Const", "attr": {"dtype": {"type": "DT_INT32"}, "value": {"tensor": {"dtype": "DT_INT32", "tensorShape": {}}}}}, {"name": "StatefulPartitionedCall/sequential_5/bidirectional_8/backward_lstm_8/PartitionedCall/transpose_1/perm", "op": "Const", "attr": {"dtype": {"type": "DT_INT32"}, "value": {"tensor": {"dtype": "DT_INT32", "tensorShape": {"dim": [{"size": "3"}]}}}}}, {"name": "StatefulPartitionedCall/sequential_5/bidirectional_8/backward_lstm_8/PartitionedCall/ReverseV2_1/axis", "op": "Const", "attr": {"value": {"tensor": {"dtype": "DT_INT32", "tensorShape": {"dim": [{"size": "1"}]}}}, "dtype": {"type": "DT_INT32"}}}, {"name": "StatefulPartitionedCall/sequential_5/bidirectional_8/backward_lstm_8/PartitionedCall/TensorArrayUnstack_1/TensorListFromTensor/element_shape", "op": "Const", "attr": {"value": {"tensor": {"dtype": "DT_INT32", "tensorShape": {"dim": [{"size": "2"}]}}}, "dtype": {"type": "DT_INT32"}}}, {"name": "StatefulPartitionedCall/sequential_5/bidirectional_8/backward_lstm_8/zeros_1/packed/1", "op": "Const", "attr": {"value": {"tensor": {"dtype": "DT_INT32", "tensorShape": {}}}, "dtype": {"type": "DT_INT32"}}}, {"name": "StatefulPartitionedCall/sequential_5/bidirectional_8/backward_lstm_8/zeros_1/Const", "op": "Const", "attr": {"dtype": {"type": "DT_FLOAT"}, "value": {"tensor": {"dtype": "DT_FLOAT", "tensorShape": {}}}}}, {"name": "StatefulPartitionedCall/sequential_5/bidirectional_8/backward_lstm_8/PartitionedCall/split/split_dim", "op": "Const", "attr": {"value": {"tensor": {"dtype": "DT_INT32", "tensorShape": {}}}, "dtype": {"type": "DT_INT32"}}}, {"name": "StatefulPartitionedCall/sequential_5/bidirectional_8/backward_lstm_8/PartitionedCall/strided_slice_1/stack", "op": "Const", "attr": {"dtype": {"type": "DT_INT32"}, "value": {"tensor": {"dtype": "DT_INT32", "tensorShape": {"dim": [{"size": "1"}]}}}}}, {"name": "StatefulPartitionedCall/sequential_5/bidirectional_8/backward_lstm_8/PartitionedCall/strided_slice_1/stack_1", "op": "Const", "attr": {"value": {"tensor": {"dtype": "DT_INT32", "tensorShape": {"dim": [{"size": "1"}]}}}, "dtype": {"type": "DT_INT32"}}}, {"name": "StatefulPartitionedCall/sequential_5/bidirectional_8/backward_lstm_8/PartitionedCall/strided_slice_1/stack_2", "op": "Const", "attr": {"dtype": {"type": "DT_INT32"}, "value": {"tensor": {"dtype": "DT_INT32", "tensorShape": {"dim": [{"size": "1"}]}}}}}, {"name": "StatefulPartitionedCall/sequential_5/bidirectional_8/backward_lstm_8/Read/ReadVariableOp", "op": "Const", "attr": {"value": {"tensor": {"dtype": "DT_FLOAT", "tensorShape": {"dim": [{"size": "64"}, {"size": "256"}]}}}, "dtype": {"type": "DT_FLOAT"}}}, {"name": "StatefulPartitionedCall/sequential_5/bidirectional_8/backward_lstm_8/strided_slice/stack", "op": "Const", "attr": {"value": {"tensor": {"dtype": "DT_INT32", "tensorShape": {"dim": [{"size": "1"}]}}}, "dtype": {"type": "DT_INT32"}}}, {"name": "StatefulPartitionedCall/sequential_5/bidirectional_8/backward_lstm_8/strided_slice/stack_1", "op": "Const", "attr": {"dtype": {"type": "DT_INT32"}, "value": {"tensor": {"dtype": "DT_INT32", "tensorShape": {"dim": [{"size": "1"}]}}}}}, {"name": "StatefulPartitionedCall/sequential_5/bidirectional_8/backward_lstm_8/strided_slice/stack_2", "op": "Const", "attr": {"dtype": {"type": "DT_INT32"}, "value": {"tensor": {"dtype": "DT_INT32", "tensorShape": {"dim": [{"size": "1"}]}}}}}, {"name": "StatefulPartitionedCall/sequential_5/bidirectional_8/backward_lstm_8/zeros/packed/1", "op": "Const", "attr": {"value": {"tensor": {"dtype": "DT_INT32", "tensorShape": {}}}, "dtype": {"type": "DT_INT32"}}}, {"name": "StatefulPartitionedCall/sequential_5/bidirectional_8/backward_lstm_8/zeros/Const", "op": "Const", "attr": {"value": {"tensor": {"dtype": "DT_FLOAT", "tensorShape": {}}}, "dtype": {"type": "DT_FLOAT"}}}, {"name": "StatefulPartitionedCall/sequential_5/bidirectional_8/backward_lstm_8/Read_1/ReadVariableOp", "op": "Const", "attr": {"dtype": {"type": "DT_FLOAT"}, "value": {"tensor": {"dtype": "DT_FLOAT", "tensorShape": {"dim": [{"size": "64"}, {"size": "256"}]}}}}}, {"name": "StatefulPartitionedCall/sequential_5/bidirectional_8/backward_lstm_8/Read_2/ReadVariableOp", "op": "Const", "attr": {"dtype": {"type": "DT_FLOAT"}, "value": {"tensor": {"dtype": "DT_FLOAT", "tensorShape": {"dim": [{"size": "256"}]}}}}}, {"name": "StatefulPartitionedCall/sequential_5/bidirectional_8/backward_lstm_8/PartitionedCall/time", "op": "Const", "attr": {"value": {"tensor": {"dtype": "DT_INT32", "tensorShape": {}}}, "dtype": {"type": "DT_INT32"}}}, {"name": "StatefulPartitionedCall/sequential_5/bidirectional_8/backward_lstm_8/PartitionedCall/transpose/perm", "op": "Const", "attr": {"value": {"tensor": {"dtype": "DT_INT32", "tensorShape": {"dim": [{"size": "3"}]}}}, "dtype": {"type": "DT_INT32"}}}, {"name": "StatefulPartitionedCall/sequential_5/bidirectional_8/backward_lstm_8/PartitionedCall/strided_slice/stack", "op": "Const", "attr": {"value": {"tensor": {"dtype": "DT_INT32", "tensorShape": {"dim": [{"size": "1"}]}}}, "dtype": {"type": "DT_INT32"}}}, {"name": "StatefulPartitionedCall/sequential_5/bidirectional_8/backward_lstm_8/PartitionedCall/strided_slice/stack_1", "op": "Const", "attr": {"value": {"tensor": {"dtype": "DT_INT32", "tensorShape": {"dim": [{"size": "1"}]}}}, "dtype": {"type": "DT_INT32"}}}, {"name": "StatefulPartitionedCall/sequential_5/bidirectional_8/backward_lstm_8/PartitionedCall/strided_slice/stack_2", "op": "Const", "attr": {"value": {"tensor": {"dtype": "DT_INT32", "tensorShape": {"dim": [{"size": "1"}]}}}, "dtype": {"type": "DT_INT32"}}}, {"name": "StatefulPartitionedCall/sequential_5/bidirectional_8/backward_lstm_8/PartitionedCall/while/loop_counter", "op": "Const", "attr": {"value": {"tensor": {"dtype": "DT_INT32", "tensorShape": {}}}, "dtype": {"type": "DT_INT32"}}}, {"name": "StatefulPartitionedCall/sequential_5/bidirectional_8/backward_lstm_8/PartitionedCall/TensorArrayV2Stack/TensorListStack/element_shape", "op": "Const", "attr": {"dtype": {"type": "DT_INT32"}, "value": {"tensor": {"dtype": "DT_INT32", "tensorShape": {"dim": [{"size": "2"}]}}}}}, {"name": "StatefulPartitionedCall/sequential_5/bidirectional_8/backward_lstm_8/PartitionedCall/strided_slice_2/stack", "op": "Const", "attr": {"dtype": {"type": "DT_INT32"}, "value": {"tensor": {"dtype": "DT_INT32", "tensorShape": {"dim": [{"size": "1"}]}}}}}, {"name": "StatefulPartitionedCall/sequential_5/bidirectional_8/backward_lstm_8/PartitionedCall/strided_slice_2/stack_1", "op": "Const", "attr": {"value": {"tensor": {"dtype": "DT_INT32", "tensorShape": {"dim": [{"size": "1"}]}}}, "dtype": {"type": "DT_INT32"}}}, {"name": "StatefulPartitionedCall/sequential_5/bidirectional_8/backward_lstm_8/PartitionedCall/strided_slice_2/stack_2", "op": "Const", "attr": {"value": {"tensor": {"dtype": "DT_INT32", "tensorShape": {"dim": [{"size": "1"}]}}}, "dtype": {"type": "DT_INT32"}}}, {"name": "StatefulPartitionedCall/sequential_5/bidirectional_8/concat/axis", "op": "Const", "attr": {"dtype": {"type": "DT_INT32"}, "value": {"tensor": {"dtype": "DT_INT32", "tensorShape": {}}}}}, {"name": "StatefulPartitionedCall/sequential_5/dense_10/MatMul/ReadVariableOp", "op": "Const", "attr": {"dtype": {"type": "DT_FLOAT"}, "value": {"tensor": {"dtype": "DT_FLOAT", "tensorShape": {"dim": [{"size": "128"}, {"size": "64"}]}}}}}, {"name": "StatefulPartitionedCall/sequential_5/dense_10/BiasAdd/ReadVariableOp", "op": "Const", "attr": {"dtype": {"type": "DT_FLOAT"}, "value": {"tensor": {"dtype": "DT_FLOAT", "tensorShape": {"dim": [{"size": "64"}]}}}}}, {"name": "StatefulPartitionedCall/sequential_5/dense_11/MatMul/ReadVariableOp", "op": "Const", "attr": {"value": {"tensor": {"dtype": "DT_FLOAT", "tensorShape": {"dim": [{"size": "64"}, {"size": "1"}]}}}, "dtype": {"type": "DT_FLOAT"}}}, {"name": "StatefulPartitionedCall/sequential_5/dense_11/BiasAdd/ReadVariableOp", "op": "Const", "attr": {"dtype": {"type": "DT_FLOAT"}, "value": {"tensor": {"dtype": "DT_FLOAT", "tensorShape": {"dim": [{"size": "1"}]}}}}}, {"name": "unknown", "op": "Const", "attr": {"value": {"tensor": {"dtype": "DT_FLOAT", "tensorShape": {"dim": [{"size": "20000"}, {"size": "64"}]}}}, "dtype": {"type": "DT_FLOAT"}}}, {"name": "StatefulPartitionedCall/sequential_5/embedding_5/embedding_lookup/axis", "op": "Const", "attr": {"value": {"tensor": {"dtype": "DT_INT32", "tensorShape": {}}}, "dtype": {"type": "DT_INT32"}}}, {"name": "embedding_5_input", "op": "Placeholder", "attr": {"dtype": {"type": "DT_FLOAT"}, "shape": {"shape": {"dim": [{"size": "-1"}, {"size": "-1"}]}}}}, {"name": "StatefulPartitionedCall/sequential_5/bidirectional_8/forward_lstm_8/PartitionedCall/while/enter/_50", "op": "Enter", "input": ["StatefulPartitionedCall/sequential_5/bidirectional_8/forward_lstm_8/Read/ReadVariableOp"], "attr": {"parallel_iterations": {"i": "32"}, "frame_name": {"s": "U3RhdGVmdWxQYXJ0aXRpb25lZENhbGwvc2VxdWVudGlhbF81L2JpZGlyZWN0aW9uYWxfOC9mb3J3YXJkX2xzdG1fOC9QYXJ0aXRpb25lZENhbGwvd2hpbGU="}, "is_constant": {"b": false}, "T": {"type": "DT_FLOAT"}}}, {"name": "StatefulPartitionedCall/sequential_5/bidirectional_8/forward_lstm_8/PartitionedCall/while/enter/_51", "op": "Enter", "input": ["StatefulPartitionedCall/sequential_5/bidirectional_8/forward_lstm_8/Read_1/ReadVariableOp"], "attr": {"T": {"type": "DT_FLOAT"}, "parallel_iterations": {"i": "32"}, "is_constant": {"b": false}, "frame_name": {"s": "U3RhdGVmdWxQYXJ0aXRpb25lZENhbGwvc2VxdWVudGlhbF81L2JpZGlyZWN0aW9uYWxfOC9mb3J3YXJkX2xzdG1fOC9QYXJ0aXRpb25lZENhbGwvd2hpbGU="}}}, {"name": "StatefulPartitionedCall/sequential_5/bidirectional_8/forward_lstm_8/PartitionedCall/while/enter/_52", "op": "Enter", "input": ["StatefulPartitionedCall/sequential_5/bidirectional_8/forward_lstm_8/Read_2/ReadVariableOp"], "attr": {"parallel_iterations": {"i": "32"}, "T": {"type": "DT_FLOAT"}, "frame_name": {"s": "U3RhdGVmdWxQYXJ0aXRpb25lZENhbGwvc2VxdWVudGlhbF81L2JpZGlyZWN0aW9uYWxfOC9mb3J3YXJkX2xzdG1fOC9QYXJ0aXRpb25lZENhbGwvd2hpbGU="}, "is_constant": {"b": false}}}, {"name": "StatefulPartitionedCall/sequential_5/bidirectional_8/forward_lstm_8/PartitionedCall/while/enter/_42", "op": "Enter", "input": ["StatefulPartitionedCall/sequential_5/bidirectional_8/forward_lstm_8/PartitionedCall/time"], "attr": {"parallel_iterations": {"i": "32"}, "frame_name": {"s": "U3RhdGVmdWxQYXJ0aXRpb25lZENhbGwvc2VxdWVudGlhbF81L2JpZGlyZWN0aW9uYWxfOC9mb3J3YXJkX2xzdG1fOC9QYXJ0aXRpb25lZENhbGwvd2hpbGU="}, "T": {"type": "DT_INT32"}, "is_constant": {"b": false}}}, {"name": "StatefulPartitionedCall/sequential_5/bidirectional_8/forward_lstm_8/PartitionedCall/while/enter/_40", "op": "Enter", "input": ["StatefulPartitionedCall/sequential_5/bidirectional_8/forward_lstm_8/PartitionedCall/while/loop_counter"], "attr": {"T": {"type": "DT_INT32"}, "frame_name": {"s": "U3RhdGVmdWxQYXJ0aXRpb25lZENhbGwvc2VxdWVudGlhbF81L2JpZGlyZWN0aW9uYWxfOC9mb3J3YXJkX2xzdG1fOC9QYXJ0aXRpb25lZENhbGwvd2hpbGU="}, "parallel_iterations": {"i": "32"}, "is_constant": {"b": false}}}, {"name": "StatefulPartitionedCall/sequential_5/bidirectional_8/backward_lstm_8/PartitionedCall/while/enter/_120", "op": "Enter", "input": ["StatefulPartitionedCall/sequential_5/bidirectional_8/backward_lstm_8/Read/ReadVariableOp"], "attr": {"is_constant": {"b": false}, "frame_name": {"s": "U3RhdGVmdWxQYXJ0aXRpb25lZENhbGwvc2VxdWVudGlhbF81L2JpZGlyZWN0aW9uYWxfOC9iYWNrd2FyZF9sc3RtXzgvUGFydGl0aW9uZWRDYWxsL3doaWxl"}, "parallel_iterations": {"i": "32"}, "T": {"type": "DT_FLOAT"}}}, {"name": "StatefulPartitionedCall/sequential_5/bidirectional_8/backward_lstm_8/PartitionedCall/while/enter/_121", "op": "Enter", "input": ["StatefulPartitionedCall/sequential_5/bidirectional_8/backward_lstm_8/Read_1/ReadVariableOp"], "attr": {"parallel_iterations": {"i": "32"}, "frame_name": {"s": "U3RhdGVmdWxQYXJ0aXRpb25lZENhbGwvc2VxdWVudGlhbF81L2JpZGlyZWN0aW9uYWxfOC9iYWNrd2FyZF9sc3RtXzgvUGFydGl0aW9uZWRDYWxsL3doaWxl"}, "is_constant": {"b": false}, "T": {"type": "DT_FLOAT"}}}, {"name": "StatefulPartitionedCall/sequential_5/bidirectional_8/backward_lstm_8/PartitionedCall/while/enter/_122", "op": "Enter", "input": ["StatefulPartitionedCall/sequential_5/bidirectional_8/backward_lstm_8/Read_2/ReadVariableOp"], "attr": {"frame_name": {"s": "U3RhdGVmdWxQYXJ0aXRpb25lZENhbGwvc2VxdWVudGlhbF81L2JpZGlyZWN0aW9uYWxfOC9iYWNrd2FyZF9sc3RtXzgvUGFydGl0aW9uZWRDYWxsL3doaWxl"}, "T": {"type": "DT_FLOAT"}, "parallel_iterations": {"i": "32"}, "is_constant": {"b": false}}}, {"name": "StatefulPartitionedCall/sequential_5/bidirectional_8/backward_lstm_8/PartitionedCall/while/enter/_112", "op": "Enter", "input": ["StatefulPartitionedCall/sequential_5/bidirectional_8/backward_lstm_8/PartitionedCall/time"], "attr": {"T": {"type": "DT_INT32"}, "is_constant": {"b": false}, "frame_name": {"s": "U3RhdGVmdWxQYXJ0aXRpb25lZENhbGwvc2VxdWVudGlhbF81L2JpZGlyZWN0aW9uYWxfOC9iYWNrd2FyZF9sc3RtXzgvUGFydGl0aW9uZWRDYWxsL3doaWxl"}, "parallel_iterations": {"i": "32"}}}, {"name": "StatefulPartitionedCall/sequential_5/bidirectional_8/backward_lstm_8/PartitionedCall/while/enter/_110", "op": "Enter", "input": ["StatefulPartitionedCall/sequential_5/bidirectional_8/backward_lstm_8/PartitionedCall/while/loop_counter"], "attr": {"is_constant": {"b": false}, "frame_name": {"s": "U3RhdGVmdWxQYXJ0aXRpb25lZENhbGwvc2VxdWVudGlhbF81L2JpZGlyZWN0aW9uYWxfOC9iYWNrd2FyZF9sc3RtXzgvUGFydGl0aW9uZWRDYWxsL3doaWxl"}, "parallel_iterations": {"i": "32"}, "T": {"type": "DT_INT32"}}}, {"name": "StatefulPartitionedCall/sequential_5/embedding_5/NotEqual", "op": "NotEqual", "input": ["embedding_5_input", "StatefulPartitionedCall/sequential_5/embedding_5/NotEqual/y"], "attr": {"incompatible_shape_error": {"b": true}, "T": {"type": "DT_FLOAT"}}}, {"name": "StatefulPartitionedCall/sequential_5/embedding_5/Cast", "op": "Cast", "input": ["embedding_5_input"], "attr": {"DstT": {"type": "DT_INT32"}, "SrcT": {"type": "DT_FLOAT"}, "Truncate": {"b": false}}}, {"name": "StatefulPartitionedCall/sequential_5/bidirectional_8/forward_lstm_8/PartitionedCall/while/merge/_63", "op": "Merge", "input": ["StatefulPartitionedCall/sequential_5/bidirectional_8/forward_lstm_8/PartitionedCall/while/enter/_50", "StatefulPartitionedCall/sequential_5/bidirectional_8/forward_lstm_8/PartitionedCall/while/next_iteration/_105"], "attr": {"T": {"type": "DT_FLOAT"}, "N": {"i": "2"}}}, {"name": "StatefulPartitionedCall/sequential_5/bidirectional_8/forward_lstm_8/PartitionedCall/while/merge/_64", "op": "Merge", "input": ["StatefulPartitionedCall/sequential_5/bidirectional_8/forward_lstm_8/PartitionedCall/while/enter/_51", "StatefulPartitionedCall/sequential_5/bidirectional_8/forward_lstm_8/PartitionedCall/while/next_iteration/_106"], "attr": {"T": {"type": "DT_FLOAT"}, "N": {"i": "2"}}}, {"name": "StatefulPartitionedCall/sequential_5/bidirectional_8/forward_lstm_8/PartitionedCall/while/merge/_65", "op": "Merge", "input": ["StatefulPartitionedCall/sequential_5/bidirectional_8/forward_lstm_8/PartitionedCall/while/enter/_52", "StatefulPartitionedCall/sequential_5/bidirectional_8/forward_lstm_8/PartitionedCall/while/next_iteration/_107"], "attr": {"N": {"i": "2"}, "T": {"type": "DT_FLOAT"}}}, {"name": "StatefulPartitionedCall/sequential_5/bidirectional_8/forward_lstm_8/PartitionedCall/while/merge/_55", "op": "Merge", "input": ["StatefulPartitionedCall/sequential_5/bidirectional_8/forward_lstm_8/PartitionedCall/while/enter/_42", "StatefulPartitionedCall/sequential_5/bidirectional_8/forward_lstm_8/PartitionedCall/while/next_iteration/_97"], "attr": {"T": {"type": "DT_INT32"}, "N": {"i": "2"}}}, {"name": "StatefulPartitionedCall/sequential_5/bidirectional_8/forward_lstm_8/PartitionedCall/while/merge/_53", "op": "Merge", "input": ["StatefulPartitionedCall/sequential_5/bidirectional_8/forward_lstm_8/PartitionedCall/while/enter/_40", "StatefulPartitionedCall/sequential_5/bidirectional_8/forward_lstm_8/PartitionedCall/while/next_iteration/_95"], "attr": {"T": {"type": "DT_INT32"}, "N": {"i": "2"}}}, {"name": "StatefulPartitionedCall/sequential_5/bidirectional_8/backward_lstm_8/PartitionedCall/while/merge/_133", "op": "Merge", "input": ["StatefulPartitionedCall/sequential_5/bidirectional_8/backward_lstm_8/PartitionedCall/while/enter/_120", "StatefulPartitionedCall/sequential_5/bidirectional_8/backward_lstm_8/PartitionedCall/while/next_iteration/_175"], "attr": {"N": {"i": "2"}, "T": {"type": "DT_FLOAT"}}}, {"name": "StatefulPartitionedCall/sequential_5/bidirectional_8/backward_lstm_8/PartitionedCall/while/merge/_134", "op": "Merge", "input": ["StatefulPartitionedCall/sequential_5/bidirectional_8/backward_lstm_8/PartitionedCall/while/enter/_121", "StatefulPartitionedCall/sequential_5/bidirectional_8/backward_lstm_8/PartitionedCall/while/next_iteration/_176"], "attr": {"N": {"i": "2"}, "T": {"type": "DT_FLOAT"}}}, {"name": "StatefulPartitionedCall/sequential_5/bidirectional_8/backward_lstm_8/PartitionedCall/while/merge/_135", "op": "Merge", "input": ["StatefulPartitionedCall/sequential_5/bidirectional_8/backward_lstm_8/PartitionedCall/while/enter/_122", "StatefulPartitionedCall/sequential_5/bidirectional_8/backward_lstm_8/PartitionedCall/while/next_iteration/_177"], "attr": {"N": {"i": "2"}, "T": {"type": "DT_FLOAT"}}}, {"name": "StatefulPartitionedCall/sequential_5/bidirectional_8/backward_lstm_8/PartitionedCall/while/merge/_125", "op": "Merge", "input": ["StatefulPartitionedCall/sequential_5/bidirectional_8/backward_lstm_8/PartitionedCall/while/enter/_112", "StatefulPartitionedCall/sequential_5/bidirectional_8/backward_lstm_8/PartitionedCall/while/next_iteration/_167"], "attr": {"T": {"type": "DT_INT32"}, "N": {"i": "2"}}}, {"name": "StatefulPartitionedCall/sequential_5/bidirectional_8/backward_lstm_8/PartitionedCall/while/merge/_123", "op": "Merge", "input": ["StatefulPartitionedCall/sequential_5/bidirectional_8/backward_lstm_8/PartitionedCall/while/enter/_110", "StatefulPartitionedCall/sequential_5/bidirectional_8/backward_lstm_8/PartitionedCall/while/next_iteration/_165"], "attr": {"N": {"i": "2"}, "T": {"type": "DT_INT32"}}}, {"name": "StatefulPartitionedCall/sequential_5/bidirectional_8/forward_lstm_8/PartitionedCall/ExpandDims", "op": "ExpandDims", "input": ["StatefulPartitionedCall/sequential_5/embedding_5/NotEqual", "StatefulPartitionedCall/sequential_5/bidirectional_8/forward_lstm_8/PartitionedCall/ExpandDims/dim"], "attr": {"T": {"type": "DT_BOOL"}, "Tdim": {"type": "DT_INT32"}}}, {"name": "StatefulPartitionedCall/sequential_5/bidirectional_8/backward_lstm_8/PartitionedCall/ExpandDims", "op": "ExpandDims", "input": ["StatefulPartitionedCall/sequential_5/embedding_5/NotEqual", "StatefulPartitionedCall/sequential_5/bidirectional_8/backward_lstm_8/PartitionedCall/ExpandDims/dim"], "attr": {"Tdim": {"type": "DT_INT32"}, "T": {"type": "DT_BOOL"}}}, {"name": "StatefulPartitionedCall/sequential_5/embedding_5/embedding_lookup", "op": "GatherV2", "input": ["unknown", "StatefulPartitionedCall/sequential_5/embedding_5/Cast", "StatefulPartitionedCall/sequential_5/embedding_5/embedding_lookup/axis"], "attr": {"Taxis": {"type": "DT_INT32"}, "Tparams": {"type": "DT_FLOAT"}, "Tindices": {"type": "DT_INT32"}, "batch_dims": {"i": "0"}}}, {"name": "StatefulPartitionedCall/sequential_5/bidirectional_8/forward_lstm_8/PartitionedCall/transpose_1", "op": "Transpose", "input": ["StatefulPartitionedCall/sequential_5/bidirectional_8/forward_lstm_8/PartitionedCall/ExpandDims", "StatefulPartitionedCall/sequential_5/bidirectional_8/forward_lstm_8/PartitionedCall/transpose_1/perm"], "attr": {"T": {"type": "DT_BOOL"}, "Tperm": {"type": "DT_INT32"}}}, {"name": "StatefulPartitionedCall/sequential_5/bidirectional_8/backward_lstm_8/PartitionedCall/transpose_1", "op": "Transpose", "input": ["StatefulPartitionedCall/sequential_5/bidirectional_8/backward_lstm_8/PartitionedCall/ExpandDims", "StatefulPartitionedCall/sequential_5/bidirectional_8/backward_lstm_8/PartitionedCall/transpose_1/perm"], "attr": {"Tperm": {"type": "DT_INT32"}, "T": {"type": "DT_BOOL"}}}, {"name": "StatefulPartitionedCall/sequential_5/bidirectional_8/forward_lstm_8/Shape", "op": "Shape", "input": ["StatefulPartitionedCall/sequential_5/embedding_5/embedding_lookup"], "attr": {"T": {"type": "DT_FLOAT"}, "out_type": {"type": "DT_INT32"}}}, {"name": "StatefulPartitionedCall/sequential_5/bidirectional_8/forward_lstm_8/PartitionedCall/transpose", "op": "Transpose", "input": ["StatefulPartitionedCall/sequential_5/embedding_5/embedding_lookup", "StatefulPartitionedCall/sequential_5/bidirectional_8/forward_lstm_8/PartitionedCall/transpose/perm"], "attr": {"Tperm": {"type": "DT_INT32"}, "T": {"type": "DT_FLOAT"}}}, {"name": "StatefulPartitionedCall/sequential_5/bidirectional_8/backward_lstm_8/Shape", "op": "Shape", "input": ["StatefulPartitionedCall/sequential_5/embedding_5/embedding_lookup"], "attr": {"T": {"type": "DT_FLOAT"}, "out_type": {"type": "DT_INT32"}}}, {"name": "StatefulPartitionedCall/sequential_5/bidirectional_8/backward_lstm_8/PartitionedCall/transpose", "op": "Transpose", "input": ["StatefulPartitionedCall/sequential_5/embedding_5/embedding_lookup", "StatefulPartitionedCall/sequential_5/bidirectional_8/backward_lstm_8/PartitionedCall/transpose/perm"], "attr": {"Tperm": {"type": "DT_INT32"}, "T": {"type": "DT_FLOAT"}}}, {"name": "StatefulPartitionedCall/sequential_5/bidirectional_8/forward_lstm_8/PartitionedCall/TensorArrayUnstack_1/TensorListFromTensor", "op": "TensorListFromTensor", "input": ["StatefulPartitionedCall/sequential_5/bidirectional_8/forward_lstm_8/PartitionedCall/transpose_1", "StatefulPartitionedCall/sequential_5/bidirectional_8/forward_lstm_8/PartitionedCall/TensorArrayUnstack_1/TensorListFromTensor/element_shape"], "attr": {"shape_type": {"type": "DT_INT32"}, "element_dtype": {"type": "DT_BOOL"}}}, {"name": "StatefulPartitionedCall/sequential_5/bidirectional_8/backward_lstm_8/PartitionedCall/ReverseV2_1", "op": "ReverseV2", "input": ["StatefulPartitionedCall/sequential_5/bidirectional_8/backward_lstm_8/PartitionedCall/transpose_1", "StatefulPartitionedCall/sequential_5/bidirectional_8/backward_lstm_8/PartitionedCall/ReverseV2_1/axis"], "attr": {"Tidx": {"type": "DT_INT32"}, "T": {"type": "DT_BOOL"}}}, {"name": "StatefulPartitionedCall/sequential_5/bidirectional_8/forward_lstm_8/strided_slice", "op": "StridedSlice", "input": ["StatefulPartitionedCall/sequential_5/bidirectional_8/forward_lstm_8/Shape", "StatefulPartitionedCall/sequential_5/bidirectional_8/forward_lstm_8/strided_slice/stack", "StatefulPartitionedCall/sequential_5/bidirectional_8/forward_lstm_8/strided_slice/stack_1", "StatefulPartitionedCall/sequential_5/bidirectional_8/forward_lstm_8/strided_slice/stack_2"], "attr": {"Index": {"type": "DT_INT32"}, "T": {"type": "DT_INT32"}, "end_mask": {"i": "0"}, "new_axis_mask": {"i": "0"}, "ellipsis_mask": {"i": "0"}, "begin_mask": {"i": "0"}, "shrink_axis_mask": {"i": "1"}}}, {"name": "StatefulPartitionedCall/sequential_5/bidirectional_8/forward_lstm_8/PartitionedCall/TensorArrayUnstack/TensorListFromTensor", "op": "TensorListFromTensor", "input": ["StatefulPartitionedCall/sequential_5/bidirectional_8/forward_lstm_8/PartitionedCall/transpose", "StatefulPartitionedCall/sequential_5/bidirectional_8/forward_lstm_8/PartitionedCall/TensorArrayUnstack/TensorListFromTensor/element_shape"], "attr": {"element_dtype": {"type": "DT_FLOAT"}, "shape_type": {"type": "DT_INT32"}}}, {"name": "StatefulPartitionedCall/sequential_5/bidirectional_8/forward_lstm_8/PartitionedCall/strided_slice_1", "op": "StridedSlice", "input": ["StatefulPartitionedCall/sequential_5/bidirectional_8/forward_lstm_8/PartitionedCall/transpose", "StatefulPartitionedCall/sequential_5/bidirectional_8/forward_lstm_8/PartitionedCall/strided_slice_1/stack", "StatefulPartitionedCall/sequential_5/bidirectional_8/forward_lstm_8/PartitionedCall/strided_slice_1/stack_1", "StatefulPartitionedCall/sequential_5/bidirectional_8/forward_lstm_8/PartitionedCall/strided_slice_1/stack_2"], "attr": {"ellipsis_mask": {"i": "0"}, "Index": {"type": "DT_INT32"}, "new_axis_mask": {"i": "0"}, "begin_mask": {"i": "0"}, "shrink_axis_mask": {"i": "1"}, "T": {"type": "DT_FLOAT"}, "end_mask": {"i": "0"}}}, {"name": "StatefulPartitionedCall/sequential_5/bidirectional_8/forward_lstm_8/PartitionedCall/Shape", "op": "Shape", "input": ["StatefulPartitionedCall/sequential_5/bidirectional_8/forward_lstm_8/PartitionedCall/transpose"], "attr": {"out_type": {"type": "DT_INT32"}, "T": {"type": "DT_FLOAT"}}}, {"name": "StatefulPartitionedCall/sequential_5/bidirectional_8/backward_lstm_8/strided_slice", "op": "StridedSlice", "input": ["StatefulPartitionedCall/sequential_5/bidirectional_8/backward_lstm_8/Shape", "StatefulPartitionedCall/sequential_5/bidirectional_8/backward_lstm_8/strided_slice/stack", "StatefulPartitionedCall/sequential_5/bidirectional_8/backward_lstm_8/strided_slice/stack_1", "StatefulPartitionedCall/sequential_5/bidirectional_8/backward_lstm_8/strided_slice/stack_2"], "attr": {"Index": {"type": "DT_INT32"}, "begin_mask": {"i": "0"}, "shrink_axis_mask": {"i": "1"}, "ellipsis_mask": {"i": "0"}, "new_axis_mask": {"i": "0"}, "T": {"type": "DT_INT32"}, "end_mask": {"i": "0"}}}, {"name": "StatefulPartitionedCall/sequential_5/bidirectional_8/backward_lstm_8/PartitionedCall/ReverseV2", "op": "ReverseV2", "input": ["StatefulPartitionedCall/sequential_5/bidirectional_8/backward_lstm_8/PartitionedCall/transpose", "StatefulPartitionedCall/sequential_5/bidirectional_8/backward_lstm_8/PartitionedCall/ReverseV2/axis"], "attr": {"Tidx": {"type": "DT_INT32"}, "T": {"type": "DT_FLOAT"}}}, {"name": "StatefulPartitionedCall/sequential_5/bidirectional_8/backward_lstm_8/PartitionedCall/strided_slice_1", "op": "StridedSlice", "input": ["StatefulPartitionedCall/sequential_5/bidirectional_8/backward_lstm_8/PartitionedCall/transpose", "StatefulPartitionedCall/sequential_5/bidirectional_8/backward_lstm_8/PartitionedCall/strided_slice_1/stack", "StatefulPartitionedCall/sequential_5/bidirectional_8/backward_lstm_8/PartitionedCall/strided_slice_1/stack_1", "StatefulPartitionedCall/sequential_5/bidirectional_8/backward_lstm_8/PartitionedCall/strided_slice_1/stack_2"], "attr": {"Index": {"type": "DT_INT32"}, "shrink_axis_mask": {"i": "1"}, "end_mask": {"i": "0"}, "new_axis_mask": {"i": "0"}, "T": {"type": "DT_FLOAT"}, "begin_mask": {"i": "0"}, "ellipsis_mask": {"i": "0"}}}, {"name": "StatefulPartitionedCall/sequential_5/bidirectional_8/backward_lstm_8/PartitionedCall/Shape", "op": "Shape", "input": ["StatefulPartitionedCall/sequential_5/bidirectional_8/backward_lstm_8/PartitionedCall/transpose"], "attr": {"out_type": {"type": "DT_INT32"}, "T": {"type": "DT_FLOAT"}}}, {"name": "StatefulPartitionedCall/sequential_5/bidirectional_8/forward_lstm_8/PartitionedCall/while/enter/_49", "op": "Enter", "input": ["StatefulPartitionedCall/sequential_5/bidirectional_8/forward_lstm_8/PartitionedCall/TensorArrayUnstack_1/TensorListFromTensor"], "attr": {"is_constant": {"b": false}, "frame_name": {"s": "U3RhdGVmdWxQYXJ0aXRpb25lZENhbGwvc2VxdWVudGlhbF81L2JpZGlyZWN0aW9uYWxfOC9mb3J3YXJkX2xzdG1fOC9QYXJ0aXRpb25lZENhbGwvd2hpbGU="}, "T": {"type": "DT_VARIANT"}, "parallel_iterations": {"i": "32"}}}, {"name": "StatefulPartitionedCall/sequential_5/bidirectional_8/backward_lstm_8/PartitionedCall/TensorArrayUnstack_1/TensorListFromTensor", "op": "TensorListFromTensor", "input": ["StatefulPartitionedCall/sequential_5/bidirectional_8/backward_lstm_8/PartitionedCall/ReverseV2_1", "StatefulPartitionedCall/sequential_5/bidirectional_8/backward_lstm_8/PartitionedCall/TensorArrayUnstack_1/TensorListFromTensor/element_shape"], "attr": {"shape_type": {"type": "DT_INT32"}, "element_dtype": {"type": "DT_BOOL"}}}, {"name": "StatefulPartitionedCall/sequential_5/bidirectional_8/forward_lstm_8/zeros_1/packed", "op": "Pack", "input": ["StatefulPartitionedCall/sequential_5/bidirectional_8/forward_lstm_8/strided_slice", "StatefulPartitionedCall/sequential_5/bidirectional_8/forward_lstm_8/zeros_1/packed/1"], "attr": {"N": {"i": "2"}, "axis": {"i": "0"}, "T": {"type": "DT_INT32"}}}, {"name": "StatefulPartitionedCall/sequential_5/bidirectional_8/forward_lstm_8/zeros/packed", "op": "Pack", "input": ["StatefulPartitionedCall/sequential_5/bidirectional_8/forward_lstm_8/strided_slice", "StatefulPartitionedCall/sequential_5/bidirectional_8/forward_lstm_8/zeros/packed/1"], "attr": {"N": {"i": "2"}, "axis": {"i": "0"}, "T": {"type": "DT_INT32"}}}, {"name": "StatefulPartitionedCall/sequential_5/bidirectional_8/forward_lstm_8/PartitionedCall/while/enter/_48", "op": "Enter", "input": ["StatefulPartitionedCall/sequential_5/bidirectional_8/forward_lstm_8/PartitionedCall/TensorArrayUnstack/TensorListFromTensor"], "attr": {"T": {"type": "DT_VARIANT"}, "is_constant": {"b": false}, "parallel_iterations": {"i": "32"}, "frame_name": {"s": "U3RhdGVmdWxQYXJ0aXRpb25lZENhbGwvc2VxdWVudGlhbF81L2JpZGlyZWN0aW9uYWxfOC9mb3J3YXJkX2xzdG1fOC9QYXJ0aXRpb25lZENhbGwvd2hpbGU="}}}, {"name": "StatefulPartitionedCall/sequential_5/bidirectional_8/forward_lstm_8/PartitionedCall/MatMul", "op": "MatMul", "input": ["StatefulPartitionedCall/sequential_5/bidirectional_8/forward_lstm_8/PartitionedCall/strided_slice_1", "StatefulPartitionedCall/sequential_5/bidirectional_8/forward_lstm_8/Read/ReadVariableOp"], "device": "/device:CPU:0", "attr": {"transpose_b": {"b": false}, "T": {"type": "DT_FLOAT"}, "transpose_a": {"b": false}}}, {"name": "StatefulPartitionedCall/sequential_5/bidirectional_8/forward_lstm_8/PartitionedCall/strided_slice", "op": "StridedSlice", "input": ["StatefulPartitionedCall/sequential_5/bidirectional_8/forward_lstm_8/PartitionedCall/Shape", "StatefulPartitionedCall/sequential_5/bidirectional_8/forward_lstm_8/PartitionedCall/strided_slice/stack", "StatefulPartitionedCall/sequential_5/bidirectional_8/forward_lstm_8/PartitionedCall/strided_slice/stack_1", "StatefulPartitionedCall/sequential_5/bidirectional_8/forward_lstm_8/PartitionedCall/strided_slice/stack_2"], "attr": {"end_mask": {"i": "0"}, "shrink_axis_mask": {"i": "1"}, "begin_mask": {"i": "0"}, "new_axis_mask": {"i": "0"}, "Index": {"type": "DT_INT32"}, "T": {"type": "DT_INT32"}, "ellipsis_mask": {"i": "0"}}}, {"name": "StatefulPartitionedCall/sequential_5/bidirectional_8/backward_lstm_8/zeros_1/packed", "op": "Pack", "input": ["StatefulPartitionedCall/sequential_5/bidirectional_8/backward_lstm_8/strided_slice", "StatefulPartitionedCall/sequential_5/bidirectional_8/backward_lstm_8/zeros_1/packed/1"], "attr": {"axis": {"i": "0"}, "N": {"i": "2"}, "T": {"type": "DT_INT32"}}}, {"name": "StatefulPartitionedCall/sequential_5/bidirectional_8/backward_lstm_8/zeros/packed", "op": "Pack", "input": ["StatefulPartitionedCall/sequential_5/bidirectional_8/backward_lstm_8/strided_slice", "StatefulPartitionedCall/sequential_5/bidirectional_8/backward_lstm_8/zeros/packed/1"], "attr": {"axis": {"i": "0"}, "T": {"type": "DT_INT32"}, "N": {"i": "2"}}}, {"name": "StatefulPartitionedCall/sequential_5/bidirectional_8/backward_lstm_8/PartitionedCall/TensorArrayUnstack/TensorListFromTensor", "op": "TensorListFromTensor", "input": ["StatefulPartitionedCall/sequential_5/bidirectional_8/backward_lstm_8/PartitionedCall/ReverseV2", "StatefulPartitionedCall/sequential_5/bidirectional_8/backward_lstm_8/PartitionedCall/TensorArrayUnstack/TensorListFromTensor/element_shape"], "attr": {"element_dtype": {"type": "DT_FLOAT"}, "shape_type": {"type": "DT_INT32"}}}, {"name": "StatefulPartitionedCall/sequential_5/bidirectional_8/backward_lstm_8/PartitionedCall/MatMul", "op": "MatMul", "input": ["StatefulPartitionedCall/sequential_5/bidirectional_8/backward_lstm_8/PartitionedCall/strided_slice_1", "StatefulPartitionedCall/sequential_5/bidirectional_8/backward_lstm_8/Read/ReadVariableOp"], "device": "/device:CPU:0", "attr": {"transpose_a": {"b": false}, "transpose_b": {"b": false}, "T": {"type": "DT_FLOAT"}}}, {"name": "StatefulPartitionedCall/sequential_5/bidirectional_8/backward_lstm_8/PartitionedCall/strided_slice", "op": "StridedSlice", "input": ["StatefulPartitionedCall/sequential_5/bidirectional_8/backward_lstm_8/PartitionedCall/Shape", "StatefulPartitionedCall/sequential_5/bidirectional_8/backward_lstm_8/PartitionedCall/strided_slice/stack", "StatefulPartitionedCall/sequential_5/bidirectional_8/backward_lstm_8/PartitionedCall/strided_slice/stack_1", "StatefulPartitionedCall/sequential_5/bidirectional_8/backward_lstm_8/PartitionedCall/strided_slice/stack_2"], "attr": {"end_mask": {"i": "0"}, "ellipsis_mask": {"i": "0"}, "Index": {"type": "DT_INT32"}, "begin_mask": {"i": "0"}, "new_axis_mask": {"i": "0"}, "T": {"type": "DT_INT32"}, "shrink_axis_mask": {"i": "1"}}}, {"name": "StatefulPartitionedCall/sequential_5/bidirectional_8/forward_lstm_8/PartitionedCall/while/merge/_62", "op": "Merge", "input": ["StatefulPartitionedCall/sequential_5/bidirectional_8/forward_lstm_8/PartitionedCall/while/enter/_49", "StatefulPartitionedCall/sequential_5/bidirectional_8/forward_lstm_8/PartitionedCall/while/next_iteration/_104"], "attr": {"T": {"type": "DT_VARIANT"}, "N": {"i": "2"}}}, {"name": "StatefulPartitionedCall/sequential_5/bidirectional_8/backward_lstm_8/PartitionedCall/while/enter/_119", "op": "Enter", "input": ["StatefulPartitionedCall/sequential_5/bidirectional_8/backward_lstm_8/PartitionedCall/TensorArrayUnstack_1/TensorListFromTensor"], "attr": {"is_constant": {"b": false}, "parallel_iterations": {"i": "32"}, "frame_name": {"s": "U3RhdGVmdWxQYXJ0aXRpb25lZENhbGwvc2VxdWVudGlhbF81L2JpZGlyZWN0aW9uYWxfOC9iYWNrd2FyZF9sc3RtXzgvUGFydGl0aW9uZWRDYWxsL3doaWxl"}, "T": {"type": "DT_VARIANT"}}}, {"name": "StatefulPartitionedCall/sequential_5/bidirectional_8/forward_lstm_8/zeros_1", "op": "Fill", "input": ["StatefulPartitionedCall/sequential_5/bidirectional_8/forward_lstm_8/zeros_1/packed", "StatefulPartitionedCall/sequential_5/bidirectional_8/forward_lstm_8/zeros_1/Const"], "attr": {"index_type": {"type": "DT_INT32"}, "T": {"type": "DT_FLOAT"}}}, {"name": "StatefulPartitionedCall/sequential_5/bidirectional_8/forward_lstm_8/zeros", "op": "Fill", "input": ["StatefulPartitionedCall/sequential_5/bidirectional_8/forward_lstm_8/zeros/packed", "StatefulPartitionedCall/sequential_5/bidirectional_8/forward_lstm_8/zeros/Const"], "attr": {"T": {"type": "DT_FLOAT"}, "index_type": {"type": "DT_INT32"}}}, {"name": "StatefulPartitionedCall/sequential_5/bidirectional_8/forward_lstm_8/PartitionedCall/while/merge/_61", "op": "Merge", "input": ["StatefulPartitionedCall/sequential_5/bidirectional_8/forward_lstm_8/PartitionedCall/while/enter/_48", "StatefulPartitionedCall/sequential_5/bidirectional_8/forward_lstm_8/PartitionedCall/while/next_iteration/_103"], "attr": {"N": {"i": "2"}, "T": {"type": "DT_VARIANT"}}}, {"name": "StatefulPartitionedCall/sequential_5/bidirectional_8/forward_lstm_8/PartitionedCall/TensorArrayV2_1", "op": "TensorListReserve", "input": ["StatefulPartitionedCall/sequential_5/bidirectional_8/forward_lstm_8/PartitionedCall/TensorArrayV2_1/element_shape", "StatefulPartitionedCall/sequential_5/bidirectional_8/forward_lstm_8/PartitionedCall/strided_slice"], "attr": {"shape_type": {"type": "DT_INT32"}, "element_dtype": {"type": "DT_FLOAT"}}}, {"name": "StatefulPartitionedCall/sequential_5/bidirectional_8/forward_lstm_8/PartitionedCall/while/enter/_47", "op": "Enter", "input": ["StatefulPartitionedCall/sequential_5/bidirectional_8/forward_lstm_8/PartitionedCall/strided_slice"], "attr": {"is_constant": {"b": false}, "T": {"type": "DT_INT32"}, "parallel_iterations": {"i": "32"}, "frame_name": {"s": "U3RhdGVmdWxQYXJ0aXRpb25lZENhbGwvc2VxdWVudGlhbF81L2JpZGlyZWN0aW9uYWxfOC9mb3J3YXJkX2xzdG1fOC9QYXJ0aXRpb25lZENhbGwvd2hpbGU="}}}, {"name": "StatefulPartitionedCall/sequential_5/bidirectional_8/backward_lstm_8/zeros_1", "op": "Fill", "input": ["StatefulPartitionedCall/sequential_5/bidirectional_8/backward_lstm_8/zeros_1/packed", "StatefulPartitionedCall/sequential_5/bidirectional_8/backward_lstm_8/zeros_1/Const"], "attr": {"T": {"type": "DT_FLOAT"}, "index_type": {"type": "DT_INT32"}}}, {"name": "StatefulPartitionedCall/sequential_5/bidirectional_8/backward_lstm_8/zeros", "op": "Fill", "input": ["StatefulPartitionedCall/sequential_5/bidirectional_8/backward_lstm_8/zeros/packed", "StatefulPartitionedCall/sequential_5/bidirectional_8/backward_lstm_8/zeros/Const"], "attr": {"index_type": {"type": "DT_INT32"}, "T": {"type": "DT_FLOAT"}}}, {"name": "StatefulPartitionedCall/sequential_5/bidirectional_8/backward_lstm_8/PartitionedCall/while/enter/_118", "op": "Enter", "input": ["StatefulPartitionedCall/sequential_5/bidirectional_8/backward_lstm_8/PartitionedCall/TensorArrayUnstack/TensorListFromTensor"], "attr": {"is_constant": {"b": false}, "frame_name": {"s": "U3RhdGVmdWxQYXJ0aXRpb25lZENhbGwvc2VxdWVudGlhbF81L2JpZGlyZWN0aW9uYWxfOC9iYWNrd2FyZF9sc3RtXzgvUGFydGl0aW9uZWRDYWxsL3doaWxl"}, "parallel_iterations": {"i": "32"}, "T": {"type": "DT_VARIANT"}}}, {"name": "StatefulPartitionedCall/sequential_5/bidirectional_8/backward_lstm_8/PartitionedCall/TensorArrayV2_1", "op": "TensorListReserve", "input": ["StatefulPartitionedCall/sequential_5/bidirectional_8/backward_lstm_8/PartitionedCall/TensorArrayV2_1/element_shape", "StatefulPartitionedCall/sequential_5/bidirectional_8/backward_lstm_8/PartitionedCall/strided_slice"], "attr": {"shape_type": {"type": "DT_INT32"}, "element_dtype": {"type": "DT_FLOAT"}}}, {"name": "StatefulPartitionedCall/sequential_5/bidirectional_8/backward_lstm_8/PartitionedCall/while/enter/_117", "op": "Enter", "input": ["StatefulPartitionedCall/sequential_5/bidirectional_8/backward_lstm_8/PartitionedCall/strided_slice"], "attr": {"is_constant": {"b": false}, "frame_name": {"s": "U3RhdGVmdWxQYXJ0aXRpb25lZENhbGwvc2VxdWVudGlhbF81L2JpZGlyZWN0aW9uYWxfOC9iYWNrd2FyZF9sc3RtXzgvUGFydGl0aW9uZWRDYWxsL3doaWxl"}, "parallel_iterations": {"i": "32"}, "T": {"type": "DT_INT32"}}}, {"name": "StatefulPartitionedCall/sequential_5/bidirectional_8/backward_lstm_8/PartitionedCall/while/merge/_132", "op": "Merge", "input": ["StatefulPartitionedCall/sequential_5/bidirectional_8/backward_lstm_8/PartitionedCall/while/enter/_119", "StatefulPartitionedCall/sequential_5/bidirectional_8/backward_lstm_8/PartitionedCall/while/next_iteration/_174"], "attr": {"N": {"i": "2"}, "T": {"type": "DT_VARIANT"}}}, {"name": "StatefulPartitionedCall/sequential_5/bidirectional_8/forward_lstm_8/PartitionedCall/while/enter/_46", "op": "Enter", "input": ["StatefulPartitionedCall/sequential_5/bidirectional_8/forward_lstm_8/zeros_1"], "attr": {"frame_name": {"s": "U3RhdGVmdWxQYXJ0aXRpb25lZENhbGwvc2VxdWVudGlhbF81L2JpZGlyZWN0aW9uYWxfOC9mb3J3YXJkX2xzdG1fOC9QYXJ0aXRpb25lZENhbGwvd2hpbGU="}, "is_constant": {"b": false}, "T": {"type": "DT_FLOAT"}, "parallel_iterations": {"i": "32"}}}, {"name": "StatefulPartitionedCall/sequential_5/bidirectional_8/forward_lstm_8/PartitionedCall/while/enter/_45", "op": "Enter", "input": ["StatefulPartitionedCall/sequential_5/bidirectional_8/forward_lstm_8/zeros"], "attr": {"parallel_iterations": {"i": "32"}, "T": {"type": "DT_FLOAT"}, "is_constant": {"b": false}, "frame_name": {"s": "U3RhdGVmdWxQYXJ0aXRpb25lZENhbGwvc2VxdWVudGlhbF81L2JpZGlyZWN0aW9uYWxfOC9mb3J3YXJkX2xzdG1fOC9QYXJ0aXRpb25lZENhbGwvd2hpbGU="}}}, {"name": "StatefulPartitionedCall/sequential_5/bidirectional_8/forward_lstm_8/PartitionedCall/MatMul_1", "op": "MatMul", "input": ["StatefulPartitionedCall/sequential_5/bidirectional_8/forward_lstm_8/zeros", "StatefulPartitionedCall/sequential_5/bidirectional_8/forward_lstm_8/Read_1/ReadVariableOp"], "device": "/device:CPU:0", "attr": {"transpose_b": {"b": false}, "T": {"type": "DT_FLOAT"}, "transpose_a": {"b": false}}}, {"name": "StatefulPartitionedCall/sequential_5/bidirectional_8/forward_lstm_8/PartitionedCall/while/enter/_43", "op": "Enter", "input": ["StatefulPartitionedCall/sequential_5/bidirectional_8/forward_lstm_8/PartitionedCall/TensorArrayV2_1"], "attr": {"frame_name": {"s": "U3RhdGVmdWxQYXJ0aXRpb25lZENhbGwvc2VxdWVudGlhbF81L2JpZGlyZWN0aW9uYWxfOC9mb3J3YXJkX2xzdG1fOC9QYXJ0aXRpb25lZENhbGwvd2hpbGU="}, "parallel_iterations": {"i": "32"}, "T": {"type": "DT_VARIANT"}, "is_constant": {"b": false}}}, {"name": "StatefulPartitionedCall/sequential_5/bidirectional_8/forward_lstm_8/PartitionedCall/while/merge/_60", "op": "Merge", "input": ["StatefulPartitionedCall/sequential_5/bidirectional_8/forward_lstm_8/PartitionedCall/while/enter/_47", "StatefulPartitionedCall/sequential_5/bidirectional_8/forward_lstm_8/PartitionedCall/while/next_iteration/_102"], "attr": {"N": {"i": "2"}, "T": {"type": "DT_INT32"}}}, {"name": "StatefulPartitionedCall/sequential_5/bidirectional_8/backward_lstm_8/PartitionedCall/while/enter/_116", "op": "Enter", "input": ["StatefulPartitionedCall/sequential_5/bidirectional_8/backward_lstm_8/zeros_1"], "attr": {"T": {"type": "DT_FLOAT"}, "parallel_iterations": {"i": "32"}, "frame_name": {"s": "U3RhdGVmdWxQYXJ0aXRpb25lZENhbGwvc2VxdWVudGlhbF81L2JpZGlyZWN0aW9uYWxfOC9iYWNrd2FyZF9sc3RtXzgvUGFydGl0aW9uZWRDYWxsL3doaWxl"}, "is_constant": {"b": false}}}, {"name": "StatefulPartitionedCall/sequential_5/bidirectional_8/backward_lstm_8/PartitionedCall/while/enter/_115", "op": "Enter", "input": ["StatefulPartitionedCall/sequential_5/bidirectional_8/backward_lstm_8/zeros"], "attr": {"parallel_iterations": {"i": "32"}, "T": {"type": "DT_FLOAT"}, "frame_name": {"s": "U3RhdGVmdWxQYXJ0aXRpb25lZENhbGwvc2VxdWVudGlhbF81L2JpZGlyZWN0aW9uYWxfOC9iYWNrd2FyZF9sc3RtXzgvUGFydGl0aW9uZWRDYWxsL3doaWxl"}, "is_constant": {"b": false}}}, {"name": "StatefulPartitionedCall/sequential_5/bidirectional_8/backward_lstm_8/PartitionedCall/MatMul_1", "op": "MatMul", "input": ["StatefulPartitionedCall/sequential_5/bidirectional_8/backward_lstm_8/zeros", "StatefulPartitionedCall/sequential_5/bidirectional_8/backward_lstm_8/Read_1/ReadVariableOp"], "device": "/device:CPU:0", "attr": {"T": {"type": "DT_FLOAT"}, "transpose_b": {"b": false}, "transpose_a": {"b": false}}}, {"name": "StatefulPartitionedCall/sequential_5/bidirectional_8/backward_lstm_8/PartitionedCall/while/merge/_131", "op": "Merge", "input": ["StatefulPartitionedCall/sequential_5/bidirectional_8/backward_lstm_8/PartitionedCall/while/enter/_118", "StatefulPartitionedCall/sequential_5/bidirectional_8/backward_lstm_8/PartitionedCall/while/next_iteration/_173"], "attr": {"T": {"type": "DT_VARIANT"}, "N": {"i": "2"}}}, {"name": "StatefulPartitionedCall/sequential_5/bidirectional_8/backward_lstm_8/PartitionedCall/while/enter/_113", "op": "Enter", "input": ["StatefulPartitionedCall/sequential_5/bidirectional_8/backward_lstm_8/PartitionedCall/TensorArrayV2_1"], "attr": {"frame_name": {"s": "U3RhdGVmdWxQYXJ0aXRpb25lZENhbGwvc2VxdWVudGlhbF81L2JpZGlyZWN0aW9uYWxfOC9iYWNrd2FyZF9sc3RtXzgvUGFydGl0aW9uZWRDYWxsL3doaWxl"}, "parallel_iterations": {"i": "32"}, "T": {"type": "DT_VARIANT"}, "is_constant": {"b": false}}}, {"name": "StatefulPartitionedCall/sequential_5/bidirectional_8/backward_lstm_8/PartitionedCall/while/merge/_130", "op": "Merge", "input": ["StatefulPartitionedCall/sequential_5/bidirectional_8/backward_lstm_8/PartitionedCall/while/enter/_117", "StatefulPartitionedCall/sequential_5/bidirectional_8/backward_lstm_8/PartitionedCall/while/next_iteration/_172"], "attr": {"T": {"type": "DT_INT32"}, "N": {"i": "2"}}}, {"name": "StatefulPartitionedCall/sequential_5/bidirectional_8/forward_lstm_8/PartitionedCall/while/merge/_59", "op": "Merge", "input": ["StatefulPartitionedCall/sequential_5/bidirectional_8/forward_lstm_8/PartitionedCall/while/enter/_46", "StatefulPartitionedCall/sequential_5/bidirectional_8/forward_lstm_8/PartitionedCall/while/next_iteration/_101"], "attr": {"N": {"i": "2"}, "T": {"type": "DT_FLOAT"}}}, {"name": "StatefulPartitionedCall/sequential_5/bidirectional_8/forward_lstm_8/PartitionedCall/while/merge/_58", "op": "Merge", "input": ["StatefulPartitionedCall/sequential_5/bidirectional_8/forward_lstm_8/PartitionedCall/while/enter/_45", "StatefulPartitionedCall/sequential_5/bidirectional_8/forward_lstm_8/PartitionedCall/while/next_iteration/_100"], "attr": {"T": {"type": "DT_FLOAT"}, "N": {"i": "2"}}}, {"name": "StatefulPartitionedCall/sequential_5/bidirectional_8/forward_lstm_8/PartitionedCall/add", "op": "AddV2", "input": ["StatefulPartitionedCall/sequential_5/bidirectional_8/forward_lstm_8/PartitionedCall/MatMul", "StatefulPartitionedCall/sequential_5/bidirectional_8/forward_lstm_8/PartitionedCall/MatMul_1"], "attr": {"T": {"type": "DT_FLOAT"}}}, {"name": "StatefulPartitionedCall/sequential_5/bidirectional_8/forward_lstm_8/PartitionedCall/while/merge/_56", "op": "Merge", "input": ["StatefulPartitionedCall/sequential_5/bidirectional_8/forward_lstm_8/PartitionedCall/while/enter/_43", "StatefulPartitionedCall/sequential_5/bidirectional_8/forward_lstm_8/PartitionedCall/while/next_iteration/_98"], "attr": {"T": {"type": "DT_VARIANT"}, "N": {"i": "2"}}}, {"name": "StatefulPartitionedCall/sequential_5/bidirectional_8/forward_lstm_8/PartitionedCall/while/cond/_38/while/Less", "op": "Less", "input": ["StatefulPartitionedCall/sequential_5/bidirectional_8/forward_lstm_8/PartitionedCall/while/merge/_55", "StatefulPartitionedCall/sequential_5/bidirectional_8/forward_lstm_8/PartitionedCall/while/merge/_60", "^StatefulPartitionedCall/sequential_5/bidirectional_8/forward_lstm_8/PartitionedCall/while/merge/_53"], "attr": {"T": {"type": "DT_INT32"}}}, {"name": "StatefulPartitionedCall/sequential_5/bidirectional_8/backward_lstm_8/PartitionedCall/while/merge/_129", "op": "Merge", "input": ["StatefulPartitionedCall/sequential_5/bidirectional_8/backward_lstm_8/PartitionedCall/while/enter/_116", "StatefulPartitionedCall/sequential_5/bidirectional_8/backward_lstm_8/PartitionedCall/while/next_iteration/_171"], "attr": {"N": {"i": "2"}, "T": {"type": "DT_FLOAT"}}}, {"name": "StatefulPartitionedCall/sequential_5/bidirectional_8/backward_lstm_8/PartitionedCall/while/merge/_128", "op": "Merge", "input": ["StatefulPartitionedCall/sequential_5/bidirectional_8/backward_lstm_8/PartitionedCall/while/enter/_115", "StatefulPartitionedCall/sequential_5/bidirectional_8/backward_lstm_8/PartitionedCall/while/next_iteration/_170"], "attr": {"N": {"i": "2"}, "T": {"type": "DT_FLOAT"}}}, {"name": "StatefulPartitionedCall/sequential_5/bidirectional_8/backward_lstm_8/PartitionedCall/add", "op": "AddV2", "input": ["StatefulPartitionedCall/sequential_5/bidirectional_8/backward_lstm_8/PartitionedCall/MatMul", "StatefulPartitionedCall/sequential_5/bidirectional_8/backward_lstm_8/PartitionedCall/MatMul_1"], "attr": {"T": {"type": "DT_FLOAT"}}}, {"name": "StatefulPartitionedCall/sequential_5/bidirectional_8/backward_lstm_8/PartitionedCall/while/merge/_126", "op": "Merge", "input": ["StatefulPartitionedCall/sequential_5/bidirectional_8/backward_lstm_8/PartitionedCall/while/enter/_113", "StatefulPartitionedCall/sequential_5/bidirectional_8/backward_lstm_8/PartitionedCall/while/next_iteration/_168"], "attr": {"N": {"i": "2"}, "T": {"type": "DT_VARIANT"}}}, {"name": "StatefulPartitionedCall/sequential_5/bidirectional_8/backward_lstm_8/PartitionedCall/while/cond/_108/while/Less", "op": "Less", "input": ["StatefulPartitionedCall/sequential_5/bidirectional_8/backward_lstm_8/PartitionedCall/while/merge/_125", "StatefulPartitionedCall/sequential_5/bidirectional_8/backward_lstm_8/PartitionedCall/while/merge/_130", "^StatefulPartitionedCall/sequential_5/bidirectional_8/backward_lstm_8/PartitionedCall/while/merge/_123"], "attr": {"T": {"type": "DT_INT32"}}}, {"name": "StatefulPartitionedCall/sequential_5/bidirectional_8/forward_lstm_8/PartitionedCall/BiasAdd", "op": "BiasAdd", "input": ["StatefulPartitionedCall/sequential_5/bidirectional_8/forward_lstm_8/PartitionedCall/add", "StatefulPartitionedCall/sequential_5/bidirectional_8/forward_lstm_8/Read_2/ReadVariableOp"], "attr": {"data_format": {"s": "TkhXQw=="}, "T": {"type": "DT_FLOAT"}}}, {"name": "StatefulPartitionedCall/sequential_5/bidirectional_8/forward_lstm_8/PartitionedCall/while/LoopCond/_66", "op": "LoopCond", "input": ["StatefulPartitionedCall/sequential_5/bidirectional_8/forward_lstm_8/PartitionedCall/while/cond/_38/while/Less"]}, {"name": "StatefulPartitionedCall/sequential_5/bidirectional_8/backward_lstm_8/PartitionedCall/BiasAdd", "op": "BiasAdd", "input": ["StatefulPartitionedCall/sequential_5/bidirectional_8/backward_lstm_8/PartitionedCall/add", "StatefulPartitionedCall/sequential_5/bidirectional_8/backward_lstm_8/Read_2/ReadVariableOp"], "attr": {"data_format": {"s": "TkhXQw=="}, "T": {"type": "DT_FLOAT"}}}, {"name": "StatefulPartitionedCall/sequential_5/bidirectional_8/backward_lstm_8/PartitionedCall/while/LoopCond/_136", "op": "LoopCond", "input": ["StatefulPartitionedCall/sequential_5/bidirectional_8/backward_lstm_8/PartitionedCall/while/cond/_108/while/Less"]}, {"name": "StatefulPartitionedCall/sequential_5/bidirectional_8/forward_lstm_8/PartitionedCall/split", "op": "Split", "input": ["StatefulPartitionedCall/sequential_5/bidirectional_8/forward_lstm_8/PartitionedCall/split/split_dim", "StatefulPartitionedCall/sequential_5/bidirectional_8/forward_lstm_8/PartitionedCall/BiasAdd"], "attr": {"num_split": {"i": "4"}, "T": {"type": "DT_FLOAT"}}}, {"name": "StatefulPartitionedCall/sequential_5/bidirectional_8/forward_lstm_8/PartitionedCall/while/Func/StatefulPartitionedCall/sequential_5/bidirectional_8/forward_lstm_8/PartitionedCall/input/_16_switch/_73", "op": "Switch", "input": ["StatefulPartitionedCall/sequential_5/bidirectional_8/forward_lstm_8/PartitionedCall/while/merge/_59", "StatefulPartitionedCall/sequential_5/bidirectional_8/forward_lstm_8/PartitionedCall/while/LoopCond/_66"], "attr": {"T": {"type": "DT_FLOAT"}}}, {"name": "StatefulPartitionedCall/sequential_5/bidirectional_8/forward_lstm_8/PartitionedCall/while/StatefulPartitionedCall/sequential_5/bidirectional_8/forward_lstm_8/PartitionedCall/TensorArrayUnstack/TensorListFromTensor_switch/_75", "op": "Switch", "input": ["StatefulPartitionedCall/sequential_5/bidirectional_8/forward_lstm_8/PartitionedCall/while/merge/_61", "StatefulPartitionedCall/sequential_5/bidirectional_8/forward_lstm_8/PartitionedCall/while/LoopCond/_66"], "attr": {"T": {"type": "DT_VARIANT"}}}, {"name": "StatefulPartitionedCall/sequential_5/bidirectional_8/forward_lstm_8/PartitionedCall/while/Func/StatefulPartitionedCall/sequential_5/bidirectional_8/forward_lstm_8/PartitionedCall/input/_17_switch/_77", "op": "Switch", "input": ["StatefulPartitionedCall/sequential_5/bidirectional_8/forward_lstm_8/PartitionedCall/while/merge/_63", "StatefulPartitionedCall/sequential_5/bidirectional_8/forward_lstm_8/PartitionedCall/while/LoopCond/_66"], "attr": {"T": {"type": "DT_FLOAT"}}}, {"name": "StatefulPartitionedCall/sequential_5/bidirectional_8/forward_lstm_8/PartitionedCall/while/StatefulPartitionedCall/sequential_5/bidirectional_8/forward_lstm_8/PartitionedCall/TensorArrayUnstack_1/TensorListFromTensor_switch/_76", "op": "Switch", "input": ["StatefulPartitionedCall/sequential_5/bidirectional_8/forward_lstm_8/PartitionedCall/while/merge/_62", "StatefulPartitionedCall/sequential_5/bidirectional_8/forward_lstm_8/PartitionedCall/while/LoopCond/_66"], "attr": {"T": {"type": "DT_VARIANT"}}}, {"name": "StatefulPartitionedCall/sequential_5/bidirectional_8/forward_lstm_8/PartitionedCall/while/Func/StatefulPartitionedCall/sequential_5/bidirectional_8/forward_lstm_8/PartitionedCall/input/_15_switch/_72", "op": "Switch", "input": ["StatefulPartitionedCall/sequential_5/bidirectional_8/forward_lstm_8/PartitionedCall/while/merge/_58", "StatefulPartitionedCall/sequential_5/bidirectional_8/forward_lstm_8/PartitionedCall/while/LoopCond/_66"], "attr": {"T": {"type": "DT_FLOAT"}}}, {"name": "StatefulPartitionedCall/sequential_5/bidirectional_8/forward_lstm_8/PartitionedCall/while/Func/StatefulPartitionedCall/sequential_5/bidirectional_8/forward_lstm_8/PartitionedCall/input/_18_switch/_78", "op": "Switch", "input": ["StatefulPartitionedCall/sequential_5/bidirectional_8/forward_lstm_8/PartitionedCall/while/merge/_64", "StatefulPartitionedCall/sequential_5/bidirectional_8/forward_lstm_8/PartitionedCall/while/LoopCond/_66"], "attr": {"T": {"type": "DT_FLOAT"}}}, {"name": "StatefulPartitionedCall/sequential_5/bidirectional_8/forward_lstm_8/PartitionedCall/while/Func/StatefulPartitionedCall/sequential_5/bidirectional_8/forward_lstm_8/PartitionedCall/input/_19_switch/_79", "op": "Switch", "input": ["StatefulPartitionedCall/sequential_5/bidirectional_8/forward_lstm_8/PartitionedCall/while/merge/_65", "StatefulPartitionedCall/sequential_5/bidirectional_8/forward_lstm_8/PartitionedCall/while/LoopCond/_66"], "attr": {"T": {"type": "DT_FLOAT"}}}, {"name": "StatefulPartitionedCall/sequential_5/bidirectional_8/forward_lstm_8/PartitionedCall/while/StatefulPartitionedCall/sequential_5/bidirectional_8/forward_lstm_8/PartitionedCall/time_switch/_69", "op": "Switch", "input": ["StatefulPartitionedCall/sequential_5/bidirectional_8/forward_lstm_8/PartitionedCall/while/merge/_55", "StatefulPartitionedCall/sequential_5/bidirectional_8/forward_lstm_8/PartitionedCall/while/LoopCond/_66"], "attr": {"T": {"type": "DT_INT32"}}}, {"name": "StatefulPartitionedCall/sequential_5/bidirectional_8/forward_lstm_8/PartitionedCall/while/StatefulPartitionedCall/sequential_5/bidirectional_8/forward_lstm_8/PartitionedCall/while/loop_counter_switch/_67", "op": "Switch", "input": ["StatefulPartitionedCall/sequential_5/bidirectional_8/forward_lstm_8/PartitionedCall/while/merge/_53", "StatefulPartitionedCall/sequential_5/bidirectional_8/forward_lstm_8/PartitionedCall/while/LoopCond/_66"], "attr": {"T": {"type": "DT_INT32"}}}, {"name": "StatefulPartitionedCall/sequential_5/bidirectional_8/forward_lstm_8/PartitionedCall/while/StatefulPartitionedCall/sequential_5/bidirectional_8/forward_lstm_8/PartitionedCall/TensorArrayV2_1_switch/_70", "op": "Switch", "input": ["StatefulPartitionedCall/sequential_5/bidirectional_8/forward_lstm_8/PartitionedCall/while/merge/_56", "StatefulPartitionedCall/sequential_5/bidirectional_8/forward_lstm_8/PartitionedCall/while/LoopCond/_66"], "attr": {"T": {"type": "DT_VARIANT"}}}, {"name": "StatefulPartitionedCall/sequential_5/bidirectional_8/forward_lstm_8/PartitionedCall/while/StatefulPartitionedCall/sequential_5/bidirectional_8/forward_lstm_8/PartitionedCall/strided_slice_switch/_74", "op": "Switch", "input": ["StatefulPartitionedCall/sequential_5/bidirectional_8/forward_lstm_8/PartitionedCall/while/merge/_60", "StatefulPartitionedCall/sequential_5/bidirectional_8/forward_lstm_8/PartitionedCall/while/LoopCond/_66"], "attr": {"T": {"type": "DT_INT32"}}}, {"name": "StatefulPartitionedCall/sequential_5/bidirectional_8/backward_lstm_8/PartitionedCall/split", "op": "Split", "input": ["StatefulPartitionedCall/sequential_5/bidirectional_8/backward_lstm_8/PartitionedCall/split/split_dim", "StatefulPartitionedCall/sequential_5/bidirectional_8/backward_lstm_8/PartitionedCall/BiasAdd"], "attr": {"num_split": {"i": "4"}, "T": {"type": "DT_FLOAT"}}}, {"name": "StatefulPartitionedCall/sequential_5/bidirectional_8/backward_lstm_8/PartitionedCall/while/Func/StatefulPartitionedCall/sequential_5/bidirectional_8/backward_lstm_8/PartitionedCall/input/_28_switch/_143", "op": "Switch", "input": ["StatefulPartitionedCall/sequential_5/bidirectional_8/backward_lstm_8/PartitionedCall/while/merge/_129", "StatefulPartitionedCall/sequential_5/bidirectional_8/backward_lstm_8/PartitionedCall/while/LoopCond/_136"], "attr": {"T": {"type": "DT_FLOAT"}}}, {"name": "StatefulPartitionedCall/sequential_5/bidirectional_8/backward_lstm_8/PartitionedCall/while/StatefulPartitionedCall/sequential_5/bidirectional_8/backward_lstm_8/PartitionedCall/TensorArrayUnstack/TensorListFromTensor_switch/_145", "op": "Switch", "input": ["StatefulPartitionedCall/sequential_5/bidirectional_8/backward_lstm_8/PartitionedCall/while/merge/_131", "StatefulPartitionedCall/sequential_5/bidirectional_8/backward_lstm_8/PartitionedCall/while/LoopCond/_136"], "attr": {"T": {"type": "DT_VARIANT"}}}, {"name": "StatefulPartitionedCall/sequential_5/bidirectional_8/backward_lstm_8/PartitionedCall/while/Func/StatefulPartitionedCall/sequential_5/bidirectional_8/backward_lstm_8/PartitionedCall/input/_29_switch/_147", "op": "Switch", "input": ["StatefulPartitionedCall/sequential_5/bidirectional_8/backward_lstm_8/PartitionedCall/while/merge/_133", "StatefulPartitionedCall/sequential_5/bidirectional_8/backward_lstm_8/PartitionedCall/while/LoopCond/_136"], "attr": {"T": {"type": "DT_FLOAT"}}}, {"name": "StatefulPartitionedCall/sequential_5/bidirectional_8/backward_lstm_8/PartitionedCall/while/StatefulPartitionedCall/sequential_5/bidirectional_8/backward_lstm_8/PartitionedCall/TensorArrayUnstack_1/TensorListFromTensor_switch/_146", "op": "Switch", "input": ["StatefulPartitionedCall/sequential_5/bidirectional_8/backward_lstm_8/PartitionedCall/while/merge/_132", "StatefulPartitionedCall/sequential_5/bidirectional_8/backward_lstm_8/PartitionedCall/while/LoopCond/_136"], "attr": {"T": {"type": "DT_VARIANT"}}}, {"name": "StatefulPartitionedCall/sequential_5/bidirectional_8/backward_lstm_8/PartitionedCall/while/Func/StatefulPartitionedCall/sequential_5/bidirectional_8/backward_lstm_8/PartitionedCall/input/_27_switch/_142", "op": "Switch", "input": ["StatefulPartitionedCall/sequential_5/bidirectional_8/backward_lstm_8/PartitionedCall/while/merge/_128", "StatefulPartitionedCall/sequential_5/bidirectional_8/backward_lstm_8/PartitionedCall/while/LoopCond/_136"], "attr": {"T": {"type": "DT_FLOAT"}}}, {"name": "StatefulPartitionedCall/sequential_5/bidirectional_8/backward_lstm_8/PartitionedCall/while/Func/StatefulPartitionedCall/sequential_5/bidirectional_8/backward_lstm_8/PartitionedCall/input/_30_switch/_148", "op": "Switch", "input": ["StatefulPartitionedCall/sequential_5/bidirectional_8/backward_lstm_8/PartitionedCall/while/merge/_134", "StatefulPartitionedCall/sequential_5/bidirectional_8/backward_lstm_8/PartitionedCall/while/LoopCond/_136"], "attr": {"T": {"type": "DT_FLOAT"}}}, {"name": "StatefulPartitionedCall/sequential_5/bidirectional_8/backward_lstm_8/PartitionedCall/while/Func/StatefulPartitionedCall/sequential_5/bidirectional_8/backward_lstm_8/PartitionedCall/input/_31_switch/_149", "op": "Switch", "input": ["StatefulPartitionedCall/sequential_5/bidirectional_8/backward_lstm_8/PartitionedCall/while/merge/_135", "StatefulPartitionedCall/sequential_5/bidirectional_8/backward_lstm_8/PartitionedCall/while/LoopCond/_136"], "attr": {"T": {"type": "DT_FLOAT"}}}, {"name": "StatefulPartitionedCall/sequential_5/bidirectional_8/backward_lstm_8/PartitionedCall/while/StatefulPartitionedCall/sequential_5/bidirectional_8/backward_lstm_8/PartitionedCall/time_switch/_139", "op": "Switch", "input": ["StatefulPartitionedCall/sequential_5/bidirectional_8/backward_lstm_8/PartitionedCall/while/merge/_125", "StatefulPartitionedCall/sequential_5/bidirectional_8/backward_lstm_8/PartitionedCall/while/LoopCond/_136"], "attr": {"T": {"type": "DT_INT32"}}}, {"name": "StatefulPartitionedCall/sequential_5/bidirectional_8/backward_lstm_8/PartitionedCall/while/StatefulPartitionedCall/sequential_5/bidirectional_8/backward_lstm_8/PartitionedCall/while/loop_counter_switch/_137", "op": "Switch", "input": ["StatefulPartitionedCall/sequential_5/bidirectional_8/backward_lstm_8/PartitionedCall/while/merge/_123", "StatefulPartitionedCall/sequential_5/bidirectional_8/backward_lstm_8/PartitionedCall/while/LoopCond/_136"], "attr": {"T": {"type": "DT_INT32"}}}, {"name": "StatefulPartitionedCall/sequential_5/bidirectional_8/backward_lstm_8/PartitionedCall/while/StatefulPartitionedCall/sequential_5/bidirectional_8/backward_lstm_8/PartitionedCall/TensorArrayV2_1_switch/_140", "op": "Switch", "input": ["StatefulPartitionedCall/sequential_5/bidirectional_8/backward_lstm_8/PartitionedCall/while/merge/_126", "StatefulPartitionedCall/sequential_5/bidirectional_8/backward_lstm_8/PartitionedCall/while/LoopCond/_136"], "attr": {"T": {"type": "DT_VARIANT"}}}, {"name": "StatefulPartitionedCall/sequential_5/bidirectional_8/backward_lstm_8/PartitionedCall/while/StatefulPartitionedCall/sequential_5/bidirectional_8/backward_lstm_8/PartitionedCall/strided_slice_switch/_144", "op": "Switch", "input": ["StatefulPartitionedCall/sequential_5/bidirectional_8/backward_lstm_8/PartitionedCall/while/merge/_130", "StatefulPartitionedCall/sequential_5/bidirectional_8/backward_lstm_8/PartitionedCall/while/LoopCond/_136"], "attr": {"T": {"type": "DT_INT32"}}}, {"name": "StatefulPartitionedCall/sequential_5/bidirectional_8/forward_lstm_8/PartitionedCall/Sigmoid", "op": "Sigmoid", "input": ["StatefulPartitionedCall/sequential_5/bidirectional_8/forward_lstm_8/PartitionedCall/split"], "attr": {"T": {"type": "DT_FLOAT"}}}, {"name": "StatefulPartitionedCall/sequential_5/bidirectional_8/forward_lstm_8/PartitionedCall/Sigmoid_1", "op": "Sigmoid", "input": ["StatefulPartitionedCall/sequential_5/bidirectional_8/forward_lstm_8/PartitionedCall/split:1"], "attr": {"T": {"type": "DT_FLOAT"}}}, {"name": "StatefulPartitionedCall/sequential_5/bidirectional_8/forward_lstm_8/PartitionedCall/Tanh", "op": "Tanh", "input": ["StatefulPartitionedCall/sequential_5/bidirectional_8/forward_lstm_8/PartitionedCall/split:2"], "attr": {"T": {"type": "DT_FLOAT"}}}, {"name": "StatefulPartitionedCall/sequential_5/bidirectional_8/forward_lstm_8/PartitionedCall/Sigmoid_2", "op": "Sigmoid", "input": ["StatefulPartitionedCall/sequential_5/bidirectional_8/forward_lstm_8/PartitionedCall/split:3"], "attr": {"T": {"type": "DT_FLOAT"}}}, {"name": "StatefulPartitionedCall/sequential_5/bidirectional_8/forward_lstm_8/PartitionedCall/while/loop_body_control/_80", "op": "Identity", "input": ["StatefulPartitionedCall/sequential_5/bidirectional_8/forward_lstm_8/PartitionedCall/while/StatefulPartitionedCall/sequential_5/bidirectional_8/forward_lstm_8/PartitionedCall/while/loop_counter_switch/_67:1"], "attr": {"T": {"type": "DT_INT32"}}}, {"name": "StatefulPartitionedCall/sequential_5/bidirectional_8/forward_lstm_8/PartitionedCall/while/exit/_84", "op": "Exit", "input": ["StatefulPartitionedCall/sequential_5/bidirectional_8/forward_lstm_8/PartitionedCall/while/StatefulPartitionedCall/sequential_5/bidirectional_8/forward_lstm_8/PartitionedCall/TensorArrayV2_1_switch/_70"], "attr": {"T": {"type": "DT_VARIANT"}}}, {"name": "StatefulPartitionedCall/sequential_5/bidirectional_8/backward_lstm_8/PartitionedCall/Sigmoid", "op": "Sigmoid", "input": ["StatefulPartitionedCall/sequential_5/bidirectional_8/backward_lstm_8/PartitionedCall/split"], "attr": {"T": {"type": "DT_FLOAT"}}}, {"name": "StatefulPartitionedCall/sequential_5/bidirectional_8/backward_lstm_8/PartitionedCall/Sigmoid_1", "op": "Sigmoid", "input": ["StatefulPartitionedCall/sequential_5/bidirectional_8/backward_lstm_8/PartitionedCall/split:1"], "attr": {"T": {"type": "DT_FLOAT"}}}, {"name": "StatefulPartitionedCall/sequential_5/bidirectional_8/backward_lstm_8/PartitionedCall/Tanh", "op": "Tanh", "input": ["StatefulPartitionedCall/sequential_5/bidirectional_8/backward_lstm_8/PartitionedCall/split:2"], "attr": {"T": {"type": "DT_FLOAT"}}}, {"name": "StatefulPartitionedCall/sequential_5/bidirectional_8/backward_lstm_8/PartitionedCall/Sigmoid_2", "op": "Sigmoid", "input": ["StatefulPartitionedCall/sequential_5/bidirectional_8/backward_lstm_8/PartitionedCall/split:3"], "attr": {"T": {"type": "DT_FLOAT"}}}, {"name": "StatefulPartitionedCall/sequential_5/bidirectional_8/backward_lstm_8/PartitionedCall/while/loop_body_control/_150", "op": "Identity", "input": ["StatefulPartitionedCall/sequential_5/bidirectional_8/backward_lstm_8/PartitionedCall/while/StatefulPartitionedCall/sequential_5/bidirectional_8/backward_lstm_8/PartitionedCall/while/loop_counter_switch/_137:1"], "attr": {"T": {"type": "DT_INT32"}}}, {"name": "StatefulPartitionedCall/sequential_5/bidirectional_8/backward_lstm_8/PartitionedCall/while/exit/_154", "op": "Exit", "input": ["StatefulPartitionedCall/sequential_5/bidirectional_8/backward_lstm_8/PartitionedCall/while/StatefulPartitionedCall/sequential_5/bidirectional_8/backward_lstm_8/PartitionedCall/TensorArrayV2_1_switch/_140"], "attr": {"T": {"type": "DT_VARIANT"}}}, {"name": "StatefulPartitionedCall/sequential_5/bidirectional_8/forward_lstm_8/PartitionedCall/mul", "op": "Mul", "input": ["StatefulPartitionedCall/sequential_5/bidirectional_8/forward_lstm_8/PartitionedCall/Sigmoid_1", "StatefulPartitionedCall/sequential_5/bidirectional_8/forward_lstm_8/zeros_1"], "attr": {"T": {"type": "DT_FLOAT"}}}, {"name": "StatefulPartitionedCall/sequential_5/bidirectional_8/forward_lstm_8/PartitionedCall/mul_1", "op": "Mul", "input": ["StatefulPartitionedCall/sequential_5/bidirectional_8/forward_lstm_8/PartitionedCall/Sigmoid", "StatefulPartitionedCall/sequential_5/bidirectional_8/forward_lstm_8/PartitionedCall/Tanh"], "attr": {"T": {"type": "DT_FLOAT"}}}, {"name": "StatefulPartitionedCall/sequential_5/bidirectional_8/forward_lstm_8/PartitionedCall/while/body/_39/while/split/split_dim", "op": "Const", "input": ["^StatefulPartitionedCall/sequential_5/bidirectional_8/forward_lstm_8/PartitionedCall/while/loop_body_control/_80"], "attr": {"value": {"tensor": {"dtype": "DT_INT32", "tensorShape": {}}}, "dtype": {"type": "DT_INT32"}}}, {"name": "StatefulPartitionedCall/sequential_5/bidirectional_8/forward_lstm_8/PartitionedCall/while/next_iteration/_103", "op": "NextIteration", "input": ["StatefulPartitionedCall/sequential_5/bidirectional_8/forward_lstm_8/PartitionedCall/while/StatefulPartitionedCall/sequential_5/bidirectional_8/forward_lstm_8/PartitionedCall/TensorArrayUnstack/TensorListFromTensor_switch/_75:1", "^StatefulPartitionedCall/sequential_5/bidirectional_8/forward_lstm_8/PartitionedCall/while/loop_body_control/_80"], "attr": {"T": {"type": "DT_VARIANT"}}}, {"name": "StatefulPartitionedCall/sequential_5/bidirectional_8/forward_lstm_8/PartitionedCall/while/body/_39/while/TensorArrayV2Read/TensorListGetItem/element_shape", "op": "Const", "input": ["^StatefulPartitionedCall/sequential_5/bidirectional_8/forward_lstm_8/PartitionedCall/while/loop_body_control/_80"], "attr": {"dtype": {"type": "DT_INT32"}, "value": {"tensor": {"dtype": "DT_INT32", "tensorShape": {"dim": [{"size": "2"}]}}}}}, {"name": "StatefulPartitionedCall/sequential_5/bidirectional_8/forward_lstm_8/PartitionedCall/while/next_iteration/_105", "op": "NextIteration", "input": ["StatefulPartitionedCall/sequential_5/bidirectional_8/forward_lstm_8/PartitionedCall/while/Func/StatefulPartitionedCall/sequential_5/bidirectional_8/forward_lstm_8/PartitionedCall/input/_17_switch/_77:1", "^StatefulPartitionedCall/sequential_5/bidirectional_8/forward_lstm_8/PartitionedCall/while/loop_body_control/_80"], "attr": {"T": {"type": "DT_FLOAT"}}}, {"name": "StatefulPartitionedCall/sequential_5/bidirectional_8/forward_lstm_8/PartitionedCall/while/next_iteration/_104", "op": "NextIteration", "input": ["StatefulPartitionedCall/sequential_5/bidirectional_8/forward_lstm_8/PartitionedCall/while/StatefulPartitionedCall/sequential_5/bidirectional_8/forward_lstm_8/PartitionedCall/TensorArrayUnstack_1/TensorListFromTensor_switch/_76:1", "^StatefulPartitionedCall/sequential_5/bidirectional_8/forward_lstm_8/PartitionedCall/while/loop_body_control/_80"], "attr": {"T": {"type": "DT_VARIANT"}}}, {"name": "StatefulPartitionedCall/sequential_5/bidirectional_8/forward_lstm_8/PartitionedCall/while/body/_39/while/TensorArrayV2Read_1/TensorListGetItem/element_shape", "op": "Const", "input": ["^StatefulPartitionedCall/sequential_5/bidirectional_8/forward_lstm_8/PartitionedCall/while/loop_body_control/_80"], "attr": {"value": {"tensor": {"dtype": "DT_INT32", "tensorShape": {"dim": [{"size": "2"}]}}}, "dtype": {"type": "DT_INT32"}}}, {"name": "StatefulPartitionedCall/sequential_5/bidirectional_8/forward_lstm_8/PartitionedCall/while/next_iteration/_106", "op": "NextIteration", "input": ["StatefulPartitionedCall/sequential_5/bidirectional_8/forward_lstm_8/PartitionedCall/while/Func/StatefulPartitionedCall/sequential_5/bidirectional_8/forward_lstm_8/PartitionedCall/input/_18_switch/_78:1", "^StatefulPartitionedCall/sequential_5/bidirectional_8/forward_lstm_8/PartitionedCall/while/loop_body_control/_80"], "attr": {"T": {"type": "DT_FLOAT"}}}, {"name": "StatefulPartitionedCall/sequential_5/bidirectional_8/forward_lstm_8/PartitionedCall/while/body/_39/while/MatMul_1", "op": "MatMul", "input": ["StatefulPartitionedCall/sequential_5/bidirectional_8/forward_lstm_8/PartitionedCall/while/Func/StatefulPartitionedCall/sequential_5/bidirectional_8/forward_lstm_8/PartitionedCall/input/_15_switch/_72:1", "StatefulPartitionedCall/sequential_5/bidirectional_8/forward_lstm_8/PartitionedCall/while/Func/StatefulPartitionedCall/sequential_5/bidirectional_8/forward_lstm_8/PartitionedCall/input/_18_switch/_78:1", "^StatefulPartitionedCall/sequential_5/bidirectional_8/forward_lstm_8/PartitionedCall/while/loop_body_control/_80"], "device": "/device:CPU:0", "attr": {"transpose_b": {"b": false}, "transpose_a": {"b": false}, "T": {"type": "DT_FLOAT"}}}, {"name": "StatefulPartitionedCall/sequential_5/bidirectional_8/forward_lstm_8/PartitionedCall/while/next_iteration/_107", "op": "NextIteration", "input": ["StatefulPartitionedCall/sequential_5/bidirectional_8/forward_lstm_8/PartitionedCall/while/Func/StatefulPartitionedCall/sequential_5/bidirectional_8/forward_lstm_8/PartitionedCall/input/_19_switch/_79:1", "^StatefulPartitionedCall/sequential_5/bidirectional_8/forward_lstm_8/PartitionedCall/while/loop_body_control/_80"], "attr": {"T": {"type": "DT_FLOAT"}}}, {"name": "Func/StatefulPartitionedCall/sequential_5/bidirectional_8/forward_lstm_8/PartitionedCall/while/body/_39/input/_196", "op": "Identity", "input": ["StatefulPartitionedCall/sequential_5/bidirectional_8/forward_lstm_8/PartitionedCall/while/StatefulPartitionedCall/sequential_5/bidirectional_8/forward_lstm_8/PartitionedCall/time_switch/_69:1", "^StatefulPartitionedCall/sequential_5/bidirectional_8/forward_lstm_8/PartitionedCall/while/loop_body_control/_80"], "attr": {"T": {"type": "DT_INT32"}}}, {"name": "StatefulPartitionedCall/sequential_5/bidirectional_8/forward_lstm_8/PartitionedCall/while/body/_39/while/add_2/y", "op": "Const", "input": ["^StatefulPartitionedCall/sequential_5/bidirectional_8/forward_lstm_8/PartitionedCall/while/loop_body_control/_80"], "attr": {"value": {"tensor": {"dtype": "DT_INT32", "tensorShape": {}}}, "dtype": {"type": "DT_INT32"}}}, {"name": "StatefulPartitionedCall/sequential_5/bidirectional_8/forward_lstm_8/PartitionedCall/while/body/_39/while/add_3/y", "op": "Const", "input": ["^StatefulPartitionedCall/sequential_5/bidirectional_8/forward_lstm_8/PartitionedCall/while/loop_body_control/_80"], "attr": {"value": {"tensor": {"dtype": "DT_INT32", "tensorShape": {}}}, "dtype": {"type": "DT_INT32"}}}, {"name": "StatefulPartitionedCall/sequential_5/bidirectional_8/forward_lstm_8/PartitionedCall/while/next_iteration/_102", "op": "NextIteration", "input": ["StatefulPartitionedCall/sequential_5/bidirectional_8/forward_lstm_8/PartitionedCall/while/StatefulPartitionedCall/sequential_5/bidirectional_8/forward_lstm_8/PartitionedCall/strided_slice_switch/_74:1", "^StatefulPartitionedCall/sequential_5/bidirectional_8/forward_lstm_8/PartitionedCall/while/loop_body_control/_80"], "attr": {"T": {"type": "DT_INT32"}}}, {"name": "StatefulPartitionedCall/sequential_5/bidirectional_8/forward_lstm_8/PartitionedCall/TensorArrayV2Stack/TensorListStack", "op": "TensorListStack", "input": ["StatefulPartitionedCall/sequential_5/bidirectional_8/forward_lstm_8/PartitionedCall/while/exit/_84", "StatefulPartitionedCall/sequential_5/bidirectional_8/forward_lstm_8/PartitionedCall/TensorArrayV2Stack/TensorListStack/element_shape"], "attr": {"element_dtype": {"type": "DT_FLOAT"}, "num_elements": {"i": "-1"}}}, {"name": "StatefulPartitionedCall/sequential_5/bidirectional_8/backward_lstm_8/PartitionedCall/mul", "op": "Mul", "input": ["StatefulPartitionedCall/sequential_5/bidirectional_8/backward_lstm_8/PartitionedCall/Sigmoid_1", "StatefulPartitionedCall/sequential_5/bidirectional_8/backward_lstm_8/zeros_1"], "attr": {"T": {"type": "DT_FLOAT"}}}, {"name": "StatefulPartitionedCall/sequential_5/bidirectional_8/backward_lstm_8/PartitionedCall/mul_1", "op": "Mul", "input": ["StatefulPartitionedCall/sequential_5/bidirectional_8/backward_lstm_8/PartitionedCall/Sigmoid", "StatefulPartitionedCall/sequential_5/bidirectional_8/backward_lstm_8/PartitionedCall/Tanh"], "attr": {"T": {"type": "DT_FLOAT"}}}, {"name": "StatefulPartitionedCall/sequential_5/bidirectional_8/backward_lstm_8/PartitionedCall/while/body/_109/while/split/split_dim", "op": "Const", "input": ["^StatefulPartitionedCall/sequential_5/bidirectional_8/backward_lstm_8/PartitionedCall/while/loop_body_control/_150"], "attr": {"dtype": {"type": "DT_INT32"}, "value": {"tensor": {"dtype": "DT_INT32", "tensorShape": {}}}}}, {"name": "StatefulPartitionedCall/sequential_5/bidirectional_8/backward_lstm_8/PartitionedCall/while/next_iteration/_173", "op": "NextIteration", "input": ["StatefulPartitionedCall/sequential_5/bidirectional_8/backward_lstm_8/PartitionedCall/while/StatefulPartitionedCall/sequential_5/bidirectional_8/backward_lstm_8/PartitionedCall/TensorArrayUnstack/TensorListFromTensor_switch/_145:1", "^StatefulPartitionedCall/sequential_5/bidirectional_8/backward_lstm_8/PartitionedCall/while/loop_body_control/_150"], "attr": {"T": {"type": "DT_VARIANT"}}}, {"name": "StatefulPartitionedCall/sequential_5/bidirectional_8/backward_lstm_8/PartitionedCall/while/body/_109/while/TensorArrayV2Read/TensorListGetItem/element_shape", "op": "Const", "input": ["^StatefulPartitionedCall/sequential_5/bidirectional_8/backward_lstm_8/PartitionedCall/while/loop_body_control/_150"], "attr": {"dtype": {"type": "DT_INT32"}, "value": {"tensor": {"dtype": "DT_INT32", "tensorShape": {"dim": [{"size": "2"}]}}}}}, {"name": "StatefulPartitionedCall/sequential_5/bidirectional_8/backward_lstm_8/PartitionedCall/while/next_iteration/_175", "op": "NextIteration", "input": ["StatefulPartitionedCall/sequential_5/bidirectional_8/backward_lstm_8/PartitionedCall/while/Func/StatefulPartitionedCall/sequential_5/bidirectional_8/backward_lstm_8/PartitionedCall/input/_29_switch/_147:1", "^StatefulPartitionedCall/sequential_5/bidirectional_8/backward_lstm_8/PartitionedCall/while/loop_body_control/_150"], "attr": {"T": {"type": "DT_FLOAT"}}}, {"name": "StatefulPartitionedCall/sequential_5/bidirectional_8/backward_lstm_8/PartitionedCall/while/next_iteration/_174", "op": "NextIteration", "input": ["StatefulPartitionedCall/sequential_5/bidirectional_8/backward_lstm_8/PartitionedCall/while/StatefulPartitionedCall/sequential_5/bidirectional_8/backward_lstm_8/PartitionedCall/TensorArrayUnstack_1/TensorListFromTensor_switch/_146:1", "^StatefulPartitionedCall/sequential_5/bidirectional_8/backward_lstm_8/PartitionedCall/while/loop_body_control/_150"], "attr": {"T": {"type": "DT_VARIANT"}}}, {"name": "StatefulPartitionedCall/sequential_5/bidirectional_8/backward_lstm_8/PartitionedCall/while/body/_109/while/TensorArrayV2Read_1/TensorListGetItem/element_shape", "op": "Const", "input": ["^StatefulPartitionedCall/sequential_5/bidirectional_8/backward_lstm_8/PartitionedCall/while/loop_body_control/_150"], "attr": {"value": {"tensor": {"dtype": "DT_INT32", "tensorShape": {"dim": [{"size": "2"}]}}}, "dtype": {"type": "DT_INT32"}}}, {"name": "StatefulPartitionedCall/sequential_5/bidirectional_8/backward_lstm_8/PartitionedCall/while/next_iteration/_176", "op": "NextIteration", "input": ["StatefulPartitionedCall/sequential_5/bidirectional_8/backward_lstm_8/PartitionedCall/while/Func/StatefulPartitionedCall/sequential_5/bidirectional_8/backward_lstm_8/PartitionedCall/input/_30_switch/_148:1", "^StatefulPartitionedCall/sequential_5/bidirectional_8/backward_lstm_8/PartitionedCall/while/loop_body_control/_150"], "attr": {"T": {"type": "DT_FLOAT"}}}, {"name": "StatefulPartitionedCall/sequential_5/bidirectional_8/backward_lstm_8/PartitionedCall/while/body/_109/while/MatMul_1", "op": "MatMul", "input": ["StatefulPartitionedCall/sequential_5/bidirectional_8/backward_lstm_8/PartitionedCall/while/Func/StatefulPartitionedCall/sequential_5/bidirectional_8/backward_lstm_8/PartitionedCall/input/_27_switch/_142:1", "StatefulPartitionedCall/sequential_5/bidirectional_8/backward_lstm_8/PartitionedCall/while/Func/StatefulPartitionedCall/sequential_5/bidirectional_8/backward_lstm_8/PartitionedCall/input/_30_switch/_148:1", "^StatefulPartitionedCall/sequential_5/bidirectional_8/backward_lstm_8/PartitionedCall/while/loop_body_control/_150"], "device": "/device:CPU:0", "attr": {"transpose_a": {"b": false}, "T": {"type": "DT_FLOAT"}, "transpose_b": {"b": false}}}, {"name": "StatefulPartitionedCall/sequential_5/bidirectional_8/backward_lstm_8/PartitionedCall/while/next_iteration/_177", "op": "NextIteration", "input": ["StatefulPartitionedCall/sequential_5/bidirectional_8/backward_lstm_8/PartitionedCall/while/Func/StatefulPartitionedCall/sequential_5/bidirectional_8/backward_lstm_8/PartitionedCall/input/_31_switch/_149:1", "^StatefulPartitionedCall/sequential_5/bidirectional_8/backward_lstm_8/PartitionedCall/while/loop_body_control/_150"], "attr": {"T": {"type": "DT_FLOAT"}}}, {"name": "Func/StatefulPartitionedCall/sequential_5/bidirectional_8/backward_lstm_8/PartitionedCall/while/body/_109/input/_239", "op": "Identity", "input": ["StatefulPartitionedCall/sequential_5/bidirectional_8/backward_lstm_8/PartitionedCall/while/StatefulPartitionedCall/sequential_5/bidirectional_8/backward_lstm_8/PartitionedCall/time_switch/_139:1", "^StatefulPartitionedCall/sequential_5/bidirectional_8/backward_lstm_8/PartitionedCall/while/loop_body_control/_150"], "attr": {"T": {"type": "DT_INT32"}}}, {"name": "StatefulPartitionedCall/sequential_5/bidirectional_8/backward_lstm_8/PartitionedCall/while/body/_109/while/add_2/y", "op": "Const", "input": ["^StatefulPartitionedCall/sequential_5/bidirectional_8/backward_lstm_8/PartitionedCall/while/loop_body_control/_150"], "attr": {"dtype": {"type": "DT_INT32"}, "value": {"tensor": {"dtype": "DT_INT32", "tensorShape": {}}}}}, {"name": "StatefulPartitionedCall/sequential_5/bidirectional_8/backward_lstm_8/PartitionedCall/while/body/_109/while/add_3/y", "op": "Const", "input": ["^StatefulPartitionedCall/sequential_5/bidirectional_8/backward_lstm_8/PartitionedCall/while/loop_body_control/_150"], "attr": {"value": {"tensor": {"dtype": "DT_INT32", "tensorShape": {}}}, "dtype": {"type": "DT_INT32"}}}, {"name": "StatefulPartitionedCall/sequential_5/bidirectional_8/backward_lstm_8/PartitionedCall/while/next_iteration/_172", "op": "NextIteration", "input": ["StatefulPartitionedCall/sequential_5/bidirectional_8/backward_lstm_8/PartitionedCall/while/StatefulPartitionedCall/sequential_5/bidirectional_8/backward_lstm_8/PartitionedCall/strided_slice_switch/_144:1", "^StatefulPartitionedCall/sequential_5/bidirectional_8/backward_lstm_8/PartitionedCall/while/loop_body_control/_150"], "attr": {"T": {"type": "DT_INT32"}}}, {"name": "StatefulPartitionedCall/sequential_5/bidirectional_8/backward_lstm_8/PartitionedCall/TensorArrayV2Stack/TensorListStack", "op": "TensorListStack", "input": ["StatefulPartitionedCall/sequential_5/bidirectional_8/backward_lstm_8/PartitionedCall/while/exit/_154", "StatefulPartitionedCall/sequential_5/bidirectional_8/backward_lstm_8/PartitionedCall/TensorArrayV2Stack/TensorListStack/element_shape"], "attr": {"num_elements": {"i": "-1"}, "element_dtype": {"type": "DT_FLOAT"}}}, {"name": "StatefulPartitionedCall/sequential_5/bidirectional_8/forward_lstm_8/PartitionedCall/add_1", "op": "AddV2", "input": ["StatefulPartitionedCall/sequential_5/bidirectional_8/forward_lstm_8/PartitionedCall/mul", "StatefulPartitionedCall/sequential_5/bidirectional_8/forward_lstm_8/PartitionedCall/mul_1"], "attr": {"T": {"type": "DT_FLOAT"}}}, {"name": "StatefulPartitionedCall/sequential_5/bidirectional_8/forward_lstm_8/PartitionedCall/while/body/_39/while/TensorArrayV2Read/TensorListGetItem", "op": "TensorListGetItem", "input": ["StatefulPartitionedCall/sequential_5/bidirectional_8/forward_lstm_8/PartitionedCall/while/StatefulPartitionedCall/sequential_5/bidirectional_8/forward_lstm_8/PartitionedCall/TensorArrayUnstack/TensorListFromTensor_switch/_75:1", "Func/StatefulPartitionedCall/sequential_5/bidirectional_8/forward_lstm_8/PartitionedCall/while/body/_39/input/_196", "StatefulPartitionedCall/sequential_5/bidirectional_8/forward_lstm_8/PartitionedCall/while/body/_39/while/TensorArrayV2Read/TensorListGetItem/element_shape"], "attr": {"element_dtype": {"type": "DT_FLOAT"}}}, {"name": "StatefulPartitionedCall/sequential_5/bidirectional_8/forward_lstm_8/PartitionedCall/while/body/_39/while/TensorArrayV2Read_1/TensorListGetItem", "op": "TensorListGetItem", "input": ["StatefulPartitionedCall/sequential_5/bidirectional_8/forward_lstm_8/PartitionedCall/while/StatefulPartitionedCall/sequential_5/bidirectional_8/forward_lstm_8/PartitionedCall/TensorArrayUnstack_1/TensorListFromTensor_switch/_76:1", "Func/StatefulPartitionedCall/sequential_5/bidirectional_8/forward_lstm_8/PartitionedCall/while/body/_39/input/_196", "StatefulPartitionedCall/sequential_5/bidirectional_8/forward_lstm_8/PartitionedCall/while/body/_39/while/TensorArrayV2Read_1/TensorListGetItem/element_shape"], "attr": {"element_dtype": {"type": "DT_BOOL"}}}, {"name": "StatefulPartitionedCall/sequential_5/bidirectional_8/forward_lstm_8/PartitionedCall/while/body/_39/while/add_2", "op": "AddV2", "input": ["Func/StatefulPartitionedCall/sequential_5/bidirectional_8/forward_lstm_8/PartitionedCall/while/body/_39/input/_196", "StatefulPartitionedCall/sequential_5/bidirectional_8/forward_lstm_8/PartitionedCall/while/body/_39/while/add_2/y"], "attr": {"T": {"type": "DT_INT32"}}}, {"name": "StatefulPartitionedCall/sequential_5/bidirectional_8/forward_lstm_8/PartitionedCall/while/body/_39/while/add_3", "op": "AddV2", "input": ["StatefulPartitionedCall/sequential_5/bidirectional_8/forward_lstm_8/PartitionedCall/while/StatefulPartitionedCall/sequential_5/bidirectional_8/forward_lstm_8/PartitionedCall/while/loop_counter_switch/_67:1", "StatefulPartitionedCall/sequential_5/bidirectional_8/forward_lstm_8/PartitionedCall/while/body/_39/while/add_3/y"], "attr": {"T": {"type": "DT_INT32"}}}, {"name": "StatefulPartitionedCall/sequential_5/bidirectional_8/forward_lstm_8/PartitionedCall/strided_slice_2", "op": "StridedSlice", "input": ["StatefulPartitionedCall/sequential_5/bidirectional_8/forward_lstm_8/PartitionedCall/TensorArrayV2Stack/TensorListStack", "StatefulPartitionedCall/sequential_5/bidirectional_8/forward_lstm_8/PartitionedCall/strided_slice_2/stack", "StatefulPartitionedCall/sequential_5/bidirectional_8/forward_lstm_8/PartitionedCall/strided_slice_2/stack_1", "StatefulPartitionedCall/sequential_5/bidirectional_8/forward_lstm_8/PartitionedCall/strided_slice_2/stack_2"], "attr": {"begin_mask": {"i": "0"}, "shrink_axis_mask": {"i": "1"}, "T": {"type": "DT_FLOAT"}, "Index": {"type": "DT_INT32"}, "end_mask": {"i": "0"}, "ellipsis_mask": {"i": "0"}, "new_axis_mask": {"i": "0"}}}, {"name": "StatefulPartitionedCall/sequential_5/bidirectional_8/backward_lstm_8/PartitionedCall/add_1", "op": "AddV2", "input": ["StatefulPartitionedCall/sequential_5/bidirectional_8/backward_lstm_8/PartitionedCall/mul", "StatefulPartitionedCall/sequential_5/bidirectional_8/backward_lstm_8/PartitionedCall/mul_1"], "attr": {"T": {"type": "DT_FLOAT"}}}, {"name": "StatefulPartitionedCall/sequential_5/bidirectional_8/backward_lstm_8/PartitionedCall/while/body/_109/while/TensorArrayV2Read/TensorListGetItem", "op": "TensorListGetItem", "input": ["StatefulPartitionedCall/sequential_5/bidirectional_8/backward_lstm_8/PartitionedCall/while/StatefulPartitionedCall/sequential_5/bidirectional_8/backward_lstm_8/PartitionedCall/TensorArrayUnstack/TensorListFromTensor_switch/_145:1", "Func/StatefulPartitionedCall/sequential_5/bidirectional_8/backward_lstm_8/PartitionedCall/while/body/_109/input/_239", "StatefulPartitionedCall/sequential_5/bidirectional_8/backward_lstm_8/PartitionedCall/while/body/_109/while/TensorArrayV2Read/TensorListGetItem/element_shape"], "attr": {"element_dtype": {"type": "DT_FLOAT"}}}, {"name": "StatefulPartitionedCall/sequential_5/bidirectional_8/backward_lstm_8/PartitionedCall/while/body/_109/while/TensorArrayV2Read_1/TensorListGetItem", "op": "TensorListGetItem", "input": ["StatefulPartitionedCall/sequential_5/bidirectional_8/backward_lstm_8/PartitionedCall/while/StatefulPartitionedCall/sequential_5/bidirectional_8/backward_lstm_8/PartitionedCall/TensorArrayUnstack_1/TensorListFromTensor_switch/_146:1", "Func/StatefulPartitionedCall/sequential_5/bidirectional_8/backward_lstm_8/PartitionedCall/while/body/_109/input/_239", "StatefulPartitionedCall/sequential_5/bidirectional_8/backward_lstm_8/PartitionedCall/while/body/_109/while/TensorArrayV2Read_1/TensorListGetItem/element_shape"], "attr": {"element_dtype": {"type": "DT_BOOL"}}}, {"name": "StatefulPartitionedCall/sequential_5/bidirectional_8/backward_lstm_8/PartitionedCall/while/body/_109/while/add_2", "op": "AddV2", "input": ["Func/StatefulPartitionedCall/sequential_5/bidirectional_8/backward_lstm_8/PartitionedCall/while/body/_109/input/_239", "StatefulPartitionedCall/sequential_5/bidirectional_8/backward_lstm_8/PartitionedCall/while/body/_109/while/add_2/y"], "attr": {"T": {"type": "DT_INT32"}}}, {"name": "StatefulPartitionedCall/sequential_5/bidirectional_8/backward_lstm_8/PartitionedCall/while/body/_109/while/add_3", "op": "AddV2", "input": ["StatefulPartitionedCall/sequential_5/bidirectional_8/backward_lstm_8/PartitionedCall/while/StatefulPartitionedCall/sequential_5/bidirectional_8/backward_lstm_8/PartitionedCall/while/loop_counter_switch/_137:1", "StatefulPartitionedCall/sequential_5/bidirectional_8/backward_lstm_8/PartitionedCall/while/body/_109/while/add_3/y"], "attr": {"T": {"type": "DT_INT32"}}}, {"name": "StatefulPartitionedCall/sequential_5/bidirectional_8/backward_lstm_8/PartitionedCall/strided_slice_2", "op": "StridedSlice", "input": ["StatefulPartitionedCall/sequential_5/bidirectional_8/backward_lstm_8/PartitionedCall/TensorArrayV2Stack/TensorListStack", "StatefulPartitionedCall/sequential_5/bidirectional_8/backward_lstm_8/PartitionedCall/strided_slice_2/stack", "StatefulPartitionedCall/sequential_5/bidirectional_8/backward_lstm_8/PartitionedCall/strided_slice_2/stack_1", "StatefulPartitionedCall/sequential_5/bidirectional_8/backward_lstm_8/PartitionedCall/strided_slice_2/stack_2"], "attr": {"end_mask": {"i": "0"}, "Index": {"type": "DT_INT32"}, "T": {"type": "DT_FLOAT"}, "begin_mask": {"i": "0"}, "new_axis_mask": {"i": "0"}, "ellipsis_mask": {"i": "0"}, "shrink_axis_mask": {"i": "1"}}}, {"name": "StatefulPartitionedCall/sequential_5/bidirectional_8/forward_lstm_8/PartitionedCall/Tanh_1", "op": "Tanh", "input": ["StatefulPartitionedCall/sequential_5/bidirectional_8/forward_lstm_8/PartitionedCall/add_1"], "attr": {"T": {"type": "DT_FLOAT"}}}, {"name": "StatefulPartitionedCall/sequential_5/bidirectional_8/forward_lstm_8/PartitionedCall/while/body/_39/while/MatMul", "op": "MatMul", "input": ["StatefulPartitionedCall/sequential_5/bidirectional_8/forward_lstm_8/PartitionedCall/while/body/_39/while/TensorArrayV2Read/TensorListGetItem", "StatefulPartitionedCall/sequential_5/bidirectional_8/forward_lstm_8/PartitionedCall/while/Func/StatefulPartitionedCall/sequential_5/bidirectional_8/forward_lstm_8/PartitionedCall/input/_17_switch/_77:1"], "device": "/device:CPU:0", "attr": {"T": {"type": "DT_FLOAT"}, "transpose_a": {"b": false}, "transpose_b": {"b": false}}}, {"name": "StatefulPartitionedCall/sequential_5/bidirectional_8/forward_lstm_8/PartitionedCall/while/next_iteration/_97", "op": "NextIteration", "input": ["StatefulPartitionedCall/sequential_5/bidirectional_8/forward_lstm_8/PartitionedCall/while/body/_39/while/add_2", "^StatefulPartitionedCall/sequential_5/bidirectional_8/forward_lstm_8/PartitionedCall/while/loop_body_control/_80"], "attr": {"T": {"type": "DT_INT32"}}}, {"name": "StatefulPartitionedCall/sequential_5/bidirectional_8/forward_lstm_8/PartitionedCall/while/next_iteration/_95", "op": "NextIteration", "input": ["StatefulPartitionedCall/sequential_5/bidirectional_8/forward_lstm_8/PartitionedCall/while/body/_39/while/add_3", "^StatefulPartitionedCall/sequential_5/bidirectional_8/forward_lstm_8/PartitionedCall/while/loop_body_control/_80"], "attr": {"T": {"type": "DT_INT32"}}}, {"name": "StatefulPartitionedCall/sequential_5/bidirectional_8/backward_lstm_8/PartitionedCall/Tanh_1", "op": "Tanh", "input": ["StatefulPartitionedCall/sequential_5/bidirectional_8/backward_lstm_8/PartitionedCall/add_1"], "attr": {"T": {"type": "DT_FLOAT"}}}, {"name": "StatefulPartitionedCall/sequential_5/bidirectional_8/backward_lstm_8/PartitionedCall/while/body/_109/while/MatMul", "op": "MatMul", "input": ["StatefulPartitionedCall/sequential_5/bidirectional_8/backward_lstm_8/PartitionedCall/while/body/_109/while/TensorArrayV2Read/TensorListGetItem", "StatefulPartitionedCall/sequential_5/bidirectional_8/backward_lstm_8/PartitionedCall/while/Func/StatefulPartitionedCall/sequential_5/bidirectional_8/backward_lstm_8/PartitionedCall/input/_29_switch/_147:1"], "device": "/device:CPU:0", "attr": {"transpose_b": {"b": false}, "T": {"type": "DT_FLOAT"}, "transpose_a": {"b": false}}}, {"name": "StatefulPartitionedCall/sequential_5/bidirectional_8/backward_lstm_8/PartitionedCall/while/next_iteration/_167", "op": "NextIteration", "input": ["StatefulPartitionedCall/sequential_5/bidirectional_8/backward_lstm_8/PartitionedCall/while/body/_109/while/add_2", "^StatefulPartitionedCall/sequential_5/bidirectional_8/backward_lstm_8/PartitionedCall/while/loop_body_control/_150"], "attr": {"T": {"type": "DT_INT32"}}}, {"name": "StatefulPartitionedCall/sequential_5/bidirectional_8/backward_lstm_8/PartitionedCall/while/next_iteration/_165", "op": "NextIteration", "input": ["StatefulPartitionedCall/sequential_5/bidirectional_8/backward_lstm_8/PartitionedCall/while/body/_109/while/add_3", "^StatefulPartitionedCall/sequential_5/bidirectional_8/backward_lstm_8/PartitionedCall/while/loop_body_control/_150"], "attr": {"T": {"type": "DT_INT32"}}}, {"name": "StatefulPartitionedCall/sequential_5/bidirectional_8/concat", "op": "ConcatV2", "input": ["StatefulPartitionedCall/sequential_5/bidirectional_8/forward_lstm_8/PartitionedCall/strided_slice_2", "StatefulPartitionedCall/sequential_5/bidirectional_8/backward_lstm_8/PartitionedCall/strided_slice_2", "StatefulPartitionedCall/sequential_5/bidirectional_8/concat/axis"], "attr": {"T": {"type": "DT_FLOAT"}, "N": {"i": "2"}, "Tidx": {"type": "DT_INT32"}}}, {"name": "StatefulPartitionedCall/sequential_5/bidirectional_8/forward_lstm_8/PartitionedCall/mul_2", "op": "Mul", "input": ["StatefulPartitionedCall/sequential_5/bidirectional_8/forward_lstm_8/PartitionedCall/Sigmoid_2", "StatefulPartitionedCall/sequential_5/bidirectional_8/forward_lstm_8/PartitionedCall/Tanh_1"], "attr": {"T": {"type": "DT_FLOAT"}}}, {"name": "StatefulPartitionedCall/sequential_5/bidirectional_8/forward_lstm_8/PartitionedCall/while/body/_39/while/add", "op": "AddV2", "input": ["StatefulPartitionedCall/sequential_5/bidirectional_8/forward_lstm_8/PartitionedCall/while/body/_39/while/MatMul", "StatefulPartitionedCall/sequential_5/bidirectional_8/forward_lstm_8/PartitionedCall/while/body/_39/while/MatMul_1"], "attr": {"T": {"type": "DT_FLOAT"}}}, {"name": "StatefulPartitionedCall/sequential_5/bidirectional_8/backward_lstm_8/PartitionedCall/mul_2", "op": "Mul", "input": ["StatefulPartitionedCall/sequential_5/bidirectional_8/backward_lstm_8/PartitionedCall/Sigmoid_2", "StatefulPartitionedCall/sequential_5/bidirectional_8/backward_lstm_8/PartitionedCall/Tanh_1"], "attr": {"T": {"type": "DT_FLOAT"}}}, {"name": "StatefulPartitionedCall/sequential_5/bidirectional_8/backward_lstm_8/PartitionedCall/while/body/_109/while/add", "op": "AddV2", "input": ["StatefulPartitionedCall/sequential_5/bidirectional_8/backward_lstm_8/PartitionedCall/while/body/_109/while/MatMul", "StatefulPartitionedCall/sequential_5/bidirectional_8/backward_lstm_8/PartitionedCall/while/body/_109/while/MatMul_1"], "attr": {"T": {"type": "DT_FLOAT"}}}, {"name": "StatefulPartitionedCall/sequential_5/dense_10/Relu", "op": "_FusedMatMul", "input": ["StatefulPartitionedCall/sequential_5/bidirectional_8/concat", "StatefulPartitionedCall/sequential_5/dense_10/MatMul/ReadVariableOp", "StatefulPartitionedCall/sequential_5/dense_10/BiasAdd/ReadVariableOp"], "device": "/device:CPU:0", "attr": {"num_args": {"i": "1"}, "T": {"type": "DT_FLOAT"}, "fused_ops": {"list": {"s": ["Qmlhc0FkZA==", "UmVsdQ=="]}}, "epsilon": {"f": 0.0}, "transpose_b": {"b": false}, "transpose_a": {"b": false}}}, {"name": "StatefulPartitionedCall/sequential_5/bidirectional_8/forward_lstm_8/PartitionedCall/zeros_like", "op": "ZerosLike", "input": ["StatefulPartitionedCall/sequential_5/bidirectional_8/forward_lstm_8/PartitionedCall/mul_2"], "attr": {"T": {"type": "DT_FLOAT"}}}, {"name": "StatefulPartitionedCall/sequential_5/bidirectional_8/forward_lstm_8/PartitionedCall/while/body/_39/while/BiasAdd", "op": "BiasAdd", "input": ["StatefulPartitionedCall/sequential_5/bidirectional_8/forward_lstm_8/PartitionedCall/while/body/_39/while/add", "StatefulPartitionedCall/sequential_5/bidirectional_8/forward_lstm_8/PartitionedCall/while/Func/StatefulPartitionedCall/sequential_5/bidirectional_8/forward_lstm_8/PartitionedCall/input/_19_switch/_79:1"], "attr": {"T": {"type": "DT_FLOAT"}, "data_format": {"s": "TkhXQw=="}}}, {"name": "StatefulPartitionedCall/sequential_5/bidirectional_8/backward_lstm_8/PartitionedCall/zeros_like", "op": "ZerosLike", "input": ["StatefulPartitionedCall/sequential_5/bidirectional_8/backward_lstm_8/PartitionedCall/mul_2"], "attr": {"T": {"type": "DT_FLOAT"}}}, {"name": "StatefulPartitionedCall/sequential_5/bidirectional_8/backward_lstm_8/PartitionedCall/while/body/_109/while/BiasAdd", "op": "BiasAdd", "input": ["StatefulPartitionedCall/sequential_5/bidirectional_8/backward_lstm_8/PartitionedCall/while/body/_109/while/add", "StatefulPartitionedCall/sequential_5/bidirectional_8/backward_lstm_8/PartitionedCall/while/Func/StatefulPartitionedCall/sequential_5/bidirectional_8/backward_lstm_8/PartitionedCall/input/_31_switch/_149:1"], "attr": {"data_format": {"s": "TkhXQw=="}, "T": {"type": "DT_FLOAT"}}}, {"name": "StatefulPartitionedCall/sequential_5/dense_11/BiasAdd", "op": "_FusedMatMul", "input": ["StatefulPartitionedCall/sequential_5/dense_10/Relu", "StatefulPartitionedCall/sequential_5/dense_11/MatMul/ReadVariableOp", "StatefulPartitionedCall/sequential_5/dense_11/BiasAdd/ReadVariableOp"], "device": "/device:CPU:0", "attr": {"num_args": {"i": "1"}, "fused_ops": {"list": {"s": ["Qmlhc0FkZA=="]}}, "transpose_b": {"b": false}, "epsilon": {"f": 0.0}, "T": {"type": "DT_FLOAT"}, "transpose_a": {"b": false}}}, {"name": "StatefulPartitionedCall/sequential_5/bidirectional_8/forward_lstm_8/PartitionedCall/while/enter/_44", "op": "Enter", "input": ["StatefulPartitionedCall/sequential_5/bidirectional_8/forward_lstm_8/PartitionedCall/zeros_like"], "attr": {"is_constant": {"b": false}, "T": {"type": "DT_FLOAT"}, "frame_name": {"s": "U3RhdGVmdWxQYXJ0aXRpb25lZENhbGwvc2VxdWVudGlhbF81L2JpZGlyZWN0aW9uYWxfOC9mb3J3YXJkX2xzdG1fOC9QYXJ0aXRpb25lZENhbGwvd2hpbGU="}, "parallel_iterations": {"i": "32"}}}, {"name": "StatefulPartitionedCall/sequential_5/bidirectional_8/forward_lstm_8/PartitionedCall/while/body/_39/while/split", "op": "Split", "input": ["StatefulPartitionedCall/sequential_5/bidirectional_8/forward_lstm_8/PartitionedCall/while/body/_39/while/split/split_dim", "StatefulPartitionedCall/sequential_5/bidirectional_8/forward_lstm_8/PartitionedCall/while/body/_39/while/BiasAdd"], "attr": {"num_split": {"i": "4"}, "T": {"type": "DT_FLOAT"}}}, {"name": "StatefulPartitionedCall/sequential_5/bidirectional_8/backward_lstm_8/PartitionedCall/while/enter/_114", "op": "Enter", "input": ["StatefulPartitionedCall/sequential_5/bidirectional_8/backward_lstm_8/PartitionedCall/zeros_like"], "attr": {"T": {"type": "DT_FLOAT"}, "frame_name": {"s": "U3RhdGVmdWxQYXJ0aXRpb25lZENhbGwvc2VxdWVudGlhbF81L2JpZGlyZWN0aW9uYWxfOC9iYWNrd2FyZF9sc3RtXzgvUGFydGl0aW9uZWRDYWxsL3doaWxl"}, "is_constant": {"b": false}, "parallel_iterations": {"i": "32"}}}, {"name": "StatefulPartitionedCall/sequential_5/bidirectional_8/backward_lstm_8/PartitionedCall/while/body/_109/while/split", "op": "Split", "input": ["StatefulPartitionedCall/sequential_5/bidirectional_8/backward_lstm_8/PartitionedCall/while/body/_109/while/split/split_dim", "StatefulPartitionedCall/sequential_5/bidirectional_8/backward_lstm_8/PartitionedCall/while/body/_109/while/BiasAdd"], "attr": {"T": {"type": "DT_FLOAT"}, "num_split": {"i": "4"}}}, {"name": "Identity", "op": "Identity", "input": ["StatefulPartitionedCall/sequential_5/dense_11/BiasAdd", "^StatefulPartitionedCall/sequential_5/embedding_5/embedding_lookup"], "attr": {"T": {"type": "DT_FLOAT"}}}, {"name": "StatefulPartitionedCall/sequential_5/bidirectional_8/forward_lstm_8/PartitionedCall/while/merge/_57", "op": "Merge", "input": ["StatefulPartitionedCall/sequential_5/bidirectional_8/forward_lstm_8/PartitionedCall/while/enter/_44", "StatefulPartitionedCall/sequential_5/bidirectional_8/forward_lstm_8/PartitionedCall/while/next_iteration/_99"], "attr": {"T": {"type": "DT_FLOAT"}, "N": {"i": "2"}}}, {"name": "StatefulPartitionedCall/sequential_5/bidirectional_8/forward_lstm_8/PartitionedCall/while/body/_39/while/Sigmoid", "op": "Sigmoid", "input": ["StatefulPartitionedCall/sequential_5/bidirectional_8/forward_lstm_8/PartitionedCall/while/body/_39/while/split"], "attr": {"T": {"type": "DT_FLOAT"}}}, {"name": "StatefulPartitionedCall/sequential_5/bidirectional_8/forward_lstm_8/PartitionedCall/while/body/_39/while/Sigmoid_1", "op": "Sigmoid", "input": ["StatefulPartitionedCall/sequential_5/bidirectional_8/forward_lstm_8/PartitionedCall/while/body/_39/while/split:1"], "attr": {"T": {"type": "DT_FLOAT"}}}, {"name": "StatefulPartitionedCall/sequential_5/bidirectional_8/forward_lstm_8/PartitionedCall/while/body/_39/while/Tanh", "op": "Tanh", "input": ["StatefulPartitionedCall/sequential_5/bidirectional_8/forward_lstm_8/PartitionedCall/while/body/_39/while/split:2"], "attr": {"T": {"type": "DT_FLOAT"}}}, {"name": "StatefulPartitionedCall/sequential_5/bidirectional_8/forward_lstm_8/PartitionedCall/while/body/_39/while/Sigmoid_2", "op": "Sigmoid", "input": ["StatefulPartitionedCall/sequential_5/bidirectional_8/forward_lstm_8/PartitionedCall/while/body/_39/while/split:3"], "attr": {"T": {"type": "DT_FLOAT"}}}, {"name": "StatefulPartitionedCall/sequential_5/bidirectional_8/backward_lstm_8/PartitionedCall/while/merge/_127", "op": "Merge", "input": ["StatefulPartitionedCall/sequential_5/bidirectional_8/backward_lstm_8/PartitionedCall/while/enter/_114", "StatefulPartitionedCall/sequential_5/bidirectional_8/backward_lstm_8/PartitionedCall/while/next_iteration/_169"], "attr": {"N": {"i": "2"}, "T": {"type": "DT_FLOAT"}}}, {"name": "StatefulPartitionedCall/sequential_5/bidirectional_8/backward_lstm_8/PartitionedCall/while/body/_109/while/Sigmoid", "op": "Sigmoid", "input": ["StatefulPartitionedCall/sequential_5/bidirectional_8/backward_lstm_8/PartitionedCall/while/body/_109/while/split"], "attr": {"T": {"type": "DT_FLOAT"}}}, {"name": "StatefulPartitionedCall/sequential_5/bidirectional_8/backward_lstm_8/PartitionedCall/while/body/_109/while/Sigmoid_1", "op": "Sigmoid", "input": ["StatefulPartitionedCall/sequential_5/bidirectional_8/backward_lstm_8/PartitionedCall/while/body/_109/while/split:1"], "attr": {"T": {"type": "DT_FLOAT"}}}, {"name": "StatefulPartitionedCall/sequential_5/bidirectional_8/backward_lstm_8/PartitionedCall/while/body/_109/while/Tanh", "op": "Tanh", "input": ["StatefulPartitionedCall/sequential_5/bidirectional_8/backward_lstm_8/PartitionedCall/while/body/_109/while/split:2"], "attr": {"T": {"type": "DT_FLOAT"}}}, {"name": "StatefulPartitionedCall/sequential_5/bidirectional_8/backward_lstm_8/PartitionedCall/while/body/_109/while/Sigmoid_2", "op": "Sigmoid", "input": ["StatefulPartitionedCall/sequential_5/bidirectional_8/backward_lstm_8/PartitionedCall/while/body/_109/while/split:3"], "attr": {"T": {"type": "DT_FLOAT"}}}, {"name": "StatefulPartitionedCall/sequential_5/bidirectional_8/forward_lstm_8/PartitionedCall/while/StatefulPartitionedCall/sequential_5/bidirectional_8/forward_lstm_8/PartitionedCall/zeros_like_switch/_71", "op": "Switch", "input": ["StatefulPartitionedCall/sequential_5/bidirectional_8/forward_lstm_8/PartitionedCall/while/merge/_57", "StatefulPartitionedCall/sequential_5/bidirectional_8/forward_lstm_8/PartitionedCall/while/LoopCond/_66"], "attr": {"T": {"type": "DT_FLOAT"}}}, {"name": "StatefulPartitionedCall/sequential_5/bidirectional_8/forward_lstm_8/PartitionedCall/while/body/_39/while/mul", "op": "Mul", "input": ["StatefulPartitionedCall/sequential_5/bidirectional_8/forward_lstm_8/PartitionedCall/while/body/_39/while/Sigmoid_1", "StatefulPartitionedCall/sequential_5/bidirectional_8/forward_lstm_8/PartitionedCall/while/Func/StatefulPartitionedCall/sequential_5/bidirectional_8/forward_lstm_8/PartitionedCall/input/_16_switch/_73:1"], "attr": {"T": {"type": "DT_FLOAT"}}}, {"name": "StatefulPartitionedCall/sequential_5/bidirectional_8/forward_lstm_8/PartitionedCall/while/body/_39/while/mul_1", "op": "Mul", "input": ["StatefulPartitionedCall/sequential_5/bidirectional_8/forward_lstm_8/PartitionedCall/while/body/_39/while/Sigmoid", "StatefulPartitionedCall/sequential_5/bidirectional_8/forward_lstm_8/PartitionedCall/while/body/_39/while/Tanh"], "attr": {"T": {"type": "DT_FLOAT"}}}, {"name": "StatefulPartitionedCall/sequential_5/bidirectional_8/backward_lstm_8/PartitionedCall/while/StatefulPartitionedCall/sequential_5/bidirectional_8/backward_lstm_8/PartitionedCall/zeros_like_switch/_141", "op": "Switch", "input": ["StatefulPartitionedCall/sequential_5/bidirectional_8/backward_lstm_8/PartitionedCall/while/merge/_127", "StatefulPartitionedCall/sequential_5/bidirectional_8/backward_lstm_8/PartitionedCall/while/LoopCond/_136"], "attr": {"T": {"type": "DT_FLOAT"}}}, {"name": "StatefulPartitionedCall/sequential_5/bidirectional_8/backward_lstm_8/PartitionedCall/while/body/_109/while/mul", "op": "Mul", "input": ["StatefulPartitionedCall/sequential_5/bidirectional_8/backward_lstm_8/PartitionedCall/while/body/_109/while/Sigmoid_1", "StatefulPartitionedCall/sequential_5/bidirectional_8/backward_lstm_8/PartitionedCall/while/Func/StatefulPartitionedCall/sequential_5/bidirectional_8/backward_lstm_8/PartitionedCall/input/_28_switch/_143:1"], "attr": {"T": {"type": "DT_FLOAT"}}}, {"name": "StatefulPartitionedCall/sequential_5/bidirectional_8/backward_lstm_8/PartitionedCall/while/body/_109/while/mul_1", "op": "Mul", "input": ["StatefulPartitionedCall/sequential_5/bidirectional_8/backward_lstm_8/PartitionedCall/while/body/_109/while/Sigmoid", "StatefulPartitionedCall/sequential_5/bidirectional_8/backward_lstm_8/PartitionedCall/while/body/_109/while/Tanh"], "attr": {"T": {"type": "DT_FLOAT"}}}, {"name": "StatefulPartitionedCall/sequential_5/bidirectional_8/forward_lstm_8/PartitionedCall/while/body/_39/while/add_1", "op": "AddV2", "input": ["StatefulPartitionedCall/sequential_5/bidirectional_8/forward_lstm_8/PartitionedCall/while/body/_39/while/mul", "StatefulPartitionedCall/sequential_5/bidirectional_8/forward_lstm_8/PartitionedCall/while/body/_39/while/mul_1"], "attr": {"T": {"type": "DT_FLOAT"}}}, {"name": "StatefulPartitionedCall/sequential_5/bidirectional_8/backward_lstm_8/PartitionedCall/while/body/_109/while/add_1", "op": "AddV2", "input": ["StatefulPartitionedCall/sequential_5/bidirectional_8/backward_lstm_8/PartitionedCall/while/body/_109/while/mul", "StatefulPartitionedCall/sequential_5/bidirectional_8/backward_lstm_8/PartitionedCall/while/body/_109/while/mul_1"], "attr": {"T": {"type": "DT_FLOAT"}}}, {"name": "StatefulPartitionedCall/sequential_5/bidirectional_8/forward_lstm_8/PartitionedCall/while/body/_39/while/Tanh_1", "op": "Tanh", "input": ["StatefulPartitionedCall/sequential_5/bidirectional_8/forward_lstm_8/PartitionedCall/while/body/_39/while/add_1"], "attr": {"T": {"type": "DT_FLOAT"}}}, {"name": "StatefulPartitionedCall/sequential_5/bidirectional_8/forward_lstm_8/PartitionedCall/while/body/_39/while/SelectV2_2", "op": "SelectV2", "input": ["StatefulPartitionedCall/sequential_5/bidirectional_8/forward_lstm_8/PartitionedCall/while/body/_39/while/TensorArrayV2Read_1/TensorListGetItem", "StatefulPartitionedCall/sequential_5/bidirectional_8/forward_lstm_8/PartitionedCall/while/body/_39/while/add_1", "StatefulPartitionedCall/sequential_5/bidirectional_8/forward_lstm_8/PartitionedCall/while/Func/StatefulPartitionedCall/sequential_5/bidirectional_8/forward_lstm_8/PartitionedCall/input/_16_switch/_73:1"], "attr": {"T": {"type": "DT_FLOAT"}}}, {"name": "StatefulPartitionedCall/sequential_5/bidirectional_8/backward_lstm_8/PartitionedCall/while/body/_109/while/Tanh_1", "op": "Tanh", "input": ["StatefulPartitionedCall/sequential_5/bidirectional_8/backward_lstm_8/PartitionedCall/while/body/_109/while/add_1"], "attr": {"T": {"type": "DT_FLOAT"}}}, {"name": "StatefulPartitionedCall/sequential_5/bidirectional_8/backward_lstm_8/PartitionedCall/while/body/_109/while/SelectV2_2", "op": "SelectV2", "input": ["StatefulPartitionedCall/sequential_5/bidirectional_8/backward_lstm_8/PartitionedCall/while/body/_109/while/TensorArrayV2Read_1/TensorListGetItem", "StatefulPartitionedCall/sequential_5/bidirectional_8/backward_lstm_8/PartitionedCall/while/body/_109/while/add_1", "StatefulPartitionedCall/sequential_5/bidirectional_8/backward_lstm_8/PartitionedCall/while/Func/StatefulPartitionedCall/sequential_5/bidirectional_8/backward_lstm_8/PartitionedCall/input/_28_switch/_143:1"], "attr": {"T": {"type": "DT_FLOAT"}}}, {"name": "StatefulPartitionedCall/sequential_5/bidirectional_8/forward_lstm_8/PartitionedCall/while/body/_39/while/mul_2", "op": "Mul", "input": ["StatefulPartitionedCall/sequential_5/bidirectional_8/forward_lstm_8/PartitionedCall/while/body/_39/while/Sigmoid_2", "StatefulPartitionedCall/sequential_5/bidirectional_8/forward_lstm_8/PartitionedCall/while/body/_39/while/Tanh_1"], "attr": {"T": {"type": "DT_FLOAT"}}}, {"name": "StatefulPartitionedCall/sequential_5/bidirectional_8/forward_lstm_8/PartitionedCall/while/next_iteration/_101", "op": "NextIteration", "input": ["StatefulPartitionedCall/sequential_5/bidirectional_8/forward_lstm_8/PartitionedCall/while/body/_39/while/SelectV2_2", "^StatefulPartitionedCall/sequential_5/bidirectional_8/forward_lstm_8/PartitionedCall/while/loop_body_control/_80"], "attr": {"T": {"type": "DT_FLOAT"}}}, {"name": "StatefulPartitionedCall/sequential_5/bidirectional_8/backward_lstm_8/PartitionedCall/while/body/_109/while/mul_2", "op": "Mul", "input": ["StatefulPartitionedCall/sequential_5/bidirectional_8/backward_lstm_8/PartitionedCall/while/body/_109/while/Sigmoid_2", "StatefulPartitionedCall/sequential_5/bidirectional_8/backward_lstm_8/PartitionedCall/while/body/_109/while/Tanh_1"], "attr": {"T": {"type": "DT_FLOAT"}}}, {"name": "StatefulPartitionedCall/sequential_5/bidirectional_8/backward_lstm_8/PartitionedCall/while/next_iteration/_171", "op": "NextIteration", "input": ["StatefulPartitionedCall/sequential_5/bidirectional_8/backward_lstm_8/PartitionedCall/while/body/_109/while/SelectV2_2", "^StatefulPartitionedCall/sequential_5/bidirectional_8/backward_lstm_8/PartitionedCall/while/loop_body_control/_150"], "attr": {"T": {"type": "DT_FLOAT"}}}, {"name": "StatefulPartitionedCall/sequential_5/bidirectional_8/forward_lstm_8/PartitionedCall/while/body/_39/while/SelectV2_1", "op": "SelectV2", "input": ["StatefulPartitionedCall/sequential_5/bidirectional_8/forward_lstm_8/PartitionedCall/while/body/_39/while/TensorArrayV2Read_1/TensorListGetItem", "StatefulPartitionedCall/sequential_5/bidirectional_8/forward_lstm_8/PartitionedCall/while/body/_39/while/mul_2", "StatefulPartitionedCall/sequential_5/bidirectional_8/forward_lstm_8/PartitionedCall/while/Func/StatefulPartitionedCall/sequential_5/bidirectional_8/forward_lstm_8/PartitionedCall/input/_15_switch/_72:1"], "attr": {"T": {"type": "DT_FLOAT"}}}, {"name": "StatefulPartitionedCall/sequential_5/bidirectional_8/forward_lstm_8/PartitionedCall/while/body/_39/while/SelectV2", "op": "SelectV2", "input": ["StatefulPartitionedCall/sequential_5/bidirectional_8/forward_lstm_8/PartitionedCall/while/body/_39/while/TensorArrayV2Read_1/TensorListGetItem", "StatefulPartitionedCall/sequential_5/bidirectional_8/forward_lstm_8/PartitionedCall/while/body/_39/while/mul_2", "StatefulPartitionedCall/sequential_5/bidirectional_8/forward_lstm_8/PartitionedCall/while/StatefulPartitionedCall/sequential_5/bidirectional_8/forward_lstm_8/PartitionedCall/zeros_like_switch/_71:1"], "attr": {"T": {"type": "DT_FLOAT"}}}, {"name": "StatefulPartitionedCall/sequential_5/bidirectional_8/backward_lstm_8/PartitionedCall/while/body/_109/while/SelectV2_1", "op": "SelectV2", "input": ["StatefulPartitionedCall/sequential_5/bidirectional_8/backward_lstm_8/PartitionedCall/while/body/_109/while/TensorArrayV2Read_1/TensorListGetItem", "StatefulPartitionedCall/sequential_5/bidirectional_8/backward_lstm_8/PartitionedCall/while/body/_109/while/mul_2", "StatefulPartitionedCall/sequential_5/bidirectional_8/backward_lstm_8/PartitionedCall/while/Func/StatefulPartitionedCall/sequential_5/bidirectional_8/backward_lstm_8/PartitionedCall/input/_27_switch/_142:1"], "attr": {"T": {"type": "DT_FLOAT"}}}, {"name": "StatefulPartitionedCall/sequential_5/bidirectional_8/backward_lstm_8/PartitionedCall/while/body/_109/while/SelectV2", "op": "SelectV2", "input": ["StatefulPartitionedCall/sequential_5/bidirectional_8/backward_lstm_8/PartitionedCall/while/body/_109/while/TensorArrayV2Read_1/TensorListGetItem", "StatefulPartitionedCall/sequential_5/bidirectional_8/backward_lstm_8/PartitionedCall/while/body/_109/while/mul_2", "StatefulPartitionedCall/sequential_5/bidirectional_8/backward_lstm_8/PartitionedCall/while/StatefulPartitionedCall/sequential_5/bidirectional_8/backward_lstm_8/PartitionedCall/zeros_like_switch/_141:1"], "attr": {"T": {"type": "DT_FLOAT"}}}, {"name": "StatefulPartitionedCall/sequential_5/bidirectional_8/forward_lstm_8/PartitionedCall/while/next_iteration/_100", "op": "NextIteration", "input": ["StatefulPartitionedCall/sequential_5/bidirectional_8/forward_lstm_8/PartitionedCall/while/body/_39/while/SelectV2_1", "^StatefulPartitionedCall/sequential_5/bidirectional_8/forward_lstm_8/PartitionedCall/while/loop_body_control/_80"], "attr": {"T": {"type": "DT_FLOAT"}}}, {"name": "StatefulPartitionedCall/sequential_5/bidirectional_8/forward_lstm_8/PartitionedCall/while/next_iteration/_99", "op": "NextIteration", "input": ["StatefulPartitionedCall/sequential_5/bidirectional_8/forward_lstm_8/PartitionedCall/while/body/_39/while/SelectV2", "^StatefulPartitionedCall/sequential_5/bidirectional_8/forward_lstm_8/PartitionedCall/while/loop_body_control/_80"], "attr": {"T": {"type": "DT_FLOAT"}}}, {"name": "StatefulPartitionedCall/sequential_5/bidirectional_8/forward_lstm_8/PartitionedCall/while/body/_39/while/TensorArrayV2Write/TensorListSetItem", "op": "TensorListSetItem", "input": ["StatefulPartitionedCall/sequential_5/bidirectional_8/forward_lstm_8/PartitionedCall/while/StatefulPartitionedCall/sequential_5/bidirectional_8/forward_lstm_8/PartitionedCall/TensorArrayV2_1_switch/_70:1", "Func/StatefulPartitionedCall/sequential_5/bidirectional_8/forward_lstm_8/PartitionedCall/while/body/_39/input/_196", "StatefulPartitionedCall/sequential_5/bidirectional_8/forward_lstm_8/PartitionedCall/while/body/_39/while/SelectV2"], "attr": {"element_dtype": {"type": "DT_FLOAT"}}}, {"name": "StatefulPartitionedCall/sequential_5/bidirectional_8/backward_lstm_8/PartitionedCall/while/next_iteration/_170", "op": "NextIteration", "input": ["StatefulPartitionedCall/sequential_5/bidirectional_8/backward_lstm_8/PartitionedCall/while/body/_109/while/SelectV2_1", "^StatefulPartitionedCall/sequential_5/bidirectional_8/backward_lstm_8/PartitionedCall/while/loop_body_control/_150"], "attr": {"T": {"type": "DT_FLOAT"}}}, {"name": "StatefulPartitionedCall/sequential_5/bidirectional_8/backward_lstm_8/PartitionedCall/while/next_iteration/_169", "op": "NextIteration", "input": ["StatefulPartitionedCall/sequential_5/bidirectional_8/backward_lstm_8/PartitionedCall/while/body/_109/while/SelectV2", "^StatefulPartitionedCall/sequential_5/bidirectional_8/backward_lstm_8/PartitionedCall/while/loop_body_control/_150"], "attr": {"T": {"type": "DT_FLOAT"}}}, {"name": "StatefulPartitionedCall/sequential_5/bidirectional_8/backward_lstm_8/PartitionedCall/while/body/_109/while/TensorArrayV2Write/TensorListSetItem", "op": "TensorListSetItem", "input": ["StatefulPartitionedCall/sequential_5/bidirectional_8/backward_lstm_8/PartitionedCall/while/StatefulPartitionedCall/sequential_5/bidirectional_8/backward_lstm_8/PartitionedCall/TensorArrayV2_1_switch/_140:1", "Func/StatefulPartitionedCall/sequential_5/bidirectional_8/backward_lstm_8/PartitionedCall/while/body/_109/input/_239", "StatefulPartitionedCall/sequential_5/bidirectional_8/backward_lstm_8/PartitionedCall/while/body/_109/while/SelectV2"], "attr": {"element_dtype": {"type": "DT_FLOAT"}}}, {"name": "StatefulPartitionedCall/sequential_5/bidirectional_8/forward_lstm_8/PartitionedCall/while/next_iteration/_98", "op": "NextIteration", "input": ["StatefulPartitionedCall/sequential_5/bidirectional_8/forward_lstm_8/PartitionedCall/while/body/_39/while/TensorArrayV2Write/TensorListSetItem", "^StatefulPartitionedCall/sequential_5/bidirectional_8/forward_lstm_8/PartitionedCall/while/loop_body_control/_80"], "attr": {"T": {"type": "DT_VARIANT"}}}, {"name": "StatefulPartitionedCall/sequential_5/bidirectional_8/backward_lstm_8/PartitionedCall/while/next_iteration/_168", "op": "NextIteration", "input": ["StatefulPartitionedCall/sequential_5/bidirectional_8/backward_lstm_8/PartitionedCall/while/body/_109/while/TensorArrayV2Write/TensorListSetItem", "^StatefulPartitionedCall/sequential_5/bidirectional_8/backward_lstm_8/PartitionedCall/while/loop_body_control/_150"], "attr": {"T": {"type": "DT_VARIANT"}}}], "library": {}, "versions": {"producer": 561}}, "weightsManifest": [{"paths": ["group1-shard1of2.bin", "group1-shard2of2.bin"], "weights": [{"name": "StatefulPartitionedCall/sequential_5/bidirectional_8/forward_lstm_8/PartitionedCall/TensorArrayV2_1/element_shape", "shape": [2], "dtype": "int32"}, {"name": "StatefulPartitionedCall/sequential_5/bidirectional_8/forward_lstm_8/PartitionedCall/TensorArrayUnstack/TensorListFromTensor/element_shape", "shape": [2], "dtype": "int32"}, {"name": "StatefulPartitionedCall/sequential_5/bidirectional_8/forward_lstm_8/PartitionedCall/ExpandDims/dim", "shape": [], "dtype": "int32"}, {"name": "StatefulPartitionedCall/sequential_5/bidirectional_8/forward_lstm_8/PartitionedCall/transpose_1/perm", "shape": [3], "dtype": "int32"}, {"name": "StatefulPartitionedCall/sequential_5/bidirectional_8/forward_lstm_8/PartitionedCall/TensorArrayUnstack_1/TensorListFromTensor/element_shape", "shape": [2], "dtype": "int32"}, {"name": "StatefulPartitionedCall/sequential_5/bidirectional_8/forward_lstm_8/zeros_1/packed/1", "shape": [], "dtype": "int32"}, {"name": "StatefulPartitionedCall/sequential_5/bidirectional_8/forward_lstm_8/zeros_1/Const", "shape": [], "dtype": "float32"}, {"name": "StatefulPartitionedCall/sequential_5/bidirectional_8/forward_lstm_8/PartitionedCall/split/split_dim", "shape": [], "dtype": "int32"}, {"name": "StatefulPartitionedCall/sequential_5/bidirectional_8/forward_lstm_8/PartitionedCall/strided_slice_1/stack", "shape": [1], "dtype": "int32"}, {"name": "StatefulPartitionedCall/sequential_5/bidirectional_8/forward_lstm_8/PartitionedCall/strided_slice_1/stack_1", "shape": [1], "dtype": "int32"}, {"name": "StatefulPartitionedCall/sequential_5/bidirectional_8/forward_lstm_8/PartitionedCall/strided_slice_1/stack_2", "shape": [1], "dtype": "int32"}, {"name": "StatefulPartitionedCall/sequential_5/bidirectional_8/forward_lstm_8/Read/ReadVariableOp", "shape": [64, 256], "dtype": "float32"}, {"name": "StatefulPartitionedCall/sequential_5/bidirectional_8/forward_lstm_8/strided_slice/stack", "shape": [1], "dtype": "int32"}, {"name": "StatefulPartitionedCall/sequential_5/bidirectional_8/forward_lstm_8/strided_slice/stack_1", "shape": [1], "dtype": "int32"}, {"name": "StatefulPartitionedCall/sequential_5/bidirectional_8/forward_lstm_8/strided_slice/stack_2", "shape": [1], "dtype": "int32"}, {"name": "StatefulPartitionedCall/sequential_5/bidirectional_8/forward_lstm_8/zeros/packed/1", "shape": [], "dtype": "int32"}, {"name": "StatefulPartitionedCall/sequential_5/bidirectional_8/forward_lstm_8/zeros/Const", "shape": [], "dtype": "float32"}, {"name": "StatefulPartitionedCall/sequential_5/bidirectional_8/forward_lstm_8/Read_1/ReadVariableOp", "shape": [64, 256], "dtype": "float32"}, {"name": "StatefulPartitionedCall/sequential_5/bidirectional_8/forward_lstm_8/Read_2/ReadVariableOp", "shape": [256], "dtype": "float32"}, {"name": "StatefulPartitionedCall/sequential_5/bidirectional_8/forward_lstm_8/PartitionedCall/time", "shape": [], "dtype": "int32"}, {"name": "StatefulPartitionedCall/sequential_5/bidirectional_8/forward_lstm_8/PartitionedCall/transpose/perm", "shape": [3], "dtype": "int32"}, {"name": "StatefulPartitionedCall/sequential_5/bidirectional_8/forward_lstm_8/PartitionedCall/strided_slice/stack", "shape": [1], "dtype": "int32"}, {"name": "StatefulPartitionedCall/sequential_5/bidirectional_8/forward_lstm_8/PartitionedCall/strided_slice/stack_1", "shape": [1], "dtype": "int32"}, {"name": "StatefulPartitionedCall/sequential_5/bidirectional_8/forward_lstm_8/PartitionedCall/strided_slice/stack_2", "shape": [1], "dtype": "int32"}, {"name": "StatefulPartitionedCall/sequential_5/bidirectional_8/forward_lstm_8/PartitionedCall/while/loop_counter", "shape": [], "dtype": "int32"}, {"name": "StatefulPartitionedCall/sequential_5/bidirectional_8/forward_lstm_8/PartitionedCall/TensorArrayV2Stack/TensorListStack/element_shape", "shape": [2], "dtype": "int32"}, {"name": "StatefulPartitionedCall/sequential_5/bidirectional_8/forward_lstm_8/PartitionedCall/strided_slice_2/stack", "shape": [1], "dtype": "int32"}, {"name": "StatefulPartitionedCall/sequential_5/bidirectional_8/forward_lstm_8/PartitionedCall/strided_slice_2/stack_1", "shape": [1], "dtype": "int32"}, {"name": "StatefulPartitionedCall/sequential_5/bidirectional_8/forward_lstm_8/PartitionedCall/strided_slice_2/stack_2", "shape": [1], "dtype": "int32"}, {"name": "StatefulPartitionedCall/sequential_5/bidirectional_8/backward_lstm_8/PartitionedCall/TensorArrayV2_1/element_shape", "shape": [2], "dtype": "int32"}, {"name": "StatefulPartitionedCall/sequential_5/bidirectional_8/backward_lstm_8/PartitionedCall/ReverseV2/axis", "shape": [1], "dtype": "int32"}, {"name": "StatefulPartitionedCall/sequential_5/bidirectional_8/backward_lstm_8/PartitionedCall/TensorArrayUnstack/TensorListFromTensor/element_shape", "shape": [2], "dtype": "int32"}, {"name": "StatefulPartitionedCall/sequential_5/embedding_5/NotEqual/y", "shape": [], "dtype": "float32"}, {"name": "StatefulPartitionedCall/sequential_5/bidirectional_8/backward_lstm_8/PartitionedCall/ExpandDims/dim", "shape": [], "dtype": "int32"}, {"name": "StatefulPartitionedCall/sequential_5/bidirectional_8/backward_lstm_8/PartitionedCall/transpose_1/perm", "shape": [3], "dtype": "int32"}, {"name": "StatefulPartitionedCall/sequential_5/bidirectional_8/backward_lstm_8/PartitionedCall/ReverseV2_1/axis", "shape": [1], "dtype": "int32"}, {"name": "StatefulPartitionedCall/sequential_5/bidirectional_8/backward_lstm_8/PartitionedCall/TensorArrayUnstack_1/TensorListFromTensor/element_shape", "shape": [2], "dtype": "int32"}, {"name": "StatefulPartitionedCall/sequential_5/bidirectional_8/backward_lstm_8/zeros_1/packed/1", "shape": [], "dtype": "int32"}, {"name": "StatefulPartitionedCall/sequential_5/bidirectional_8/backward_lstm_8/zeros_1/Const", "shape": [], "dtype": "float32"}, {"name": "StatefulPartitionedCall/sequential_5/bidirectional_8/backward_lstm_8/PartitionedCall/split/split_dim", "shape": [], "dtype": "int32"}, {"name": "StatefulPartitionedCall/sequential_5/bidirectional_8/backward_lstm_8/PartitionedCall/strided_slice_1/stack", "shape": [1], "dtype": "int32"}, {"name": "StatefulPartitionedCall/sequential_5/bidirectional_8/backward_lstm_8/PartitionedCall/strided_slice_1/stack_1", "shape": [1], "dtype": "int32"}, {"name": "StatefulPartitionedCall/sequential_5/bidirectional_8/backward_lstm_8/PartitionedCall/strided_slice_1/stack_2", "shape": [1], "dtype": "int32"}, {"name": "StatefulPartitionedCall/sequential_5/bidirectional_8/backward_lstm_8/Read/ReadVariableOp", "shape": [64, 256], "dtype": "float32"}, {"name": "StatefulPartitionedCall/sequential_5/bidirectional_8/backward_lstm_8/strided_slice/stack", "shape": [1], "dtype": "int32"}, {"name": "StatefulPartitionedCall/sequential_5/bidirectional_8/backward_lstm_8/strided_slice/stack_1", "shape": [1], "dtype": "int32"}, {"name": "StatefulPartitionedCall/sequential_5/bidirectional_8/backward_lstm_8/strided_slice/stack_2", "shape": [1], "dtype": "int32"}, {"name": "StatefulPartitionedCall/sequential_5/bidirectional_8/backward_lstm_8/zeros/packed/1", "shape": [], "dtype": "int32"}, {"name": "StatefulPartitionedCall/sequential_5/bidirectional_8/backward_lstm_8/zeros/Const", "shape": [], "dtype": "float32"}, {"name": "StatefulPartitionedCall/sequential_5/bidirectional_8/backward_lstm_8/Read_1/ReadVariableOp", "shape": [64, 256], "dtype": "float32"}, {"name": "StatefulPartitionedCall/sequential_5/bidirectional_8/backward_lstm_8/Read_2/ReadVariableOp", "shape": [256], "dtype": "float32"}, {"name": "StatefulPartitionedCall/sequential_5/bidirectional_8/backward_lstm_8/PartitionedCall/time", "shape": [], "dtype": "int32"}, {"name": "StatefulPartitionedCall/sequential_5/bidirectional_8/backward_lstm_8/PartitionedCall/transpose/perm", "shape": [3], "dtype": "int32"}, {"name": "StatefulPartitionedCall/sequential_5/bidirectional_8/backward_lstm_8/PartitionedCall/strided_slice/stack", "shape": [1], "dtype": "int32"}, {"name": "StatefulPartitionedCall/sequential_5/bidirectional_8/backward_lstm_8/PartitionedCall/strided_slice/stack_1", "shape": [1], "dtype": "int32"}, {"name": "StatefulPartitionedCall/sequential_5/bidirectional_8/backward_lstm_8/PartitionedCall/strided_slice/stack_2", "shape": [1], "dtype": "int32"}, {"name": "StatefulPartitionedCall/sequential_5/bidirectional_8/backward_lstm_8/PartitionedCall/while/loop_counter", "shape": [], "dtype": "int32"}, {"name": "StatefulPartitionedCall/sequential_5/bidirectional_8/backward_lstm_8/PartitionedCall/TensorArrayV2Stack/TensorListStack/element_shape", "shape": [2], "dtype": "int32"}, {"name": "StatefulPartitionedCall/sequential_5/bidirectional_8/backward_lstm_8/PartitionedCall/strided_slice_2/stack", "shape": [1], "dtype": "int32"}, {"name": "StatefulPartitionedCall/sequential_5/bidirectional_8/backward_lstm_8/PartitionedCall/strided_slice_2/stack_1", "shape": [1], "dtype": "int32"}, {"name": "StatefulPartitionedCall/sequential_5/bidirectional_8/backward_lstm_8/PartitionedCall/strided_slice_2/stack_2", "shape": [1], "dtype": "int32"}, {"name": "StatefulPartitionedCall/sequential_5/bidirectional_8/concat/axis", "shape": [], "dtype": "int32"}, {"name": "StatefulPartitionedCall/sequential_5/dense_10/MatMul/ReadVariableOp", "shape": [128, 64], "dtype": "float32"}, {"name": "StatefulPartitionedCall/sequential_5/dense_10/BiasAdd/ReadVariableOp", "shape": [64], "dtype": "float32"}, {"name": "StatefulPartitionedCall/sequential_5/dense_11/MatMul/ReadVariableOp", "shape": [64, 1], "dtype": "float32"}, {"name": "StatefulPartitionedCall/sequential_5/dense_11/BiasAdd/ReadVariableOp", "shape": [1], "dtype": "float32"}, {"name": "unknown", "shape": [20000, 64], "dtype": "float32"}, {"name": "StatefulPartitionedCall/sequential_5/embedding_5/embedding_lookup/axis", "shape": [], "dtype": "int32"}, {"name": "StatefulPartitionedCall/sequential_5/bidirectional_8/forward_lstm_8/PartitionedCall/while/body/_39/while/split/split_dim", "shape": [], "dtype": "int32"}, {"name": "StatefulPartitionedCall/sequential_5/bidirectional_8/forward_lstm_8/PartitionedCall/while/body/_39/while/TensorArrayV2Read/TensorListGetItem/element_shape", "shape": [2], "dtype": "int32"}, {"name": "StatefulPartitionedCall/sequential_5/bidirectional_8/forward_lstm_8/PartitionedCall/while/body/_39/while/TensorArrayV2Read_1/TensorListGetItem/element_shape", "shape": [2], "dtype": "int32"}, {"name": "StatefulPartitionedCall/sequential_5/bidirectional_8/forward_lstm_8/PartitionedCall/while/body/_39/while/add_2/y", "shape": [], "dtype": "int32"}, {"name": "StatefulPartitionedCall/sequential_5/bidirectional_8/forward_lstm_8/PartitionedCall/while/body/_39/while/add_3/y", "shape": [], "dtype": "int32"}, {"name": "StatefulPartitionedCall/sequential_5/bidirectional_8/backward_lstm_8/PartitionedCall/while/body/_109/while/split/split_dim", "shape": [], "dtype": "int32"}, {"name": "StatefulPartitionedCall/sequential_5/bidirectional_8/backward_lstm_8/PartitionedCall/while/body/_109/while/TensorArrayV2Read/TensorListGetItem/element_shape", "shape": [2], "dtype": "int32"}, {"name": "StatefulPartitionedCall/sequential_5/bidirectional_8/backward_lstm_8/PartitionedCall/while/body/_109/while/TensorArrayV2Read_1/TensorListGetItem/element_shape", "shape": [2], "dtype": "int32"}, {"name": "StatefulPartitionedCall/sequential_5/bidirectional_8/backward_lstm_8/PartitionedCall/while/body/_109/while/add_2/y", "shape": [], "dtype": "int32"}, {"name": "StatefulPartitionedCall/sequential_5/bidirectional_8/backward_lstm_8/PartitionedCall/while/body/_109/while/add_3/y", "shape": [], "dtype": "int32"}]}]}